model/0.pth (torch, 189719 bytes, 30 tensors)

n1.0.weight f4 [8, 39]
00000000: 3405 4ebd 5063 6f3b 29ed 7abd 119c 203d
00000010: e03d d7bd 599a c13d 499c b7bd d4d6 c8bd
00000020: c29f 9fbd 837e 6e3d a3ad 3abd 5ae0 1d3d
00000030: d466 d6bd 7744 99bd 1882 39bd 3b93 c6bc
00000040: e0b5 c0bd c873 b33d 3b4c eebc 7546 423d
00000050: 0b19 ae3d a516 9c3c fbd1 0f3d f05f e63d
00000060: f7dc 63bd 4884 193d e3c8 60bd 0253 b93d
00000070: dd57 d43d 50e7 e8bd 0f70 e53d 37df 7f3d
00000080: 8ba7 653d 8e4b 633d 0ab8 d23d a56b 85bc
00000090: c1a2 d5bd 9df9 10bd 09e9 b1bd 35a2 ae3b
000000a0: 04a9 bcbc ab7f 87bd a6be 37bc 0d4b f53d
000000b0: 8c66 1fbc 9613 733b 7897 9dbc 7e85 053d
000000c0: 2777 f03d 0458 923d 1994 0f3d 7c08 db3c
000000d0: 159a c83c 493b 483d 3993 82bc 52c8 eabd
000000e0: 4d38 9cbd 7a43 c83d c702 143c efa2 ccbd
000000f0: 9e98 0c3d 610d d43d 6bb8 eebd f111 aabd
00000100: 2037 49bd 534d e13b 34ab ebbc bd14 5ebc
00000110: 9545 f6bd 0513 723d 672d da3d 12d6 8c3d
00000120: 77e2 b2bd 28a2 cbbd a520 453d 7d24 983b
00000130: e5a7 563d c2d7 f6bd 93fc f0bb d922 bc3d
00000140: c33a 923d 3302 c9b9 beaa c23c 2c57 3fbc
00000150: 61e5 8abd 02ed 3ebd 59d6 99bd 96a3 dd3d
00000160: 322f 8e3d 3a6e 243d deb7 c1bd 48c4 bf3d
00000170: 983b 063d d8ed a13d 91c0 46bd 7bbd db3c
00000180: 646d ee3d cf03 b23d 1a59 d03d 572e d4bc
00000190: b3fd b73d 23db c5bd c905 fb3b 653c 8ebd
000001a0: 88a7 ebbc 5063 01bd b6e0 abb9 9d4d ea3d
000001b0: e2b7 663d 79fa 08ba 755a ab3d 2c74 81bd
000001c0: 441b 8d3d b667 3bbc b4d4 afbc 3a6d a33c
000001d0: fd86 c1bd f044 943c 957e 2e3d a17c d33d
000001e0: be4c 1dbd eea1 4e3d 0a10 083e 52ba 58bd
000001f0: b467 ec3d a5d7 7abd 2959 943d a70d 453d
00000200: 421b 303d 69f7 c83d 1f32 4cbd 9e09 063d
00000210: e706 59bb 8800 bebd 755a f5bc b2b3 a8bd
00000220: b57f 753d 20f9 073c d8e0 133c 9845 19bd
00000230: 2fc8 4fbb dc25 1dbd 5ef3 f73c 03dd db3d
00000240: 6aa0 b83c 78c6 5fbd d34d 9abd fb0b 043c
00000250: b766 bbbd c0e0 bdbd d36b a4bd 3d99 2bbd
00000260: 7905 ea37 0937 af3d ff0e 363d 0f58 c93d
00000270: c19d 9ebd e655 513c 588b e0bd 9af4 883d
00000280: 01a4 9a3c 6dc0 f93d 99a9 b3bd fe15 c23d
00000290: 7bee e03d 5ad5 d83d 1d95 7d3c 7a96 f03d
000002a0: bd35 af3d f3b4 a53d c547 03bc 19db c1bd
000002b0: f02f c9ba afb1 993c c312 acbd e7e8 90bd
000002c0: 8931 f2bd 5c1b 31bd 861c dd3d c14d a03c
000002d0: 35e0 f6bb ba5c a33b 7f16 903d 2a13 dfbd
000002e0: 33ea c2bd 40f9 27bd 6162 91bd 3d13 853d
000002f0: 6779 ba3d eb17 f5bd 9463 d6bd 3500 f6bd
00000300: 447d 3c3d ab1c cb3d b9dc c3bd 1fe6 69bd
00000310: 22ba 1d3d 2cf4 a4bd 4c10 d73d 7e86 cd3c
00000320: c8a5 0cbd b6a3 0e3c 84bf 233d e4a7 32bd
00000330: 64bd c3bd 40d1 e8ba 272d 82bb 819a aeb8
00000340: e774 93bc a573 a53d 2efd 0cbd 359c 43bc
00000350: 7a6c 4a3d 4c01 9fbd d09c 323d a16d dfbc
00000360: 7b12 633d d408 89bd e9ff 183a 8cd0 6d3c
00000370: b640 cbbd cdaf b7bd 51ac 2f3d d60c 13bd
00000380: 4421 923d 6d8c f9bd c6bf 79bd a811 d0bd
00000390: ded9 473d 315b 6abb dc78 bcbc 831c a8bc
000003a0: be74 c5bd e6e4 103d 05b4 ba3a 2155 aebd
000003b0: f62d 2a3d 6379 22bb d050 f4bd 02bd 6a3d
000003c0: 0fdb 7f3d 7061 bebc 346a aebd 40d9 cf3b
000003d0: 2272 bf3d 57c8 f53d 7eac bebd 5332 64bd
000003e0: e673 c23d e803 8d3d 4f93 933d 5478 7bbd
000003f0: 681d de3d 81aa cfbd d2b0 c2bb 245f 3aba
-0.05029793 0.00365277 -0.06126133 0.039211337 -0.105098486 0.094532676 -0.08965356 -0.098066
-0.07794143 0.05822612 -0.04557575 0.038544036 -0.10468832 -0.07483762 -0.045290083 -0.024240127
-0.0940969 0.08762318 -0.029089084 0.047430474 0.0850087 0.019053767 0.035112362 0.112487674
-0.05563065 0.03747967 -0.05487908 0.090490356 0.10368321 -0.11372244 0.11203014 0.062468734
0.056067985 0.055491976 0.10289009 -0.01628668 -0.104314335 -0.0353943 -0.08687026 0.005329395
-0.023029812 -0.066161476 -0.011214888 0.119772054 -0.009729039 0.0037090532 -0.019237265 0.03259801
0.117414765 0.07145694 0.035053346 0.026737444 0.024487535 0.048884664 -0.015939342 -0.11463989
-0.07627926 0.09778495 0.009033865 -0.099920146 0.034325235 0.10354114 -0.11656269 -0.08304203
-0.049124837 0.006875673 -0.02876816 -0.013554749 -0.120249905 0.05910017 0.10653191 0.06876768
-0.08734601 -0.09943038 0.048126835 0.0046430216 0.05240621 -0.12052871 -0.007354328 0.09186334
0.07140114 -0.00038339346 0.023763057 -0.011678498 -0.06782032 -0.046612747 -0.07511587 0.10822217
0.069425955 0.040144183 -0.09458898 0.093636096 0.032771677 0.07906693 -0.04852349 0.02682375
0.11641958 0.08692133 0.10173245 -0.025901003 0.08983936 -0.09660938 0.0076606018 -0.06945113
-0.028766409 -0.031588852 -0.00032783084 0.11440585 0.056327708 -0.00052253116 0.08366863 -0.06320986
0.06889966 -0.011438301 -0.02146373 0.019949544 -0.09449575 0.018099278 0.042601187 0.103265055
-0.038403265 0.050447397 0.13287368 -0.052912064 0.11543217 -0.06124081 0.072435685 0.048108723
0.042994745 0.09812815 -0.049852487 0.032724015 -0.0033115686 -0.09277445 -0.02995036 -0.08237399
0.059936244 0.008299142 0.009025775 -0.037419885 -0.0031705012 -0.038366184 0.030267414 0.10735514
0.022537429 -0.054632634 -0.07534375 0.008059497 -0.09150451 -0.09271383 -0.08028378 -0.041894186
2.7897522e-05 0.08555419 0.044447895 0.09831249 -0.07744933 0.012776827 -0.10964078 0.06687279
0.018877031 0.121949054 -0.087725826 0.09476851 0.109829865 0.105875686 0.015477446 0.11747451
0.08555172 0.08091154 -0.008012717 -0.09465618 -0.001534937 0.018761484 -0.08402016 -0.070756726
-0.11825854 -0.043238983 0.10796456 0.019568326 -0.007534052 0.004985419 0.07035541 -0.10892327
-0.09517326 -0.041009188 -0.070988424 0.0649781 0.09105187 -0.119674526 -0.10468212 -0.12011758
0.0460179 0.09917577 -0.09563584 -0.057104226 0.03850759 -0.080543846 0.10501155 0.025088545
-0.03433779 0.008706024 0.039977565 -0.043617144 -0.09557608 -0.0017762557 -0.0039726677 -8.325745e-05
-0.01800008 0.08078698 -0.03442114 -0.011939098 0.049419858 -0.07763919 0.04360658 -0.027273955
0.055437546 -0.06691137 0.00058364734 0.0145150535 -0.09924452 -0.08969078 0.042888943 -0.035900913
0.07135251 -0.12184987 -0.060973905 -0.10159618 0.04879176 -0.003575992 -0.023006849 -0.020521408
-0.096414074 0.035374545 0.0014244324 -0.08512331 0.041547738 -0.002479159 -0.11929476 0.05730916
0.06246477 -0.023239821 -0.085163504 0.006343037 0.09347941 0.120011024 -0.09310244 -0.055712055
0.09494762 0.06885511 0.07205831 -0.06139405 0.108454525 -0.10139943 -0.005941489 -0.0007109514

n1.2.weight f4 [1248, 8]
00000000: 9e1a 23be 31db 833e da81 e8bd 89f9 6d3d
00000010: b237 08be 167a 06be 44d5 f93d b077 9bbd
00000020: 93bd 30be 1fdb e3bd 9b74 4b3e f3e5 273e
00000030: 05e1 293e 4502 6ebe 9978 033e b76b 8b3d
00000040: a96d 3bbe 2e93 0c3c 1165 5f3d 0cc2 16be
00000050: 1484 ebbd ab75 633e 700b b4bc e7c3 37bb
00000060: c197 30be 17b2 26be a65b 803e 15f0 cf3d
00000070: 5d14 30bd 05f0 293e 5f9e 04be 7f45 73be
00000080: aa61 8abe 8695 e23d 6754 d9bd b42c 2b3e
00000090: 4c2e 6e3e 95c7 b73d 0e95 6f3e 215b 80bd
000000a0: d9ef 723e b0ed 04be a102 12bd 545c 393e
000000b0: 2869 10be d2cc 543e 0fbd 883d 8a41 b0bb
000000c0: 2dba 6e3e f632 513e bf72 e5bd b6d9 d73c
000000d0: 5efa 013d cf66 643e 37d4 1c3e 9acd 613e
000000e0: 6d13 2a3e ecb6 72be 9551 393e c42e 94bd
000000f0: 22a5 5f3e af84 2f3e 1228 23be 2f63 eabc
00000100: e7e9 263d e83b 9f3d 542e 81be a0d0 453c
00000110: 0918 113e 6767 1d3e ef0d 093e d373 303d
00000120: efb7 85be 5b7a 373e 8d90 5bbe 53f3 23be
00000130: 1adf 4d3b 42d4 a93d 0c0d 223e f284 1cbd
00000140: 268e 0fbe dfaa bfbc acf0 b63d 68cb 1cbe
00000150: 7721 72be 0230 053e 6484 38be 3fe9 1cbe
00000160: a973 673e c3bf 37be e541 62be bff8 533e
00000170: ce0e 05be 9528 913c a7f1 8a3e 7d81 debd
00000180: f9f0 813e 5b80 5d3e 3e5f 573e e74c a53d
00000190: 3096 fbbd e594 2f3e 9b0f 3fbe 1070 22be
000001a0: 079b 06be e25e f13d 79dd 193d 178e 313e
000001b0: 0d65 373e dc83 823c 4189 223e 6798 49be
000001c0: a04e 85be f335 63be 15c8 193e 2a3e 803e
000001d0: a20f 9abd 7a4d 1a3e fd47 47be 412a aebb
000001e0: 329a eeba 1e5c a1bd 6d4b 07be 0cfa 023e
000001f0: ca12 c1bc 2c23 5dbd 8fc4 413e 1cdf 53be
00000200: a01b 363e cca9 773e a878 2bbe f824 84be
00000210: 2414 1b3d fd2c 54be fc3d e93d 716d 5ebe
00000220: 81a7 59be ccd0 963d 9f47 8fbd 61c8 76be
00000230: eea6 d93d baf9 c43d 196e 163d 9239 363e
00000240: 85f8 dfbd 238a 7e3e a083 54be 5f73 7b3e
00000250: b033 4f3e cf11 78be 5b59 c6bc 1a05 16be
00000260: 2744 893e e66a 3bbc 4e37 243e 5412 713e
00000270: 712a 57be 878b 293e f5a1 72be 7489 96bd
00000280: 3c2b e1bd 536e 82be 5b7a 83be b467 86be
00000290: a6a2 57be cfdc 1bbe 8fca b7bd 1aef 1b3e
000002a0: 6ee4 32bd 1718 8abe 5ab5 4abe 3c49 483e
000002b0: 9b1a 88be 0c1c 09be b48d 7cbe 9921 163e
000002c0: 8871 3e3e 3bb9 c33c bc35 0cbe 72ff 86bd
000002d0: 283b 833c c9c4 e93d b133 993b 0120 02be
000002e0: 29af 5b3c 803a 083c d52a 303b a288 f23d
000002f0: 9e5a d2bd 29d0 8c3c 571f 963a 4fbc eb3d
00000300: 63d9 2abe 45f0 59be 10fa 62be 3d7f ea3d
00000310: bcfd 5d3e 0b4c 8a3e 7f52 c73d ceac 63bd
00000320: 26ee 4d3d 9ce9 89be 2a13 013d f23b b8bd
00000330: 0721 aabc bd36 203e 1a0b c0bd 1f2e 53be
00000340: 23e7 873c 1989 9bbd 6e00 02be 46b0 aabd
00000350: de51 1ebe 12c6 743e aaac 983c f0f9 13be
00000360: f5b0 313e 7b12 2d3d 6210 203e 5031 573e
00000370: 3df3 893e 6585 90bd 5912 073c f1a5 21be
00000380: aa59 7e3e ffbd b13d 096b 38bd 53f2 8b3d
00000390: 586b 8a3e 1421 e33d fe83 073e 0dbc 803e
000003a0: 7d53 403c 1915 a43a 9761 8a3d 72e6 80be
000003b0: 75bf c23d 9ea5 05bb 3a15 56bc e8bb 803c
000003c0: 6d0b 773e 8d16 a03d 59be 7cbe b12b 813e
000003d0: d71c 2a3e 07b1 0c3e 6b42 e63d df98 d93c
000003e0: e3e4 19be e5b2 323e e75e 50be 9cc0 28be
000003f0: 10c2 2e3a 5e62 58be 7d01 7d3e c98b 8a3e
-0.15928122 0.25753167 -0.11352892 0.058099303 -0.13302496 -0.1313251 0.1219888 -0.07591188
-0.17259817 -0.111257784 0.198687 0.16396312 0.16589744 -0.23243053 0.12838973 0.06807654
-0.18303551 0.008580012 0.054539744 -0.1472246 -0.11499801 0.22212856 -0.02197811 -0.002804035
-0.1724539 -0.16278873 0.25069922 0.10153214 -0.04298817 0.16595466 -0.12951039 -0.2375698
-0.27027637 0.110636756 -0.106118016 0.16716272 0.23259848 0.08973614 0.23396704 -0.062673815
0.23724307 -0.12981296 -0.03564704 0.18101627 -0.14102614 0.20781258 0.06676685 -0.0053789066
0.23313208 0.20429596 -0.11203527 0.02634893 0.03173291 0.22304843 0.15315329 0.22051087
0.16608973 -0.23702592 0.18097527 -0.07235482 0.21840337 0.17140459 -0.15933254 -0.028611748
0.04075041 0.07775098 -0.25230658 0.012073666 0.14169325 0.15371476 0.13384221 0.04307921
-0.26116893 0.17917769 -0.2144186 -0.1601079 0.0031413496 0.08292438 0.1582529 -0.038212724
-0.14019069 -0.023396907 0.08932623 -0.15311968 -0.23645578 0.13006595 -0.18019253 -0.15323351
0.22602715 -0.17944245 -0.2209545 0.20700358 -0.12993929 0.017719546 0.2713749 -0.10864542
0.2537916 0.21630995 0.21032426 0.080713086 -0.12284505 0.17146643 -0.18658297 -0.15863061
-0.13145076 0.117856756 0.03756473 0.17339359 0.17909642 0.015932016 0.1587267 -0.19687043
-0.2603655 -0.22188549 0.15017731 0.25047427 -0.07522513 0.15068617 -0.19461055 -0.0053150957
-0.0018203913 -0.07878898 -0.13212366 0.12790698 -0.02356853 -0.05398862 0.18922637 -0.20690578
0.17783976 0.24185866 -0.16745245 -0.25809455 0.037861004 -0.20720287 0.11388776 -0.21721436
-0.21255304 0.073640436 -0.069960825 -0.24099876 0.106275424 0.09617944 0.03672609 0.17795399
-0.10936073 0.24857382 -0.20753336 0.2455573 0.20234561 -0.24225543 -0.02421253 -0.14650384
0.2680981 -0.011439061 0.16036722 0.23542148 -0.21012284 0.16557132 -0.23694594 -0.07350436
-0.109945744 -0.25474796 -0.25679287 -0.26250994 -0.21058139 -0.1522095 -0.08974182 0.15227929
-0.04367488 -0.26971504 -0.19795743 0.19559187 -0.26582798 -0.13389605 -0.2466343 0.14661254
0.18597996 0.023892036 -0.13692373 -0.06591691 0.016019419 0.11414487 0.0046753515 -0.12707521
0.013408461 0.008314729 0.0026880999 0.11842467 -0.1027119 0.017189102 0.0011453432 0.115105264
-0.16684489 -0.21283062 -0.22165704 0.1145005 0.21678823 0.2701114 0.09732532 -0.05558472
0.050275944 -0.26936042 0.031512417 -0.08995809 -0.020767702 0.15645881 -0.093771175 -0.20623063
0.016589707 -0.07594509 -0.12695476 -0.08334403 -0.15460917 0.23903683 0.01863702 -0.14450812
0.1735266 0.042253952 0.1563125 0.21014905 0.2694339 -0.07056693 0.0082441205 -0.15785958
0.24838892 0.08678817 -0.04502395 0.06833329 0.27035022 0.110902935 0.13233945 0.2514347
0.011738655 0.0012518495 0.06756895 -0.25175816 0.09509174 -0.0020392905 -0.013066584 0.0157146
0.24125452 0.07816801 -0.24681987 0.25228646 0.16612564 0.13739406 0.11243137 0.026562152
-0.1502872 0.17451055 -0.20348702 -0.16479725 0.0006666491 -0.21131274 0.24707599 0.27059773

n1.2.bias f4 [1248]
00000000: 57af 89bd 696c cb3c e1f9 61be c11f 543e
00000010: aac4 6abe cbda 7dbd d8da 283e e2b4 053d
00000020: 785c 3a3e 244f 293e 1b61 1bbe 76f5 afbd
00000030: bf68 74be 91ba 19bd ac35 5abe 1b91 d7bd
00000040: e2ea 7f3e 0ba6 9abd df57 3dbd 72af a9bd
00000050: 317a 69bd d3c5 3c3e bb9f 6abe 568b 283e
00000060: ad21 aabc 5ddb 28be e53b 3b3d 153a 2b3e
00000070: be09 0e3e 3fb8 bdbd 473f 0fbe 3fd3 ebbd
00000080: da4b 27bc 7051 6bbe 1d55 6cbb 2782 1b3d
00000090: 6673 acbc 1267 063d 2905 1abe 88ec 04bd
000000a0: 8a00 6c3e 5339 173e a4e3 d93d 8be3 113d
000000b0: 75a8 db3d 1da8 45be 57ed 89be 993d d0bd
000000c0: bacb 8b3e 33c4 35be df55 49be 875f 103e
000000d0: 8488 92bc acaa 34be 8790 e23b e796 f23d
000000e0: 77dd d7bd d769 98bd 35c0 72be 011c 623e
000000f0: 7472 9bbd 1b1c 853e 7699 403e 7caf 98bd
00000100: ef9e 3dbe 6127 64be 8fe4 7e3e 25a5 46be
00000110: 409c 10be 3e3b 2fbe 9e49 1e3e c17f de3d
00000120: 6770 57be 0bd8 47be 8d86 893e d86a b53d
00000130: d630 f7bc 55f4 5e3e 0f02 8abe 227e 593d
00000140: 6c18 67bd bafc 873e a614 87be 996f 433e
00000150: a4b2 b2bc 99aa ffbd dbb6 8a3e 94fb dcbd
00000160: 13ee 233e 4c83 0cbe d994 62be a46f 2dbd
00000170: db66 77be ae69 89be 14ee d3bd 95b1 a7bc
00000180: 54bf 4d3e 4210 42bd ed06 40be d5b1 01bd
00000190: 93dd 11be b32b 233e 52d3 4bbe f0a2 0bbd
000001a0: 6910 7dbd 66ea 0d3c e2da b2bd 2a4d 5e3e
000001b0: 4cbf 10bc c357 853e 9395 eebd 1fd6 3f3e
000001c0: de7a fd3d dadb fd3b 72b1 4d3d 00ec 1dbe
000001d0: 8d4e 803e 15f0 39be 39e7 113d c1cb 86be
000001e0: 1252 293e 0025 e23d 0557 283e 22da 27bd
000001f0: f665 c93d ccec 79be 6837 31be a33a e23d
00000200: a512 4a3e d637 4e3e 8f37 f03d 5de6 84be
00000210: 695c 11be f0ad 8a3e b778 75bc 26f0 243e
00000220: b326 a83d 2246 35be cecb 243e b418 fdbd
00000230: 545e b73d c2e0 853d 9604 c63d be67 83be
00000240: 578a 64be 9f8a f63d d561 eb3d 6de1 51be
00000250: ca81 0bbe 1417 5b3e 6931 5abe 7dfa 25be
00000260: 73fe 0b3e ec5e b73b 85f3 1d3d 1aba 043b
00000270: d557 6bbd ac1c 67bd a6ee 21bd c324 e6bd
00000280: 72e6 db3c acef 5cbe e84f 24bc 8a29 443e
00000290: 76b7 80be 633f 8d3b d4b0 0f3e 8848 80bc
000002a0: 9103 703e 9b6b 0abe 254e 6e3e 42d9 8ebd
000002b0: 9074 e5bd d0a0 51be 12f6 873c 55c0 40be
000002c0: e32a 1bbe a3b5 ed3c 4d96 123e 6c33 963d
000002d0: 20a3 243e 8888 493e 81bb 83be 3233 2e3e
000002e0: a40b ff3b 4b94 08bd 89c8 5b3e 2437 923d
000002f0: 3373 40be adbc 10be 7cd1 4a3e 0268 743e
00000300: 865f 7fbe 2bc7 7e3d aec0 ed3d 30be dc3d
00000310: 32dd b23d 9c24 7fbd 6300 023d ed52 043e
00000320: fa6d cfbc df39 2bbd 7dfe 2ebe e765 71be
00000330: 7c4c 9c3c 36c3 653c fe87 493e a802 25be
00000340: e603 43bc d150 42be f454 973c fa94 00be
00000350: af89 833c 2588 38bd 0d1f 4abe d081 16be
00000360: abd3 233e c259 143e 33d6 debd e286 663c
00000370: 7d70 343e 0cb2 483e 893a dbbc ae92 00be
00000380: 665f 323e 1f65 62be 235f 7bbe b4e5 21be
00000390: 86ad 05be ff8c 713b 04b1 f33d fa0a 1e3d
000003a0: a92c e83d f36f 963c d550 e6bd 9231 70be
000003b0: 5b24 12be 632a 6fbe 9526 793d 3278 693e
000003c0: f890 303c 8d42 1e3e 1350 67be 9eeb 523e
000003d0: 52bf 8a3e f501 913e b5fc d53d 4645 11bd
000003e0: 975c 373e 3c36 843e 9dba 973d 8954 c63d
000003f0: c5f0 6f3d 432f 3c3e f7fb 37bd 27b2 92bd
-0.067228965 0.024831967 -0.22067977 0.20715238 -0.22926584 -0.061976235 0.16489732 0.032643206
0.18199337 0.16534096 -0.15173762 -0.0859174 -0.23868082 -0.03753144 -0.21309537 -0.105257235
0.24991944 -0.075512014 -0.04622638 -0.08285417 -0.057001296 0.18434839 -0.22912495 0.16459402
-0.020768011 -0.1648993 0.045711417 0.16721375 0.13870904 -0.09263658 -0.13988982 -0.11514901
-0.0102109555 -0.22980285 -0.0036061474 0.03796592 -0.02105112 0.03281314 -0.15041031 -0.032452136
0.2304708 0.14767961 0.10639122 0.035617393 0.1072549 -0.19302411 -0.26938888 -0.10167999
0.2730387 -0.17750625 -0.19661663 0.14098941 -0.017887361 -0.17643231 0.0069142017 0.118451886
-0.10540288 -0.07442062 -0.23706134 0.22080995 -0.075901896 0.25998005 0.1880854 -0.07455346
-0.1851766 -0.22280647 0.24891876 -0.19398935 -0.14122105 -0.17112443 0.1545777 0.10864211
-0.21038972 -0.19516008 0.26860467 0.088582695 -0.030174654 0.21772893 -0.26954696 0.053098805
-0.056419775 0.26560003 -0.2638294 0.1908554 -0.021813698 -0.12483711 0.27092633 -0.10790172
0.16008787 -0.13721961 -0.22127093 -0.042342797 -0.2416033 -0.2683844 -0.10348144 -0.02047042
0.20092517 -0.047378786 -0.18752642 -0.031663734 -0.1424468 0.15934639 -0.19904831 -0.034090936
-0.061783228 0.008661842 -0.08733155 0.21709123 -0.008834671 0.2604352 -0.11649623 0.18734024
0.12376951 0.0077471556 0.050218053 -0.15422058 0.2505993 -0.1815799 0.0356209 -0.26327327
0.16535214 0.110422134 0.16439445 -0.040979512 0.09833901 -0.24406737 -0.17306292 0.1104634
0.19733675 0.20138487 0.11729347 -0.25957003 -0.14195408 0.2708583 -0.014982394 0.16107234
0.08210506 -0.17702535 0.1609337 -0.12358227 0.089535385 0.0653701 0.096688434 -0.25665087
-0.22318397 0.120381586 0.11493269 -0.2049615 -0.1362373 0.21395522 -0.21307911 -0.16208835
0.13671283 0.0055960324 0.038562316 0.0020252527 -0.05745681 -0.056423828 -0.039534234 -0.112374805
0.026843283 -0.21575803 -0.010028817 0.19156471 -0.2513997 0.004310535 0.14032298 -0.015659586
0.2343886 -0.1351761 0.23271997 -0.069750324 -0.11203873 -0.20471501 0.016596828 -0.18823369
-0.15153079 0.029017275 0.14315148 0.07334027 0.16077852 0.19680989 -0.25728992 0.17011717
0.00778337 -0.03334455 0.21463217 0.071394235 -0.18793945 -0.14134474 0.19806474 0.23867801
-0.24938783 0.06220166 0.11609016 0.10778463 0.08733596 -0.062290773 0.03173865 0.12922259
-0.025320996 -0.041803237 -0.17089267 -0.23574029 0.01907944 0.014023593 0.19680783 -0.16114295
-0.011902785 -0.18976142 0.018473126 -0.1255683 0.016056864 -0.045051713 -0.19738407 -0.14697957
0.15998714 0.14487365 -0.10880699 0.0140702445 0.17621036 0.1959917 -0.02676131 -0.12555954
0.17419204 -0.22108887 -0.2454801 -0.15810281 -0.13054475 0.0036857722 0.118989974 0.038584687
0.11336643 0.018363928 -0.11245886 -0.2345641 -0.14271681 -0.23356013 0.06082781 0.22799757
0.010776751 0.15455075 -0.2258914 0.20597693 0.2709909 0.28321806 0.10448591 -0.035466455
0.17906414 0.25822628 0.074086405 0.096840926 0.058579225 0.18377404 -0.044918027 -0.07162886

conv1.bias f4 [32]
00000000: 991f 3ebe 027a 2e3a c6cc 12be ca80 c43d
00000010: ff11 3a3d 7f44 d5bc 0fd6 53bd 0010 a2bd
00000020: 3c4a cd3d cf3e 1e3d 0c2a 013c 6e5e 1b3c
00000030: 7386 66bd 0368 7a3d 1e2c 30bd 5073 3c3d
00000040: a877 fb3d 9981 893d a7c5 053e 016d eabd
00000050: e311 a43d 2dce 1fbd 51c0 05bd e812 41be
00000060: 9525 103e 117c 1a3d 77b5 d9bd 12fc e03d
00000070: 89f3 a33b ca4e e93d 64a7 fabd f5a5 83bd
-0.18566741 0.0006655754 -0.14335927 0.09594877 0.04542732 -0.026033638 -0.051717814 -0.07913208
0.10023925 0.038634118 0.00788356 0.009482963 -0.056280565 0.06113435 -0.043010823 0.046008408
0.12278682 0.06714172 0.1306368 -0.11446572 0.08011224 -0.039014984 -0.03265411 -0.18854868
0.14076836 0.037715975 -0.10630315 0.109855786 0.005003397 0.11391981 -0.122389585 -0.06428138

conv1.nn.0.weight f4 [8, 39]
00000000: 3405 4ebd 5063 6f3b 29ed 7abd 119c 203d
00000010: e03d d7bd 599a c13d 499c b7bd d4d6 c8bd
00000020: c29f 9fbd 837e 6e3d a3ad 3abd 5ae0 1d3d
00000030: d466 d6bd 7744 99bd 1882 39bd 3b93 c6bc
00000040: e0b5 c0bd c873 b33d 3b4c eebc 7546 423d
00000050: 0b19 ae3d a516 9c3c fbd1 0f3d f05f e63d
00000060: f7dc 63bd 4884 193d e3c8 60bd 0253 b93d
00000070: dd57 d43d 50e7 e8bd 0f70 e53d 37df 7f3d
00000080: 8ba7 653d 8e4b 633d 0ab8 d23d a56b 85bc
00000090: c1a2 d5bd 9df9 10bd 09e9 b1bd 35a2 ae3b
000000a0: 04a9 bcbc ab7f 87bd a6be 37bc 0d4b f53d
000000b0: 8c66 1fbc 9613 733b 7897 9dbc 7e85 053d
000000c0: 2777 f03d 0458 923d 1994 0f3d 7c08 db3c
000000d0: 159a c83c 493b 483d 3993 82bc 52c8 eabd
000000e0: 4d38 9cbd 7a43 c83d c702 143c efa2 ccbd
000000f0: 9e98 0c3d 610d d43d 6bb8 eebd f111 aabd
00000100: 2037 49bd 534d e13b 34ab ebbc bd14 5ebc
00000110: 9545 f6bd 0513 723d 672d da3d 12d6 8c3d
00000120: 77e2 b2bd 28a2 cbbd a520 453d 7d24 983b
00000130: e5a7 563d c2d7 f6bd 93fc f0bb d922 bc3d
00000140: c33a 923d 3302 c9b9 beaa c23c 2c57 3fbc
00000150: 61e5 8abd 02ed 3ebd 59d6 99bd 96a3 dd3d
00000160: 322f 8e3d 3a6e 243d deb7 c1bd 48c4 bf3d
00000170: 983b 063d d8ed a13d 91c0 46bd 7bbd db3c
00000180: 646d ee3d cf03 b23d 1a59 d03d 572e d4bc
00000190: b3fd b73d 23db c5bd c905 fb3b 653c 8ebd
000001a0: 88a7 ebbc 5063 01bd b6e0 abb9 9d4d ea3d
000001b0: e2b7 663d 79fa 08ba 755a ab3d 2c74 81bd
000001c0: 441b 8d3d b667 3bbc b4d4 afbc 3a6d a33c
000001d0: fd86 c1bd f044 943c 957e 2e3d a17c d33d
000001e0: be4c 1dbd eea1 4e3d 0a10 083e 52ba 58bd
000001f0: b467 ec3d a5d7 7abd 2959 943d a70d 453d
00000200: 421b 303d 69f7 c83d 1f32 4cbd 9e09 063d
00000210: e706 59bb 8800 bebd 755a f5bc b2b3 a8bd
00000220: b57f 753d 20f9 073c d8e0 133c 9845 19bd
00000230: 2fc8 4fbb dc25 1dbd 5ef3 f73c 03dd db3d
00000240: 6aa0 b83c 78c6 5fbd d34d 9abd fb0b 043c
00000250: b766 bbbd c0e0 bdbd d36b a4bd 3d99 2bbd
00000260: 7905 ea37 0937 af3d ff0e 363d 0f58 c93d
00000270: c19d 9ebd e655 513c 588b e0bd 9af4 883d
00000280: 01a4 9a3c 6dc0 f93d 99a9 b3bd fe15 c23d
00000290: 7bee e03d 5ad5 d83d 1d95 7d3c 7a96 f03d
000002a0: bd35 af3d f3b4 a53d c547 03bc 19db c1bd
000002b0: f02f c9ba afb1 993c c312 acbd e7e8 90bd
000002c0: 8931 f2bd 5c1b 31bd 861c dd3d c14d a03c
000002d0: 35e0 f6bb ba5c a33b 7f16 903d 2a13 dfbd
000002e0: 33ea c2bd 40f9 27bd 6162 91bd 3d13 853d
000002f0: 6779 ba3d eb17 f5bd 9463 d6bd 3500 f6bd
00000300: 447d 3c3d ab1c cb3d b9dc c3bd 1fe6 69bd
00000310: 22ba 1d3d 2cf4 a4bd 4c10 d73d 7e86 cd3c
00000320: c8a5 0cbd b6a3 0e3c 84bf 233d e4a7 32bd
00000330: 64bd c3bd 40d1 e8ba 272d 82bb 819a aeb8
00000340: e774 93bc a573 a53d 2efd 0cbd 359c 43bc
00000350: 7a6c 4a3d 4c01 9fbd d09c 323d a16d dfbc
00000360: 7b12 633d d408 89bd e9ff 183a 8cd0 6d3c
00000370: b640 cbbd cdaf b7bd 51ac 2f3d d60c 13bd
00000380: 4421 923d 6d8c f9bd c6bf 79bd a811 d0bd
00000390: ded9 473d 315b 6abb dc78 bcbc 831c a8bc
000003a0: be74 c5bd e6e4 103d 05b4 ba3a 2155 aebd
000003b0: f62d 2a3d 6379 22bb d050 f4bd 02bd 6a3d
000003c0: 0fdb 7f3d 7061 bebc 346a aebd 40d9 cf3b
000003d0: 2272 bf3d 57c8 f53d 7eac bebd 5332 64bd
000003e0: e673 c23d e803 8d3d 4f93 933d 5478 7bbd
000003f0: 681d de3d 81aa cfbd d2b0 c2bb 245f 3aba
-0.05029793 0.00365277 -0.06126133 0.039211337 -0.105098486 0.094532676 -0.08965356 -0.098066
-0.07794143 0.05822612 -0.04557575 0.038544036 -0.10468832 -0.07483762 -0.045290083 -0.024240127
-0.0940969 0.08762318 -0.029089084 0.047430474 0.0850087 0.019053767 0.035112362 0.112487674
-0.05563065 0.03747967 -0.05487908 0.090490356 0.10368321 -0.11372244 0.11203014 0.062468734
0.056067985 0.055491976 0.10289009 -0.01628668 -0.104314335 -0.0353943 -0.08687026 0.005329395
-0.023029812 -0.066161476 -0.011214888 0.119772054 -0.009729039 0.0037090532 -0.019237265 0.03259801
0.117414765 0.07145694 0.035053346 0.026737444 0.024487535 0.048884664 -0.015939342 -0.11463989
-0.07627926 0.09778495 0.009033865 -0.099920146 0.034325235 0.10354114 -0.11656269 -0.08304203
-0.049124837 0.006875673 -0.02876816 -0.013554749 -0.120249905 0.05910017 0.10653191 0.06876768
-0.08734601 -0.09943038 0.048126835 0.0046430216 0.05240621 -0.12052871 -0.007354328 0.09186334
0.07140114 -0.00038339346 0.023763057 -0.011678498 -0.06782032 -0.046612747 -0.07511587 0.10822217
0.069425955 0.040144183 -0.09458898 0.093636096 0.032771677 0.07906693 -0.04852349 0.02682375
0.11641958 0.08692133 0.10173245 -0.025901003 0.08983936 -0.09660938 0.0076606018 -0.06945113
-0.028766409 -0.031588852 -0.00032783084 0.11440585 0.056327708 -0.00052253116 0.08366863 -0.06320986
0.06889966 -0.011438301 -0.02146373 0.019949544 -0.09449575 0.018099278 0.042601187 0.103265055
-0.038403265 0.050447397 0.13287368 -0.052912064 0.11543217 -0.06124081 0.072435685 0.048108723
0.042994745 0.09812815 -0.049852487 0.032724015 -0.0033115686 -0.09277445 -0.02995036 -0.08237399
0.059936244 0.008299142 0.009025775 -0.037419885 -0.0031705012 -0.038366184 0.030267414 0.10735514
0.022537429 -0.054632634 -0.07534375 0.008059497 -0.09150451 -0.09271383 -0.08028378 -0.041894186
2.7897522e-05 0.08555419 0.044447895 0.09831249 -0.07744933 0.012776827 -0.10964078 0.06687279
0.018877031 0.121949054 -0.087725826 0.09476851 0.109829865 0.105875686 0.015477446 0.11747451
0.08555172 0.08091154 -0.008012717 -0.09465618 -0.001534937 0.018761484 -0.08402016 -0.070756726
-0.11825854 -0.043238983 0.10796456 0.019568326 -0.007534052 0.004985419 0.07035541 -0.10892327
-0.09517326 -0.041009188 -0.070988424 0.0649781 0.09105187 -0.119674526 -0.10468212 -0.12011758
0.0460179 0.09917577 -0.09563584 -0.057104226 0.03850759 -0.080543846 0.10501155 0.025088545
-0.03433779 0.008706024 0.039977565 -0.043617144 -0.09557608 -0.0017762557 -0.0039726677 -8.325745e-05
-0.01800008 0.08078698 -0.03442114 -0.011939098 0.049419858 -0.07763919 0.04360658 -0.027273955
0.055437546 -0.06691137 0.00058364734 0.0145150535 -0.09924452 -0.08969078 0.042888943 -0.035900913
0.07135251 -0.12184987 -0.060973905 -0.10159618 0.04879176 -0.003575992 -0.023006849 -0.020521408
-0.096414074 0.035374545 0.0014244324 -0.08512331 0.041547738 -0.002479159 -0.11929476 0.05730916
0.06246477 -0.023239821 -0.085163504 0.006343037 0.09347941 0.120011024 -0.09310244 -0.055712055
0.09494762 0.06885511 0.07205831 -0.06139405 0.108454525 -0.10139943 -0.005941489 -0.0007109514

conv1.nn.2.weight f4 [1248, 8]
00000000: 9e1a 23be 31db 833e da81 e8bd 89f9 6d3d
00000010: b237 08be 167a 06be 44d5 f93d b077 9bbd
00000020: 93bd 30be 1fdb e3bd 9b74 4b3e f3e5 273e
00000030: 05e1 293e 4502 6ebe 9978 033e b76b 8b3d
00000040: a96d 3bbe 2e93 0c3c 1165 5f3d 0cc2 16be
00000050: 1484 ebbd ab75 633e 700b b4bc e7c3 37bb
00000060: c197 30be 17b2 26be a65b 803e 15f0 cf3d
00000070: 5d14 30bd 05f0 293e 5f9e 04be 7f45 73be
00000080: aa61 8abe 8695 e23d 6754 d9bd b42c 2b3e
00000090: 4c2e 6e3e 95c7 b73d 0e95 6f3e 215b 80bd
000000a0: d9ef 723e b0ed 04be a102 12bd 545c 393e
000000b0: 2869 10be d2cc 543e 0fbd 883d 8a41 b0bb
000000c0: 2dba 6e3e f632 513e bf72 e5bd b6d9 d73c
000000d0: 5efa 013d cf66 643e 37d4 1c3e 9acd 613e
000000e0: 6d13 2a3e ecb6 72be 9551 393e c42e 94bd
000000f0: 22a5 5f3e af84 2f3e 1228 23be 2f63 eabc
00000100: e7e9 263d e83b 9f3d 542e 81be a0d0 453c
00000110: 0918 113e 6767 1d3e ef0d 093e d373 303d
00000120: efb7 85be 5b7a 373e 8d90 5bbe 53f3 23be
00000130: 1adf 4d3b 42d4 a93d 0c0d 223e f284 1cbd
00000140: 268e 0fbe dfaa bfbc acf0 b63d 68cb 1cbe
00000150: 7721 72be 0230 053e 6484 38be 3fe9 1cbe
00000160: a973 673e c3bf 37be e541 62be bff8 533e
00000170: ce0e 05be 9528 913c a7f1 8a3e 7d81 debd
00000180: f9f0 813e 5b80 5d3e 3e5f 573e e74c a53d
00000190: 3096 fbbd e594 2f3e 9b0f 3fbe 1070 22be
000001a0: 079b 06be e25e f13d 79dd 193d 178e 313e
000001b0: 0d65 373e dc83 823c 4189 223e 6798 49be
000001c0: a04e 85be f335 63be 15c8 193e 2a3e 803e
000001d0: a20f 9abd 7a4d 1a3e fd47 47be 412a aebb
000001e0: 329a eeba 1e5c a1bd 6d4b 07be 0cfa 023e
000001f0: ca12 c1bc 2c23 5dbd 8fc4 413e 1cdf 53be
00000200: a01b 363e cca9 773e a878 2bbe f824 84be
00000210: 2414 1b3d fd2c 54be fc3d e93d 716d 5ebe
00000220: 81a7 59be ccd0 963d 9f47 8fbd 61c8 76be
00000230: eea6 d93d baf9 c43d 196e 163d 9239 363e
00000240: 85f8 dfbd 238a 7e3e a083 54be 5f73 7b3e
00000250: b033 4f3e cf11 78be 5b59 c6bc 1a05 16be
00000260: 2744 893e e66a 3bbc 4e37 243e 5412 713e
00000270: 712a 57be 878b 293e f5a1 72be 7489 96bd
00000280: 3c2b e1bd 536e 82be 5b7a 83be b467 86be
00000290: a6a2 57be cfdc 1bbe 8fca b7bd 1aef 1b3e
000002a0: 6ee4 32bd 1718 8abe 5ab5 4abe 3c49 483e
000002b0: 9b1a 88be 0c1c 09be b48d 7cbe 9921 163e
000002c0: 8871 3e3e 3bb9 c33c bc35 0cbe 72ff 86bd
000002d0: 283b 833c c9c4 e93d b133 993b 0120 02be
000002e0: 29af 5b3c 803a 083c d52a 303b a288 f23d
000002f0: 9e5a d2bd 29d0 8c3c 571f 963a 4fbc eb3d
00000300: 63d9 2abe 45f0 59be 10fa 62be 3d7f ea3d
00000310: bcfd 5d3e 0b4c 8a3e 7f52 c73d ceac 63bd
00000320: 26ee 4d3d 9ce9 89be 2a13 013d f23b b8bd
00000330: 0721 aabc bd36 203e 1a0b c0bd 1f2e 53be
00000340: 23e7 873c 1989 9bbd 6e00 02be 46b0 aabd
00000350: de51 1ebe 12c6 743e aaac 983c f0f9 13be
00000360: f5b0 313e 7b12 2d3d 6210 203e 5031 573e
00000370: 3df3 893e 6585 90bd 5912 073c f1a5 21be
00000380: aa59 7e3e ffbd b13d 096b 38bd 53f2 8b3d
00000390: 586b 8a3e 1421 e33d fe83 073e 0dbc 803e
000003a0: 7d53 403c 1915 a43a 9761 8a3d 72e6 80be
000003b0: 75bf c23d 9ea5 05bb 3a15 56bc e8bb 803c
000003c0: 6d0b 773e 8d16 a03d 59be 7cbe b12b 813e
000003d0: d71c 2a3e 07b1 0c3e 6b42 e63d df98 d93c
000003e0: e3e4 19be e5b2 323e e75e 50be 9cc0 28be
000003f0: 10c2 2e3a 5e62 58be 7d01 7d3e c98b 8a3e
-0.15928122 0.25753167 -0.11352892 0.058099303 -0.13302496 -0.1313251 0.1219888 -0.07591188
-0.17259817 -0.111257784 0.198687 0.16396312 0.16589744 -0.23243053 0.12838973 0.06807654
-0.18303551 0.008580012 0.054539744 -0.1472246 -0.11499801 0.22212856 -0.02197811 -0.002804035
-0.1724539 -0.16278873 0.25069922 0.10153214 -0.04298817 0.16595466 -0.12951039 -0.2375698
-0.27027637 0.110636756 -0.106118016 0.16716272 0.23259848 0.08973614 0.23396704 -0.062673815
0.23724307 -0.12981296 -0.03564704 0.18101627 -0.14102614 0.20781258 0.06676685 -0.0053789066
0.23313208 0.20429596 -0.11203527 0.02634893 0.03173291 0.22304843 0.15315329 0.22051087
0.16608973 -0.23702592 0.18097527 -0.07235482 0.21840337 0.17140459 -0.15933254 -0.028611748
0.04075041 0.07775098 -0.25230658 0.012073666 0.14169325 0.15371476 0.13384221 0.04307921
-0.26116893 0.17917769 -0.2144186 -0.1601079 0.0031413496 0.08292438 0.1582529 -0.038212724
-0.14019069 -0.023396907 0.08932623 -0.15311968 -0.23645578 0.13006595 -0.18019253 -0.15323351
0.22602715 -0.17944245 -0.2209545 0.20700358 -0.12993929 0.017719546 0.2713749 -0.10864542
0.2537916 0.21630995 0.21032426 0.080713086 -0.12284505 0.17146643 -0.18658297 -0.15863061
-0.13145076 0.117856756 0.03756473 0.17339359 0.17909642 0.015932016 0.1587267 -0.19687043
-0.2603655 -0.22188549 0.15017731 0.25047427 -0.07522513 0.15068617 -0.19461055 -0.0053150957
-0.0018203913 -0.07878898 -0.13212366 0.12790698 -0.02356853 -0.05398862 0.18922637 -0.20690578
0.17783976 0.24185866 -0.16745245 -0.25809455 0.037861004 -0.20720287 0.11388776 -0.21721436
-0.21255304 0.073640436 -0.069960825 -0.24099876 0.106275424 0.09617944 0.03672609 0.17795399
-0.10936073 0.24857382 -0.20753336 0.2455573 0.20234561 -0.24225543 -0.02421253 -0.14650384
0.2680981 -0.011439061 0.16036722 0.23542148 -0.21012284 0.16557132 -0.23694594 -0.07350436
-0.109945744 -0.25474796 -0.25679287 -0.26250994 -0.21058139 -0.1522095 -0.08974182 0.15227929
-0.04367488 -0.26971504 -0.19795743 0.19559187 -0.26582798 -0.13389605 -0.2466343 0.14661254
0.18597996 0.023892036 -0.13692373 -0.06591691 0.016019419 0.11414487 0.0046753515 -0.12707521
0.013408461 0.008314729 0.0026880999 0.11842467 -0.1027119 0.017189102 0.0011453432 0.115105264
-0.16684489 -0.21283062 -0.22165704 0.1145005 0.21678823 0.2701114 0.09732532 -0.05558472
0.050275944 -0.26936042 0.031512417 -0.08995809 -0.020767702 0.15645881 -0.093771175 -0.20623063
0.016589707 -0.07594509 -0.12695476 -0.08334403 -0.15460917 0.23903683 0.01863702 -0.14450812
0.1735266 0.042253952 0.1563125 0.21014905 0.2694339 -0.07056693 0.0082441205 -0.15785958
0.24838892 0.08678817 -0.04502395 0.06833329 0.27035022 0.110902935 0.13233945 0.2514347
0.011738655 0.0012518495 0.06756895 -0.25175816 0.09509174 -0.0020392905 -0.013066584 0.0157146
0.24125452 0.07816801 -0.24681987 0.25228646 0.16612564 0.13739406 0.11243137 0.026562152
-0.1502872 0.17451055 -0.20348702 -0.16479725 0.0006666491 -0.21131274 0.24707599 0.27059773

conv1.nn.2.bias f4 [1248]
00000000: 57af 89bd 696c cb3c e1f9 61be c11f 543e
00000010: aac4 6abe cbda 7dbd d8da 283e e2b4 053d
00000020: 785c 3a3e 244f 293e 1b61 1bbe 76f5 afbd
00000030: bf68 74be 91ba 19bd ac35 5abe 1b91 d7bd
00000040: e2ea 7f3e 0ba6 9abd df57 3dbd 72af a9bd
00000050: 317a 69bd d3c5 3c3e bb9f 6abe 568b 283e
00000060: ad21 aabc 5ddb 28be e53b 3b3d 153a 2b3e
00000070: be09 0e3e 3fb8 bdbd 473f 0fbe 3fd3 ebbd
00000080: da4b 27bc 7051 6bbe 1d55 6cbb 2782 1b3d
00000090: 6673 acbc 1267 063d 2905 1abe 88ec 04bd
000000a0: 8a00 6c3e 5339 173e a4e3 d93d 8be3 113d
000000b0: 75a8 db3d 1da8 45be 57ed 89be 993d d0bd
000000c0: bacb 8b3e 33c4 35be df55 49be 875f 103e
000000d0: 8488 92bc acaa 34be 8790 e23b e796 f23d
000000e0: 77dd d7bd d769 98bd 35c0 72be 011c 623e
000000f0: 7472 9bbd 1b1c 853e 7699 403e 7caf 98bd
00000100: ef9e 3dbe 6127 64be 8fe4 7e3e 25a5 46be
00000110: 409c 10be 3e3b 2fbe 9e49 1e3e c17f de3d
00000120: 6770 57be 0bd8 47be 8d86 893e d86a b53d
00000130: d630 f7bc 55f4 5e3e 0f02 8abe 227e 593d
00000140: 6c18 67bd bafc 873e a614 87be 996f 433e
00000150: a4b2 b2bc 99aa ffbd dbb6 8a3e 94fb dcbd
00000160: 13ee 233e 4c83 0cbe d994 62be a46f 2dbd
00000170: db66 77be ae69 89be 14ee d3bd 95b1 a7bc
00000180: 54bf 4d3e 4210 42bd ed06 40be d5b1 01bd
00000190: 93dd 11be b32b 233e 52d3 4bbe f0a2 0bbd
000001a0: 6910 7dbd 66ea 0d3c e2da b2bd 2a4d 5e3e
000001b0: 4cbf 10bc c357 853e 9395 eebd 1fd6 3f3e
000001c0: de7a fd3d dadb fd3b 72b1 4d3d 00ec 1dbe
000001d0: 8d4e 803e 15f0 39be 39e7 113d c1cb 86be
000001e0: 1252 293e 0025 e23d 0557 283e 22da 27bd
000001f0: f665 c93d ccec 79be 6837 31be a33a e23d
00000200: a512 4a3e d637 4e3e 8f37 f03d 5de6 84be
00000210: 695c 11be f0ad 8a3e b778 75bc 26f0 243e
00000220: b326 a83d 2246 35be cecb 243e b418 fdbd
00000230: 545e b73d c2e0 853d 9604 c63d be67 83be
00000240: 578a 64be 9f8a f63d d561 eb3d 6de1 51be
00000250: ca81 0bbe 1417 5b3e 6931 5abe 7dfa 25be
00000260: 73fe 0b3e ec5e b73b 85f3 1d3d 1aba 043b
00000270: d557 6bbd ac1c 67bd a6ee 21bd c324 e6bd
00000280: 72e6 db3c acef 5cbe e84f 24bc 8a29 443e
00000290: 76b7 80be 633f 8d3b d4b0 0f3e 8848 80bc
000002a0: 9103 703e 9b6b 0abe 254e 6e3e 42d9 8ebd
000002b0: 9074 e5bd d0a0 51be 12f6 873c 55c0 40be
000002c0: e32a 1bbe a3b5 ed3c 4d96 123e 6c33 963d
000002d0: 20a3 243e 8888 493e 81bb 83be 3233 2e3e
000002e0: a40b ff3b 4b94 08bd 89c8 5b3e 2437 923d
000002f0: 3373 40be adbc 10be 7cd1 4a3e 0268 743e
00000300: 865f 7fbe 2bc7 7e3d aec0 ed3d 30be dc3d
00000310: 32dd b23d 9c24 7fbd 6300 023d ed52 043e
00000320: fa6d cfbc df39 2bbd 7dfe 2ebe e765 71be
00000330: 7c4c 9c3c 36c3 653c fe87 493e a802 25be
00000340: e603 43bc d150 42be f454 973c fa94 00be
00000350: af89 833c 2588 38bd 0d1f 4abe d081 16be
00000360: abd3 233e c259 143e 33d6 debd e286 663c
00000370: 7d70 343e 0cb2 483e 893a dbbc ae92 00be
00000380: 665f 323e 1f65 62be 235f 7bbe b4e5 21be
00000390: 86ad 05be ff8c 713b 04b1 f33d fa0a 1e3d
000003a0: a92c e83d f36f 963c d550 e6bd 9231 70be
000003b0: 5b24 12be 632a 6fbe 9526 793d 3278 693e
000003c0: f890 303c 8d42 1e3e 1350 67be 9eeb 523e
000003d0: 52bf 8a3e f501 913e b5fc d53d 4645 11bd
000003e0: 975c 373e 3c36 843e 9dba 973d 8954 c63d
000003f0: c5f0 6f3d 432f 3c3e f7fb 37bd 27b2 92bd
-0.067228965 0.024831967 -0.22067977 0.20715238 -0.22926584 -0.061976235 0.16489732 0.032643206
0.18199337 0.16534096 -0.15173762 -0.0859174 -0.23868082 -0.03753144 -0.21309537 -0.105257235
0.24991944 -0.075512014 -0.04622638 -0.08285417 -0.057001296 0.18434839 -0.22912495 0.16459402
-0.020768011 -0.1648993 0.045711417 0.16721375 0.13870904 -0.09263658 -0.13988982 -0.11514901
-0.0102109555 -0.22980285 -0.0036061474 0.03796592 -0.02105112 0.03281314 -0.15041031 -0.032452136
0.2304708 0.14767961 0.10639122 0.035617393 0.1072549 -0.19302411 -0.26938888 -0.10167999
0.2730387 -0.17750625 -0.19661663 0.14098941 -0.017887361 -0.17643231 0.0069142017 0.118451886
-0.10540288 -0.07442062 -0.23706134 0.22080995 -0.075901896 0.25998005 0.1880854 -0.07455346
-0.1851766 -0.22280647 0.24891876 -0.19398935 -0.14122105 -0.17112443 0.1545777 0.10864211
-0.21038972 -0.19516008 0.26860467 0.088582695 -0.030174654 0.21772893 -0.26954696 0.053098805
-0.056419775 0.26560003 -0.2638294 0.1908554 -0.021813698 -0.12483711 0.27092633 -0.10790172
0.16008787 -0.13721961 -0.22127093 -0.042342797 -0.2416033 -0.2683844 -0.10348144 -0.02047042
0.20092517 -0.047378786 -0.18752642 -0.031663734 -0.1424468 0.15934639 -0.19904831 -0.034090936
-0.061783228 0.008661842 -0.08733155 0.21709123 -0.008834671 0.2604352 -0.11649623 0.18734024
0.12376951 0.0077471556 0.050218053 -0.15422058 0.2505993 -0.1815799 0.0356209 -0.26327327
0.16535214 0.110422134 0.16439445 -0.040979512 0.09833901 -0.24406737 -0.17306292 0.1104634
0.19733675 0.20138487 0.11729347 -0.25957003 -0.14195408 0.2708583 -0.014982394 0.16107234
0.08210506 -0.17702535 0.1609337 -0.12358227 0.089535385 0.0653701 0.096688434 -0.25665087
-0.22318397 0.120381586 0.11493269 -0.2049615 -0.1362373 0.21395522 -0.21307911 -0.16208835
0.13671283 0.0055960324 0.038562316 0.0020252527 -0.05745681 -0.056423828 -0.039534234 -0.112374805
0.026843283 -0.21575803 -0.010028817 0.19156471 -0.2513997 0.004310535 0.14032298 -0.015659586
0.2343886 -0.1351761 0.23271997 -0.069750324 -0.11203873 -0.20471501 0.016596828 -0.18823369
-0.15153079 0.029017275 0.14315148 0.07334027 0.16077852 0.19680989 -0.25728992 0.17011717
0.00778337 -0.03334455 0.21463217 0.071394235 -0.18793945 -0.14134474 0.19806474 0.23867801
-0.24938783 0.06220166 0.11609016 0.10778463 0.08733596 -0.062290773 0.03173865 0.12922259
-0.025320996 -0.041803237 -0.17089267 -0.23574029 0.01907944 0.014023593 0.19680783 -0.16114295
-0.011902785 -0.18976142 0.018473126 -0.1255683 0.016056864 -0.045051713 -0.19738407 -0.14697957
0.15998714 0.14487365 -0.10880699 0.0140702445 0.17621036 0.1959917 -0.02676131 -0.12555954
0.17419204 -0.22108887 -0.2454801 -0.15810281 -0.13054475 0.0036857722 0.118989974 0.038584687
0.11336643 0.018363928 -0.11245886 -0.2345641 -0.14271681 -0.23356013 0.06082781 0.22799757
0.010776751 0.15455075 -0.2258914 0.20597693 0.2709909 0.28321806 0.10448591 -0.035466455
0.17906414 0.25822628 0.074086405 0.096840926 0.058579225 0.18377404 -0.044918027 -0.07162886

pool1.weight f4 [1, 32]
00000000: 0266 cb3d fbf9 b93d d141 973d 2ad8 c4bd
00000010: a964 7c3d 50dc 6c3b 76cb c73c b31a 8a3d
00000020: 1ebd 153d 46b2 183d 1ca1 b2bc e564 9c3c
00000030: 94a8 9a3d bc12 aebd 3655 37bd d908 04be
00000040: c1b2 2bbc c436 abbc f702 d2bb 7b16 5a3d
00000050: 7dc4 f3bd ce0f e5bc bf26 c0bd 10f2 063e
00000060: 17cc 06be d1ae 5c3c 9fed e43d ed08 adbd
00000070: 54fa cabc 711f 8abb 49a7 da3c bc07 8f3d
0.09931566 0.09080883 0.073856 -0.096115425 0.061619435 0.0036142059 0.02438901 0.06743374
0.03655731 0.03727939 -0.021805339 0.019091079 0.07551685 -0.08499667 -0.044758998 -0.12894
-0.01047963 -0.020900138 -0.006409045 0.053244095 -0.119027115 -0.027961638 -0.0938239 0.13178277
-0.13163792 0.013469414 0.11178135 -0.08448968 -0.024777569 -0.004215174 0.026691096 0.06983897

n2.0.weight f4 [8, 39]
00000000: 8ff1 f43d fbee 8cbd 80d4 acbc 1113 e1bd
00000010: 3f7a 89bb 3ad8 a0bd b220 8dbb 4d81 923d
00000020: af18 b2bd a2b8 f23d 71f6 3e3d 3ba8 8e3b
00000030: bbed c13d 2ade 64bd a060 543c b349 cb3d
00000040: 3f4d d5bd f42a 4a3d b11f f53d a706 93bd
00000050: 7bd3 e0bc 619e 3dbd 9869 f83d 342c 263b
00000060: 810f 41bd 89f8 b83d b98f bb3d 45ea 74bd
00000070: a07b 18bd 42c8 ecbd 1153 d03c cdc6 d53d
00000080: 7d19 ed3c 26a2 853d 071f fb3d 470a 903d
00000090: 1577 2dbd a536 87bd 20ab ebbd 9967 1bbd
000000a0: 6584 d0bc 7677 d23d bb40 d9bd 1ab9 653c
000000b0: c0c0 c7bd 1d2b 45bc 1452 d5bc 1c90 313d
000000c0: 6588 6dbc 6a03 553b dff6 d93d bdfe b03d
000000d0: 9b4f 4c3d f709 f7bd 5112 d9bc d196 7abd
000000e0: 5af2 c53d ae62 a3bd 2825 d1bd a7c0 8ebd
000000f0: c19b debd 3aa9 e93c d7de 8abd 30a0 4f3b
00000100: 8266 423d e16b c8bd b50e f53d 3165 f5bc
00000110: d993 45bd fedd ddbc a853 2abd ac1f 663d
00000120: 55bf 89bd 6029 a13d bb0d 843b c43a eabc
00000130: 4ae7 bc3c 46cd b83d aaf1 bb3d 8112 cf3d
00000140: db04 4d3c f093 afbc f2e9 f53d 4844 6d3d
00000150: ec50 56bc 9bcd 0e3d fcfb ce3d e6e1 d8bd
00000160: 2273 80bd 2a35 58bd d435 813b 4e42 e0bd
00000170: c304 7f3c 6010 a33d a57a dbbd a5ac fdbc
00000180: cfc1 31bd b1ae 91bd 918a b53d 44ee db3d
00000190: 223b aebd d436 2a3d e628 b53c 30fe 98bd
000001a0: d736 d9bd 99ba c73d 414e e0bd 1abf 513d
000001b0: a6f0 ca3d 11a9 e73d 248c b03b 382f c5bd
000001c0: ac31 17bd f43f f03d 810f a83d 1f89 d4bc
000001d0: dd3e 88bd f7ab ad3d 430e 683c 9482 03bc
000001e0: 59a0 08bc 25e9 e2bc 1c8b 94bd 707a f13d
000001f0: 0371 c03d 186e 8abd 4364 01bd 448b 4e3d
00000200: a486 8a3d 938b 9ebd 1bd5 943d 9de8 063b
00000210: 9e99 a73d 41e1 e3bc eb8c 3cbd b706 b03b
00000220: 209c b6bd d935 8b3c b1e3 4bbd 51d8 e83d
00000230: 8096 68bd 87ac ea3d 79d3 c1bd 44c8 1b3c
00000240: be34 bebd 2c5d 9bbd 474d d6bd 3e6d 24bd
00000250: 052e b23d 673d eb3d 281b ab3d 0e8c 1cbd
00000260: ff90 a43d db44 95bc 1e6d c9bd 6285 9c3d
00000270: 84a7 ebbd e764 d33c 3501 c1bd 9c56 50bc
00000280: d287 34bc a615 4f3b 28b1 afbd a56a 723d
00000290: 0bb4 993d b591 99bd e572 60bd 0df1 e23d
000002a0: 5660 993d 3314 1bbd d95b ecbd 51f2 79bd
000002b0: abe6 e33c a917 b9bd 628e d3bd 5c85 923d
000002c0: 77c6 fb3d e69c 393d e0eb f9bd aa02 953c
000002d0: 4e8e 02bd 6b0a d2bd 3edf 54bd 131a ddbc
000002e0: 2acf febb c031 e53d 0377 3dbd e19c d0bb
000002f0: 4319 8ebd c95f eb3d cdb4 fabd 9808 543d
00000300: cd1e ed3d 763b 9bbd 5f69 d83d ce4c 093d
00000310: bcf5 e83d 6905 8ebc 7445 b6bd 1a08 1ebd
00000320: cdba 893d 5dfc 2b3d 5b18 89bc cc74 05bd
00000330: a921 923c 609d 07bd a198 d7bd 0d67 f53d
00000340: f958 8bbd b49d c8bd 3292 2e3d 1e39 5bbd
00000350: 665d f5bd 2299 f6bc 479e 06bd b419 b63c
00000360: b643 9a3c 0999 e3bd a37c 92bd 685d b5bc
00000370: da93 413d ee59 673c 92a9 c0bc b51e a9bd
00000380: c4a3 55bd 8373 d33d 9112 acbc 3be4 9e3d
00000390: ee06 08bd b5cd 37bb 0a14 973c a135 f6bd
000003a0: f432 463d 39a7 d63d 0908 cabd aa3f 63bd
000003b0: 8fa0 b83d 0a97 ad3c 9732 82bd 69d3 3cbd
000003c0: e8cf 163c 3837 7d3d 8aba 463d 359f fa3c
000003d0: 297c 643d d92f e33d 3e69 323d a251 e83d
000003e0: f60e d7bc 908f e1bd 4ce6 edbc 6f2b f5bd
000003f0: 246d dcbd 8d97 c73d 81bc 9fbd dc8b c03d
0.11960136 -0.068815194 -0.021097422 -0.10989965 -0.004195481 -0.07853742 -0.004306876 0.071535684
-0.08696114 0.11851622 0.046621744 0.0043535507 0.094691716 -0.055875935 0.01296249 0.099261664
-0.10415124 0.04935737 0.11968935 -0.07179003 -0.027444592 -0.04629362 0.121295154 0.0025355937
-0.047133926 0.09031779 0.09158272 -0.05979373 -0.037227273 -0.11561634 0.025430234 0.10438309
0.028942818 0.06525068 0.12261777 0.0703321 -0.042349894 -0.066022195 -0.11507249 -0.037940595
-0.025453756 0.102766916 -0.106080495 0.014021182 -0.09753561 -0.012034205 -0.026040114 0.043350324
-0.014497851 0.0032503256 0.1064279 0.086423375 0.049880605 -0.120624475 -0.026497992 -0.061178986
0.096653655 -0.07977806 -0.10212165 -0.06970339 -0.108695515 0.028523076 -0.067807846 0.0031681173
0.04746104 -0.09786201 0.11965696 -0.029955478 -0.0482367 -0.027083393 -0.041583687 0.05618255
-0.06725947 0.0786922 0.004029957 -0.028592475 0.023059506 0.09023528 0.09176953 0.10110951
0.012513365 -0.021432847 0.12007512 0.057926446 -0.013080817 0.03486405 0.10106656 -0.10589962
-0.0627196 -0.052785076 0.0039431844 -0.109501466 0.0155651 0.07962108 -0.10716752 -0.030966112
-0.04339772 -0.07113398 0.0886432 0.10738805 -0.085073724 0.041556194 0.022114228 -0.074703574
-0.10606163 0.097523876 -0.10952426 0.05120764 0.09909181 0.11311544 0.0053878 -0.09628147
-0.036912605 0.11730948 0.08206082 -0.02594429 -0.06652615 0.08480065 0.0141635565 -0.008026738
-0.008339011 -0.027699063 -0.072530955 0.11790931 0.09396555 -0.0675928 -0.031589758 0.050425783
0.06763962 -0.077414654 0.07267209 0.0020585426 0.08183597 -0.02781737 -0.046032827 0.005371894
-0.08916497 0.01699345 -0.04977769 0.11369384 -0.056784153 0.11458688 -0.09464163 0.009508196
-0.092874035 -0.075861305 -0.10463958 -0.040143244 0.08700184 0.11486321 0.08354789 -0.038219504
0.08035468 -0.01822131 -0.098352656 0.07642628 -0.115065604 0.02580495 -0.09424058 -0.012715962
-0.01101871 0.0031598597 -0.08578712 0.059183735 0.075050436 -0.074984945 -0.054797072 0.11081133
0.07489078 -0.03786106 -0.11540956 -0.061022107 0.027819952 -0.09037716 -0.10329892 0.071543425
0.122937135 0.045315646 -0.12203193 0.018189747 -0.031873994 -0.10255893 -0.051970713 -0.026989972
-0.0077761607 0.1119113 -0.046256077 -0.0063663577 -0.06938412 0.11492879 -0.12241516 0.05176601
0.115781404 -0.07579701 0.10566973 0.033520512 0.11374995 -0.017336564 -0.08899966 -0.038581945
0.067250825 0.04198872 -0.016735246 -0.03258209 0.017838316 -0.03310907 -0.105271585 0.11982546
-0.068040796 -0.097957045 0.04261989 -0.053521268 -0.11980705 -0.030102316 -0.03286579 0.022229053
0.018831115 -0.111131735 -0.07152679 -0.022139266 0.047260143 0.014120562 -0.023518357 -0.0825781
-0.052158132 0.103247665 -0.021004947 0.07758375 -0.033209734 -0.0028046195 0.018442173 -0.12021948
0.048388436 0.10481114 -0.09864814 -0.055480637 0.09014999 0.021190185 -0.063573055 -0.046100054
0.009204842 0.06182024 0.04851774 0.030593494 0.05578247 0.110931106 0.043557398 0.11343695
-0.026252251 -0.110137105 -0.029040478 -0.11971175 -0.107630044 0.09745703 -0.07799626 0.09401676
