model/0.pth (torch, 189719 bytes, 30 tensors)

n1.0.weight f4 [8, 39]
-0.060260247 0.0068627894 -0.07339509 0.05471605 -0.12591477 0.1105029 -0.10741079 -0.11748944
-0.09337885 0.06624544 -0.054602712 0.052860405 -0.12542334 -0.08966027 -0.05426044 -0.02904125
-0.11273418 0.10299341 -0.034850594 0.05117761 0.10306984 0.023741048 0.038541738 0.13791676
-0.06664916 0.048989896 -0.06574871 0.10490766 0.12193425 -0.13624698 0.12925439 0.074306086
0.062639885 0.059315488 0.12217026 -0.019512499 -0.12497539 -0.04240465 -0.10407617 0.00878108
-0.027591215 -0.07926576 -0.013436161 0.14051539 -0.011656034 0.0057836184 -0.023047494 0.025754616
0.13254331 0.08982431 0.04715031 0.03065004 0.033306602 0.05532723 -0.019096354 -0.13734594
-0.09138751 0.12526809 0.011223822 -0.11971079 0.028518172 0.12036664 -0.13964993 -0.09948982
-0.05885475 0.0025688603 -0.034466114 -0.016239477 -0.14406711 0.06802299 0.12820318 0.08799018
-0.104646176 -0.11912412 0.060632784 0.0042356486 0.05642582 -0.14440122 -0.008810954 0.11029578
0.07705773 0.0030562424 0.033631917 -0.013991605 -0.081253126 -0.055845086 -0.08999364 0.123584665
0.08192112 0.051521882 -0.11332374 0.10989146 0.047718853 0.104748316 -0.058134295 0.03661546
0.14031829 0.09789479 0.11977001 -0.03103107 0.107546486 -0.11574429 0.012719623 -0.08320696
-0.034464013 -0.037845507 0.006259106 0.13193619 0.07068152 -0.00062602607 0.104104266 -0.07572953
0.07305082 -0.013703825 -0.02571494 0.02256243 -0.113212034 0.016556123 0.05369301 0.1249486
-0.046009567 0.053637154 0.14724058 -0.063392065 0.14274731 -0.07337049 0.07172158 0.05837104
0.046955094 0.11922814 -0.05972654 0.040403754 -0.0039674724 -0.11114981 -0.03588246 -0.09868937
0.06410211 0.015533443 0.012286302 -0.044831436 -0.003798465 -0.045965232 0.040737323 0.13914628
0.023502033 -0.06545347 -0.09026677 0.0066540902 -0.10962836 -0.11107718 -0.09618515 -0.050191935
0.0048000487 0.10442495 0.06524598 0.11048401 -0.09278925 0.010314057 -0.1313568 0.084668055
0.029154655 0.1382669 -0.1051013 0.11194395 0.12167992 0.12542859 0.019930815 0.14152165
0.101643234 0.106926024 -0.009599756 -0.11340433 -0.0018389543 0.020101609 -0.100661665 -0.084771104
-0.14168136 -0.051803093 0.13506752 0.02375338 -0.009026282 0.0066455877 0.087009065 -0.13049713
-0.11402377 -0.049131718 -0.08504871 0.07522507 0.10436502 -0.14337784 -0.125416 -0.14390863
0.054985918 0.11841774 -0.11457795 -0.06841462 0.053180136 -0.096496694 0.12178402 0.032586385
-0.0411389 0.009919684 0.048001334 -0.052256163 -0.1145064 -0.0021280705 0.0049023046 -9.974442e-05
-0.021565275 0.096641555 -0.041238736 -0.01430381 0.06152052 -0.0930168 0.04526427 -0.032675993
0.068473384 -0.080164164 0.006549819 0.014574977 -0.118901454 -0.107455425 0.054717846 -0.04301165
0.08551396 -0.14598404 -0.073050715 -0.12171884 0.059994716 -0.0042842682 -0.0275637 -0.024585975
-0.11551033 0.041420694 0.0046188524 -0.10198334 0.05434644 -0.0029701944 -0.14292285 0.07885807
0.08016174 -0.027842823 -0.102031335 0.0029597916 0.111001514 0.14155489 -0.11154276 -0.06674663
0.11373265 0.07925405 0.089508146 -0.07355406 0.1321583 -0.12148308 -0.0071182926 0.0021676682
00000000: 73d3 76bd 40e1 e03b 2a50 96bd f01d 603d
00000010: cdef 00be 584f e23d 30fa dbbd 4e9e f0bd
00000020: 693d bfbd b0ab 873d 18a7 5fbd 2784 583d
00000030: fa6e 00be ce9f b7bd 3240 5ebd eae7 edbc
00000040: 2ee1 e6bd 35ee d23d 7fbf 0ebd 9d9f 513d
00000050: 4816 d33d 967c c23c f1dd 1d3d 0d3a 0d3e
00000060: 5b7f 88bd a1a9 483d 42a7 86bd d4d9 d63d
00000070: aab8 f93d 5484 0bbe 435b 043e ca2d 983d
00000080: 5749 803d ccf4 723d 6734 fa3d add8 9fbc
00000090: 19f3 ffbd 80b0 2dbd e325 d5bd 85de 0f3c
000000a0: f906 e2bc 1656 a2bd 5823 5cbc 44e3 0f3e
000000b0: f3f8 3ebc 8284 bd3b 19ce bcbc 58fb d23c
000000c0: 6fb9 073e cff5 b73d af20 413d cb15 fb3c
000000d0: 816c 083d ce9e 623d f56f 9cbc 6aa4 0cbe
000000e0: 6029 bbbd 4746 003e 1fe4 373c ee2a f5bd
000000f0: f19e e93c c982 f63d 6400 0fbe 52c1 cbbd
00000100: ae11 71bd 535a 283b 572c 0dbd a708 85bc
00000110: 5486 13be a34f 8b3d b247 033e 3234 b43d
00000120: bc50 d6bd 59f7 f3bd 155a 783d 32cb 8a3b
00000130: c31e 673d eadd 13be d25b 10bc c1e2 e13d
00000140: 71d0 9d3d 3d4b 483b 9fc1 093d 0b3d 65bc
00000150: 0a68 a6bd d1bd 64bd 964e b8bd f519 fd3d
00000160: 43c6 a73d 9c08 533d 4716 e8bd c60e e13d
00000170: d874 433d 4986 d63d 3a1e 6ebd 18fa 153d
00000180: 99af 0f3e 107d c83d fb49 f53d df34 febc
00000190: 5541 dc3d 580b edbd f765 503c 6968 aabd
000001a0: 232a 0dbd e403 1bbd 3019 cd3b 481a 073e
000001b0: 79c1 903d e61b 24ba 9e34 d53d 1518 9bbd
000001c0: ab9b 953d 0286 60bc 23a8 d2bc d8d4 b83c
000001d0: b6db e7bd b5a0 873c 34ed 5b3d 0de5 ff3d
000001e0: 8774 3cbd a2b2 5b3d 3cc6 163e b3d3 81bd
000001f0: 5a2c 123e 4443 96bd c4e2 923d 7916 6f3d
00000200: fc53 403d e22d f43d d1a3 74bd 687e 253d
00000210: 9201 82bb 83a2 e3bd 7df9 12bd a71d cabd
00000220: f847 833d fb7f 7e3c 7c4c 493c 2ba1 37bd
00000230: abef 78bb 0a46 3cbd 2edc 263d 5d7c 0e3e
00000240: 5687 c03c 780c 86bd c9dd b8bd 8e0a da3b
00000250: d584 e0bd 6f7c e3bd b8fc c4bd 0f96 4dbd
00000260: ba49 9d3b c0dc d53d af9f 853d 7145 e23d
00000270: 4a08 bebd 4afc 283c 6682 06be 7266 ad3d
00000280: bed5 ee3c d795 0d3e 5a3f d7bd df42 e53d
00000290: 5233 f93d 5a70 003e f345 a33c 0deb 103e
000002a0: 542a d03d 08fc da3d 4c48 1dbc 8840 e8bd
000002b0: 1109 f1ba 21ac a43c b427 cebd 799c adbd
000002c0: eb14 11be 7b2f 54bd 244f 0a3e 7396 c23c
000002d0: f8e2 13bc 3bc3 d93b cf31 b23d 0aa1 05be
000002e0: 4b85 e9bd 573e 49bd 052e aebd 9a0f 9a3d
000002f0: 54bd d53d a4d1 12be 0d6d 00be c95c 13be
00000300: ea38 613d 0085 f23d d8a7 eabd f71c 8cbd
00000310: 6ad3 593d 0fa0 c5bd e669 f93d 4d79 053d
00000320: 4381 28bd 2c86 223c 0c9d 443d 8f0a 56bd
00000330: 5582 eabd 1977 0bbb 83a3 a03b e12d d1b8
00000340: a9a9 b0bc 02ec c53d f3e9 28bd 875a 6abc
00000350: f1fc 7b3d 987f bebd 0767 393d 43d7 05bd
00000360: c63b 8c3d 1c2d a4bd dd9f d63b e2cb 6e3c
00000370: 9b82 f3bd 9711 dcbd d21f 603d fc2c 30bd
00000380: f121 af3d d77c 15be 9d9b 95bd ba47 f9bd
00000390: 05bd 753d 0c63 8cbb 45cd e1bc 8768 c9bc
000003a0: ae90 ecbd bfa8 293d be59 973b a4dc d0bd
000003b0: 5f9a 5e3d 98a7 42bb 5e5a 12be 5780 a13d
000003c0: d72b a43d a216 e4bc cef5 d0bd 10f9 413b
000003d0: c354 e33d c4f3 103e 8870 e4bd 75b2 88bd
000003e0: aaec e83d f34f a23d 0c50 b73d 83a3 96bd
000003f0: 8154 073e 1fcc f8bd 9140 e9bb 700f 0e3b

n1.2.weight f4 [1248, 8]
-0.19093162 0.30844122 -0.13611588 0.06954529 -0.15944524 -0.15737422 0.14614058 -0.09104502
-0.20688495 -0.133362 0.23788881 0.1964126 0.19865656 -0.27849296 0.15370794 0.08147589
-0.2193664 0.010306059 0.06527591 -0.17632452 -0.13771918 0.2661219 -0.026335428 -0.0034166777
-0.20649852 -0.19506305 0.30042478 0.12154793 -0.051568143 0.19882144 -0.15516871 -0.28456342
-0.32389247 0.1325704 -0.12723343 0.20033276 0.27874336 0.10748139 0.28032702 -0.07514665
0.28432795 -0.15559113 -0.042820267 0.21693519 -0.16902566 0.24902622 0.079975195 -0.0063626464
0.27929226 0.24479577 -0.13415639 0.031553425 0.038041133 0.26723248 0.18346466 0.26419115
0.19891497 -0.28392294 0.21679863 -0.08662445 0.2617581 0.20534699 -0.1908652 -0.03430708
0.048742287 0.09326678 -0.30234092 0.014482698 0.16992198 0.18410683 0.16045918 0.051500563
-0.3129131 0.21469346 -0.25690958 -0.19169657 0.0037769042 0.09937824 0.18956415 -0.045738734
-0.16793142 -0.028057499 0.106930636 -0.18356055 -0.28334302 0.15577412 -0.21587808 -0.18365045
0.27069962 -0.21497384 -0.26470807 0.24799499 -0.15567641 0.021190545 0.32509542 -0.1301632
0.30394813 0.25918177 0.25191027 0.09673416 -0.1471234 0.2054084 -0.22350231 -0.19009557
-0.15735799 0.14111944 0.044915788 0.20764299 0.21447018 0.019063693 0.19016698 -0.23584436
-0.31187943 -0.26579294 0.18004985 0.3000648 -0.090156294 0.18052776 -0.23311436 -0.006175506
-0.002012388 -0.09446858 -0.15826204 0.15312284 -0.028379234 -0.064674966 0.22667597 -0.24782644
0.21306214 0.28980848 -0.20059355 -0.3092165 0.045407776 -0.24825038 0.13647385 -0.26020923
-0.25468048 0.088230394 -0.08376208 -0.28872168 0.12729321 0.11525105 0.04392647 0.21318653
-0.1310044 0.2977972 -0.24865285 0.29418617 0.24240838 -0.29023546 -0.029008629 -0.17551555
0.3210798 -0.013630609 0.19219804 0.28205782 -0.25164157 0.19834141 -0.2838481 -0.088106416
-0.13162303 -0.3051347 -0.30738118 -0.31455037 -0.25231814 -0.1823392 -0.10754543 0.18246183
-0.052447997 -0.32305476 -0.23696783 0.23420024 -0.3183689 -0.16046338 -0.29530516 0.17556955
0.22295722 0.028570715 -0.16401626 -0.079055205 0.01908133 0.13676307 0.0055776415 -0.15219137
0.015914511 0.010050398 0.003282985 0.14195296 -0.12292471 0.020598965 0.0013735658 0.13784868
-0.19976269 -0.25504524 -0.26556358 0.13709533 0.2596131 0.3236122 0.11656875 -0.06654734
0.060150146 -0.3226869 0.037651785 -0.107723035 -0.02479725 0.18741599 -0.112319246 -0.24712467
0.019764233 -0.09087016 -0.15210883 -0.099725746 -0.18505374 0.2863892 0.022415668 -0.17313047
0.20799056 0.050506692 0.18734947 0.25160214 0.32252026 -0.08451907 0.009701446 -0.18907186
0.29763857 0.103902 -0.054076135 0.08179278 0.32380494 0.13282864 0.1585212 0.30121282
0.013950365 0.0015464898 0.080994256 -0.30163434 0.11401378 -0.0024871414 -0.015651695 0.018789828
0.28893933 0.09368109 -0.29561195 0.30225235 0.19903222 0.16462255 0.13466448 0.03175772
-0.18012887 0.20916417 -0.24371234 -0.1973617 0.0008361734 -0.2531402 0.29601327 0.32420236
00000000: 9483 43be 02ec 9d3e f661 0bbe c36d 8e3d
00000010: 9d45 23be b526 21be e0a5 153e d075 babd
00000020: a6d9 53be 0c90 08be 2099 733e 6220 493e
00000030: a06c 4b3e a196 8ebe 9d65 1d3e d5dc a63d
00000040: 96a1 60be bfda 283c 60af 853d 6a8e 34be
00000050: 4206 0dbe 2141 883e 65bd d7bc 57ea 5fbb
00000060: 5974 53be 9cbe 47be 47d1 993e 1fee f83d
00000070: 1e39 53bd d997 4b3e 8ce4 1ebe 4cb2 91be
00000080: 3cd5 a5be 89c0 073e 7b49 02be 0824 4d3e
00000090: 73b7 8e3e 341f dc3d 0687 8f3e 7de6 99bd
000000a0: 6f93 913e 4853 1fbe 4e64 2fbd 4224 5e3e
000000b0: 1015 2dbe bb00 7f3e 09ca a33d bf7d d0bb
000000c0: 65ff 8e3e beab 7a3e 4b60 09be 2a3e 013d
000000d0: 05d1 1b3d b2d2 883e 29de 3b3e 1044 873e
000000e0: 5eb0 4b3e 595e 91be 7600 5e3e 2968 b1bd
000000f0: 2805 863e 7b46 523e 2b72 43be 9585 0cbd
00000100: fea5 473d a702 bf3d 6ecc 9abe d748 6d3c
00000110: 0700 2e3e 8086 3c3e 694f 243e 41f2 523d
00000120: 2536 a0be 9ad8 5b3e a789 83be 1b4c 44be
00000130: f085 773b d286 cb3d 1b1d 423e 8a58 3bbd
00000140: 37f6 2bbe d7d8 e5bc 73fe da3d 4cf7 3bbe
00000150: 5612 91be 4083 1f3e 250f 5dbe dd0e 3cbe
00000160: 2499 8a3e 1a22 5cbe d187 87be 66f2 7d3e
00000170: a369 1fbe cb97 ad3c e872 a63e 8049 05be
00000180: 179f 9b3e 79b3 843e 62fa 803e 8f1c c63d
00000190: 84a7 16be 9456 523e cadd 64be 6aa8 42be
000001a0: 7422 21be 9d81 103e 9ef9 373d 5da0 543e
000001b0: 129e 5b3e 762b 9c3c 22bb 423e 2f81 71be
000001c0: a9ae 9fbe 0316 88be fd5e 383e 18a2 993e
000001d0: dda3 b8bd 45dc 383e 88b5 6ebe e65b cabb
000001e0: 45e2 03bb be78 c1bd 720f 22be 3ccc 1c3e
000001f0: 917b e8bc 4f74 84bd bf1d 683e 37c6 7dbe
00000200: f62c 5a3e c761 943e 6568 4dbe a051 9ebe
00000210: 81fd 393d 5935 7ebe cdbf 0b3e 253a 85be
00000220: 7b65 82be 23b2 b43d 748b abbd 54d3 93be
00000230: 2759 023e be08 ec3d 3eec 333d 924d 5a3e
00000240: 0426 06be e078 983e da9e 7ebe 929f 963e
00000250: e739 783e be99 94be 81a3 edbc 59ba 33be
00000260: 9264 a43e eb52 5fbc 90cf 443e e269 903e
00000270: 2ad7 80be 031a 4b3e 8a54 91be 2371 b4bd
00000280: 30c8 06be 9e3a 9cbe 1161 9dbe bf0c a1be
00000290: d82f 81be 21b7 3abe c740 dcbd 46d7 3a3e
000002a0: b6d3 56bd 6f67 a5be b2a7 72be 30d2 6f3e
000002b0: 4001 a3be 8350 24be 3d32 97be 81c8 333e
000002c0: e64e 643e 220d ea3c e1f3 27be b2e7 a1bd
000002d0: 7350 9c3c 9e0b 0c3e a6c4 b63b 0ed8 1bbe
000002e0: 265f 823c 6daa 243c 5927 573b 1e5c 113e
000002f0: f3bf fbbd 29bf a83c 3809 b43a 3428 0d3e
00000300: 978e 4cbe 4a95 82be f3f7 87be b862 0c3e
00000310: 02ec 843e 80b0 a53e 99bb ee3d f949 88bd
00000320: 0060 763d 3837 a5be c238 1a3d e59d dcbd
00000330: 9a23 cbbc fae9 3f3e a207 e6bd 400e 7dbe
00000340: 9ae8 a13c 221a babd 6bc2 1bbe 033d ccbd
00000350: ba7e 3dbe 9ba1 923e 10a1 b73c 1d49 31be
00000360: 7afb 543e 1be0 4e3d 8ad8 3f3e ffd1 803e
00000370: 6021 a53e 5618 adbd d0f2 1e3c 0e9c 41be
00000380: 1564 983e 92ca d43d f07e 5dbd f982 a73d
00000390: c3c9 a53e 3b04 083e 6253 223e 9138 9a3e
000003a0: 1290 643c 96b3 ca3a 51e0 a53d d16f 9abe
000003b0: 0f80 e93d 4fff 22bb fc37 80bc 20ed 993c
000003c0: dbef 933e dfdb bf3d 735a 97be d2c0 9a3e
000003d0: 1acf 4b3e d092 283e 7ce5 093e 6214 023d
000003e0: b473 38be 222f 563e ba8f 79be 2f19 4abe
000003f0: a632 5b3a 989b 81be 0d8f 973e dafd a53e

n1.2.bias f4 [1248]
-0.08342594 0.02890638 -0.26309344 0.24653825 -0.27415338 -0.07399127 0.19805695 0.040026803
0.21857344 0.20140295 -0.18276347 -0.103035234 -0.28549284 -0.047015075 -0.25515017 -0.12765656
0.299551 -0.089554116 -0.05578064 -0.09889544 -0.06528358 0.21629095 -0.27527428 0.1988309
-0.026092816 -0.19748498 0.05657484 0.19787106 0.1644653 -0.111620694 -0.16760586 -0.13420781
-0.015089037 -0.277184 -0.0052173394 0.04653207 -0.026460303 0.041456975 -0.18008567 -0.04023128
0.2805199 0.17843795 0.12745504 0.04272139 0.12875226 -0.2299178 -0.31865016 -0.11976603
0.3286164 -0.2107419 -0.23561151 0.16777612 -0.01857081 -0.21373373 0.010338469 0.13994181
-0.124816224 -0.08977271 -0.28472793 0.26565465 -0.0890682 0.30999267 0.22312278 -0.09059515
-0.21973054 -0.25885496 0.30296293 -0.23896275 -0.1652938 -0.20381318 0.18707372 0.13628884
-0.24905547 -0.22978011 0.31479648 0.10988174 -0.030501148 0.253083 -0.32403958 0.054573737
-0.06703071 0.31894952 -0.3160341 0.23073204 -0.030322213 -0.15366723 0.32111177 -0.120044306
0.18716778 -0.16063255 -0.25676042 -0.0537213 -0.294012 -0.31882533 -0.11873846 -0.018957473
0.2395314 -0.061949335 -0.22488545 -0.038875002 -0.17114879 0.18995504 -0.23692484 -0.042421103
-0.07295238 0.011322978 -0.10590835 0.26049042 -0.010428421 0.3115891 -0.13862823 0.2246737
0.14856887 0.0096405605 0.06293573 -0.18517166 0.30150968 -0.2179431 0.042933837 -0.31774253
0.19793697 0.13189606 0.19690387 -0.051445927 0.11754854 -0.29259026 -0.20636703 0.13405828
0.2374953 0.24267142 0.14280991 -0.31381226 -0.1687638 0.32800624 -0.016303949 0.1932195
0.09710505 -0.2088323 0.19497244 -0.14826038 0.108752 0.076301485 0.11545766 -0.30978727
-0.2672957 0.1433746 0.13764091 -0.24432504 -0.16755697 0.24831672 -0.256442 -0.19052015
0.16216668 0.0073047495 0.04776269 4.5472134e-05 -0.07042571 -0.068503454 -0.048576374 -0.13301088
0.046620805 -0.25727856 -0.010021562 0.2274786 -0.29771817 0.010970589 0.1609234 -0.02136063
0.27678153 -0.1580292 0.27561188 -0.0871889 -0.13323154 -0.24191388 0.018173862 -0.2273254
-0.18576388 0.030016733 0.166347 0.082985274 0.17928474 0.2182333 -0.3098322 0.2012875
0.0076614325 -0.037015945 0.25644737 0.07135582 -0.22012821 -0.17043208 0.23591788 0.28074312
-0.30385387 0.07838575 0.14034565 0.13426694 0.102406755 -0.08755536 0.040581666 0.15516622
-0.03171849 -0.05698126 -0.2063878 -0.2803528 0.023838222 0.012281723 0.23902984 -0.19419153
-0.012787698 -0.22563586 0.027314624 -0.141335 0.024138732 -0.054065183 -0.23522256 -0.1719338
0.19231187 0.17256783 -0.13093263 0.01836261 0.20857826 0.24646807 -0.026572783 -0.1460419
0.2124446 -0.2549694 -0.2833558 -0.20228136 -0.14910328 0.008584568 0.14743948 0.053856786
0.13984 0.031279072 -0.14136706 -0.27572188 -0.1619712 -0.29319337 0.07116281 0.2586162
0.013072297 0.1891544 -0.27339166 0.2511474 0.31397173 0.32070303 0.11858893 -0.026622655
0.20547634 0.31457043 0.101829864 0.107831255 0.0639974 0.2221056 -0.047967225 -0.07714216
00000000: 38db aabd 13cd ec3c 2fb4 86be 8674 7c3e
00000010: d55d 8cbe bc88 97bd 71cf 4a3e 25f3 233d
00000020: b7d1 5f3e 933c 4e3e 5926 3bbe 2304 d3bd
00000030: 1e2c 92be e192 40bd 0ba3 82be 67b8 02be
00000040: c05e 993e 2668 b7bd 3e7a 64bd b189 cabd
00000050: 66b3 85bd 607b 5d3e c0f0 8cbe 549a 4b3e
00000060: 9ac0 d5bc 8139 4abe 05bb 673d b69e 4a3e
00000070: 9769 283e 6499 e4bd dfa0 2bbe c66d 09be
00000080: 0238 77bc 10eb 8dbe 37f6 aabb 6998 3e3d
00000090: 47c3 d8bc cace 293d 6168 38be 8ec9 24bd
000000a0: 4ea0 8f3e 70b8 363e 9383 023e a0fc 2e3d
000000b0: a2d7 033e 926f 6bbe 1d26 a3be e447 f5bd
000000c0: 6940 a83e bacc 57be 2544 71be 81cd 2b3e
000000d0: d021 98bc 04dd 5abe af62 293c e84c 0f3e
000000e0: a69f ffbd c1da b7bd dcc7 91be e303 883e
000000f0: 6369 b6bd 5cb7 9e3e 4c7a 643e f389 b9bd
00000100: 0b01 61be a388 84be f51d 9b3e a7b2 74be
00000110: c742 29be 67b4 50be 4190 3f3e 4d8f 0b3e
00000120: 6608 7fbe 7a4b 6bbe 012d a13e ad09 e13d
00000130: 8bdd f9bc 1894 813e 84e8 a5be b688 5f3d
00000140: 6647 89bd 5a4d a33e 39cf a1be 0545 6c3e
00000150: 4a66 f8bc f15a 1dbe c368 a43e cad9 f5bd
00000160: e9a8 3f3e dc7c 24be 1a76 83be de0a 5cbd
00000170: be88 96be 133d a3be 262d f3bd b44c 9bbc
00000180: b847 753e 96be 7dbd 5f48 66be 653b 1fbd
00000190: a141 2fbe 9383 423e 6d9c 72be c0c1 2dbd
000001a0: 0f68 95bd 0384 393c 7ae6 d8bd 005f 853e
000001b0: f8db 2abc 9b88 9f3e 8ff4 0dbe dd10 663e
000001c0: 7022 183e 71f3 1d3c 73e4 803d a49d 3dbe
000001d0: 7a5f 9a3e 7a2c 5fbe 64db 2f3d 26af a2be
000001e0: fdaf 4a3e c30f 073e 2ba1 493e f7b8 52bd
000001f0: 4abd f03d 64ce 95be e151 53be 9346 093e
00000200: f831 733e db7e 783e c33c 123e 00ac a0be
00000210: 6bd0 2cbe 6ff0 a73e dc8f 85bc 55db 453e
00000220: 03df c63d 22d8 55be dba6 473e 92d1 17be
00000230: 5eb9 de3d f443 9c3d 1175 ec3d 709c 9ebe
00000240: fbda 88be cbd0 123e bdf1 0c3e 5830 7abe
00000250: 0e94 2bbe bd46 7e3e 5e4c 83be b717 43be
00000260: 060f 263e ae5c ef3b cfa2 433d 55b9 3e38
00000270: 5b3b 90bd 8a4b 8cbd 05f8 46bd 0134 08be
00000280: 75f5 3e3d 04ba 83be 7a31 24bc 26f0 683e
00000290: 846e 98be fcbd 333c 1bc9 243e 7dfc aebc
000002a0: 4fb6 8d3e 68d2 21be 001d 8d3e 1890 b2bd
000002b0: d96d 08be 46b8 77be 5ae1 943c fdc7 68be
000002c0: e338 3ebe a7e5 f53c de56 2a3e 2ff4 a93d
000002d0: 6b96 373e 8d78 5f3e 53a2 9ebe 4f1e 4e3e
000002e0: c10c fb3b 089e 17bd 124d 833e 0023 923d
000002f0: 4a69 61be bf85 2ebe 7594 713e 90bd 8f3e
00000300: bc92 9bbe b588 a03d c5b6 0f3e 467d 093e
00000310: a2ba d13d 3950 b3bd f638 263d e5e3 1e3e
00000320: 3feb 01bd 2f65 69bd 5357 53be 678a 8fbe
00000330: 6048 c33c 4839 493c 3dc4 743e 25da 46be
00000340: 7e83 51bc 160d 67be ebc2 df3c 1fba 10be
00000350: 97be c53c 7473 5dbd 2fde 70be 6a0f 30be
00000360: 67ed 443e 9fb5 303e 3413 06be 2f6d 963c
00000370: 8a95 553e 2062 7c3e 2aaf d9bc 028c 15be
00000380: 148b 593e 598b 82be 0314 91be d822 4fbe
00000390: 88ae 18be 4aa6 0c3c 60fa 163e ef98 5c3d
000003a0: 3832 0f3e 7c1e 003d 87c2 10be 6b2b 8dbe
000003b0: c7db 25be 711d 96be cfbd 913d 5869 843e
000003c0: 302d 563c b1b1 413e fef9 8bbe 6496 803e
000003d0: e7c0 a03e 3033 a43e c1de f23d c117 dabc
000003e0: 6468 523e 600f a13e 2d8c d03d a2d6 dc3d
000003f0: 1211 833d a76f 633e 4879 44bd b5fc 9dbd

conv1.bias f4 [32]
-0.15284455 0.05252806 -0.119956166 0.04646622 0.0922612 -0.03167759 -0.041173536 -0.0639897
0.13197328 0.069903836 0.024700811 0.04420438 -0.03454501 0.019948788 -0.051388547 0.0057932013
0.13527206 0.07923696 0.13904586 -0.11427278 0.040621914 -0.06117163 -0.0848699 -0.16584069
0.1257137 0.059885897 -0.08248146 0.10212169 -0.0058949315 0.12709498 -0.12843192 -0.055243146
00000000: 4883 1cbe aa27 573d 94ab f5bd 5d53 3e3d
00000010: 71f3 bc3d 5cc0 01bd 95a5 28bd 080d 83bd
00000020: 0124 073e be29 8f3d 5b59 ca3c a70f 353d
00000030: 127f 0dbd a46b a33c cc7c 52bd e5d4 bd3b
00000040: c284 0a3e fd46 a23d 0a62 0e3e d907 eabd
00000050: 2a63 263d 1a8f 7abd 45d0 adbd 24d2 29be
00000060: 18bb 003e ea4a 753d 0aec a8bd 2d25 d13d
00000070: 452a c1bb 3025 023e a883 03be a346 62bd

conv1.nn.0.weight f4 [8, 39]
-0.060260247 0.0068627894 -0.07339509 0.05471605 -0.12591477 0.1105029 -0.10741079 -0.11748944
-0.09337885 0.06624544 -0.054602712 0.052860405 -0.12542334 -0.08966027 -0.05426044 -0.02904125
-0.11273418 0.10299341 -0.034850594 0.05117761 0.10306984 0.023741048 0.038541738 0.13791676
-0.06664916 0.048989896 -0.06574871 0.10490766 0.12193425 -0.13624698 0.12925439 0.074306086
0.062639885 0.059315488 0.12217026 -0.019512499 -0.12497539 -0.04240465 -0.10407617 0.00878108
-0.027591215 -0.07926576 -0.013436161 0.14051539 -0.011656034 0.0057836184 -0.023047494 0.025754616
0.13254331 0.08982431 0.04715031 0.03065004 0.033306602 0.05532723 -0.019096354 -0.13734594
-0.09138751 0.12526809 0.011223822 -0.11971079 0.028518172 0.12036664 -0.13964993 -0.09948982
-0.05885475 0.0025688603 -0.034466114 -0.016239477 -0.14406711 0.06802299 0.12820318 0.08799018
-0.104646176 -0.11912412 0.060632784 0.0042356486 0.05642582 -0.14440122 -0.008810954 0.11029578
0.07705773 0.0030562424 0.033631917 -0.013991605 -0.081253126 -0.055845086 -0.08999364 0.123584665
0.08192112 0.051521882 -0.11332374 0.10989146 0.047718853 0.104748316 -0.058134295 0.03661546
0.14031829 0.09789479 0.11977001 -0.03103107 0.107546486 -0.11574429 0.012719623 -0.08320696
-0.034464013 -0.037845507 0.006259106 0.13193619 0.07068152 -0.00062602607 0.104104266 -0.07572953
0.07305082 -0.013703825 -0.02571494 0.02256243 -0.113212034 0.016556123 0.05369301 0.1249486
-0.046009567 0.053637154 0.14724058 -0.063392065 0.14274731 -0.07337049 0.07172158 0.05837104
0.046955094 0.11922814 -0.05972654 0.040403754 -0.0039674724 -0.11114981 -0.03588246 -0.09868937
0.06410211 0.015533443 0.012286302 -0.044831436 -0.003798465 -0.045965232 0.040737323 0.13914628
0.023502033 -0.06545347 -0.09026677 0.0066540902 -0.10962836 -0.11107718 -0.09618515 -0.050191935
0.0048000487 0.10442495 0.06524598 0.11048401 -0.09278925 0.010314057 -0.1313568 0.084668055
0.029154655 0.1382669 -0.1051013 0.11194395 0.12167992 0.12542859 0.019930815 0.14152165
0.101643234 0.106926024 -0.009599756 -0.11340433 -0.0018389543 0.020101609 -0.100661665 -0.084771104
-0.14168136 -0.051803093 0.13506752 0.02375338 -0.009026282 0.0066455877 0.087009065 -0.13049713
-0.11402377 -0.049131718 -0.08504871 0.07522507 0.10436502 -0.14337784 -0.125416 -0.14390863
0.054985918 0.11841774 -0.11457795 -0.06841462 0.053180136 -0.096496694 0.12178402 0.032586385
-0.0411389 0.009919684 0.048001334 -0.052256163 -0.1145064 -0.0021280705 0.0049023046 -9.974442e-05
-0.021565275 0.096641555 -0.041238736 -0.01430381 0.06152052 -0.0930168 0.04526427 -0.032675993
0.068473384 -0.080164164 0.006549819 0.014574977 -0.118901454 -0.107455425 0.054717846 -0.04301165
0.08551396 -0.14598404 -0.073050715 -0.12171884 0.059994716 -0.0042842682 -0.0275637 -0.024585975
-0.11551033 0.041420694 0.0046188524 -0.10198334 0.05434644 -0.0029701944 -0.14292285 0.07885807
0.08016174 -0.027842823 -0.102031335 0.0029597916 0.111001514 0.14155489 -0.11154276 -0.06674663
0.11373265 0.07925405 0.089508146 -0.07355406 0.1321583 -0.12148308 -0.0071182926 0.0021676682
00000000: 73d3 76bd 40e1 e03b 2a50 96bd f01d 603d
00000010: cdef 00be 584f e23d 30fa dbbd 4e9e f0bd
00000020: 693d bfbd b0ab 873d 18a7 5fbd 2784 583d
00000030: fa6e 00be ce9f b7bd 3240 5ebd eae7 edbc
00000040: 2ee1 e6bd 35ee d23d 7fbf 0ebd 9d9f 513d
00000050: 4816 d33d 967c c23c f1dd 1d3d 0d3a 0d3e
00000060: 5b7f 88bd a1a9 483d 42a7 86bd d4d9 d63d
00000070: aab8 f93d 5484 0bbe 435b 043e ca2d 983d
00000080: 5749 803d ccf4 723d 6734 fa3d add8 9fbc
00000090: 19f3 ffbd 80b0 2dbd e325 d5bd 85de 0f3c
000000a0: f906 e2bc 1656 a2bd 5823 5cbc 44e3 0f3e
000000b0: f3f8 3ebc 8284 bd3b 19ce bcbc 58fb d23c
000000c0: 6fb9 073e cff5 b73d af20 413d cb15 fb3c
000000d0: 816c 083d ce9e 623d f56f 9cbc 6aa4 0cbe
000000e0: 6029 bbbd 4746 003e 1fe4 373c ee2a f5bd
000000f0: f19e e93c c982 f63d 6400 0fbe 52c1 cbbd
00000100: ae11 71bd 535a 283b 572c 0dbd a708 85bc
00000110: 5486 13be a34f 8b3d b247 033e 3234 b43d
00000120: bc50 d6bd 59f7 f3bd 155a 783d 32cb 8a3b
00000130: c31e 673d eadd 13be d25b 10bc c1e2 e13d
00000140: 71d0 9d3d 3d4b 483b 9fc1 093d 0b3d 65bc
00000150: 0a68 a6bd d1bd 64bd 964e b8bd f519 fd3d
00000160: 43c6 a73d 9c08 533d 4716 e8bd c60e e13d
00000170: d874 433d 4986 d63d 3a1e 6ebd 18fa 153d
00000180: 99af 0f3e 107d c83d fb49 f53d df34 febc
00000190: 5541 dc3d 580b edbd f765 503c 6968 aabd
000001a0: 232a 0dbd e403 1bbd 3019 cd3b 481a 073e
000001b0: 79c1 903d e61b 24ba 9e34 d53d 1518 9bbd
000001c0: ab9b 953d 0286 60bc 23a8 d2bc d8d4 b83c
000001d0: b6db e7bd b5a0 873c 34ed 5b3d 0de5 ff3d
000001e0: 8774 3cbd a2b2 5b3d 3cc6 163e b3d3 81bd
000001f0: 5a2c 123e 4443 96bd c4e2 923d 7916 6f3d
00000200: fc53 403d e22d f43d d1a3 74bd 687e 253d
00000210: 9201 82bb 83a2 e3bd 7df9 12bd a71d cabd
00000220: f847 833d fb7f 7e3c 7c4c 493c 2ba1 37bd
00000230: abef 78bb 0a46 3cbd 2edc 263d 5d7c 0e3e
00000240: 5687 c03c 780c 86bd c9dd b8bd 8e0a da3b
00000250: d584 e0bd 6f7c e3bd b8fc c4bd 0f96 4dbd
00000260: ba49 9d3b c0dc d53d af9f 853d 7145 e23d
00000270: 4a08 bebd 4afc 283c 6682 06be 7266 ad3d
00000280: bed5 ee3c d795 0d3e 5a3f d7bd df42 e53d
00000290: 5233 f93d 5a70 003e f345 a33c 0deb 103e
000002a0: 542a d03d 08fc da3d 4c48 1dbc 8840 e8bd
000002b0: 1109 f1ba 21ac a43c b427 cebd 799c adbd
000002c0: eb14 11be 7b2f 54bd 244f 0a3e 7396 c23c
000002d0: f8e2 13bc 3bc3 d93b cf31 b23d 0aa1 05be
000002e0: 4b85 e9bd 573e 49bd 052e aebd 9a0f 9a3d
000002f0: 54bd d53d a4d1 12be 0d6d 00be c95c 13be
00000300: ea38 613d 0085 f23d d8a7 eabd f71c 8cbd
00000310: 6ad3 593d 0fa0 c5bd e669 f93d 4d79 053d
00000320: 4381 28bd 2c86 223c 0c9d 443d 8f0a 56bd
00000330: 5582 eabd 1977 0bbb 83a3 a03b e12d d1b8
00000340: a9a9 b0bc 02ec c53d f3e9 28bd 875a 6abc
00000350: f1fc 7b3d 987f bebd 0767 393d 43d7 05bd
00000360: c63b 8c3d 1c2d a4bd dd9f d63b e2cb 6e3c
00000370: 9b82 f3bd 9711 dcbd d21f 603d fc2c 30bd
00000380: f121 af3d d77c 15be 9d9b 95bd ba47 f9bd
00000390: 05bd 753d 0c63 8cbb 45cd e1bc 8768 c9bc
000003a0: ae90 ecbd bfa8 293d be59 973b a4dc d0bd
000003b0: 5f9a 5e3d 98a7 42bb 5e5a 12be 5780 a13d
000003c0: d72b a43d a216 e4bc cef5 d0bd 10f9 413b
000003d0: c354 e33d c4f3 103e 8870 e4bd 75b2 88bd
000003e0: aaec e83d f34f a23d 0c50 b73d 83a3 96bd
000003f0: 8154 073e 1fcc f8bd 9140 e9bb 700f 0e3b

conv1.nn.2.weight f4 [1248, 8]
-0.19093162 0.30844122 -0.13611588 0.06954529 -0.15944524 -0.15737422 0.14614058 -0.09104502
-0.20688495 -0.133362 0.23788881 0.1964126 0.19865656 -0.27849296 0.15370794 0.08147589
-0.2193664 0.010306059 0.06527591 -0.17632452 -0.13771918 0.2661219 -0.026335428 -0.0034166777
-0.20649852 -0.19506305 0.30042478 0.12154793 -0.051568143 0.19882144 -0.15516871 -0.28456342
-0.32389247 0.1325704 -0.12723343 0.20033276 0.27874336 0.10748139 0.28032702 -0.07514665
0.28432795 -0.15559113 -0.042820267 0.21693519 -0.16902566 0.24902622 0.079975195 -0.0063626464
0.27929226 0.24479577 -0.13415639 0.031553425 0.038041133 0.26723248 0.18346466 0.26419115
0.19891497 -0.28392294 0.21679863 -0.08662445 0.2617581 0.20534699 -0.1908652 -0.03430708
0.048742287 0.09326678 -0.30234092 0.014482698 0.16992198 0.18410683 0.16045918 0.051500563
-0.3129131 0.21469346 -0.25690958 -0.19169657 0.0037769042 0.09937824 0.18956415 -0.045738734
-0.16793142 -0.028057499 0.106930636 -0.18356055 -0.28334302 0.15577412 -0.21587808 -0.18365045
0.27069962 -0.21497384 -0.26470807 0.24799499 -0.15567641 0.021190545 0.32509542 -0.1301632
0.30394813 0.25918177 0.25191027 0.09673416 -0.1471234 0.2054084 -0.22350231 -0.19009557
-0.15735799 0.14111944 0.044915788 0.20764299 0.21447018 0.019063693 0.19016698 -0.23584436
-0.31187943 -0.26579294 0.18004985 0.3000648 -0.090156294 0.18052776 -0.23311436 -0.006175506
-0.002012388 -0.09446858 -0.15826204 0.15312284 -0.028379234 -0.064674966 0.22667597 -0.24782644
0.21306214 0.28980848 -0.20059355 -0.3092165 0.045407776 -0.24825038 0.13647385 -0.26020923
-0.25468048 0.088230394 -0.08376208 -0.28872168 0.12729321 0.11525105 0.04392647 0.21318653
-0.1310044 0.2977972 -0.24865285 0.29418617 0.24240838 -0.29023546 -0.029008629 -0.17551555
0.3210798 -0.013630609 0.19219804 0.28205782 -0.25164157 0.19834141 -0.2838481 -0.088106416
-0.13162303 -0.3051347 -0.30738118 -0.31455037 -0.25231814 -0.1823392 -0.10754543 0.18246183
-0.052447997 -0.32305476 -0.23696783 0.23420024 -0.3183689 -0.16046338 -0.29530516 0.17556955
0.22295722 0.028570715 -0.16401626 -0.079055205 0.01908133 0.13676307 0.0055776415 -0.15219137
0.015914511 0.010050398 0.003282985 0.14195296 -0.12292471 0.020598965 0.0013735658 0.13784868
-0.19976269 -0.25504524 -0.26556358 0.13709533 0.2596131 0.3236122 0.11656875 -0.06654734
0.060150146 -0.3226869 0.037651785 -0.107723035 -0.02479725 0.18741599 -0.112319246 -0.24712467
0.019764233 -0.09087016 -0.15210883 -0.099725746 -0.18505374 0.2863892 0.022415668 -0.17313047
0.20799056 0.050506692 0.18734947 0.25160214 0.32252026 -0.08451907 0.009701446 -0.18907186
0.29763857 0.103902 -0.054076135 0.08179278 0.32380494 0.13282864 0.1585212 0.30121282
0.013950365 0.0015464898 0.080994256 -0.30163434 0.11401378 -0.0024871414 -0.015651695 0.018789828
0.28893933 0.09368109 -0.29561195 0.30225235 0.19903222 0.16462255 0.13466448 0.03175772
-0.18012887 0.20916417 -0.24371234 -0.1973617 0.0008361734 -0.2531402 0.29601327 0.32420236
00000000: 9483 43be 02ec 9d3e f661 0bbe c36d 8e3d
00000010: 9d45 23be b526 21be e0a5 153e d075 babd
00000020: a6d9 53be 0c90 08be 2099 733e 6220 493e
00000030: a06c 4b3e a196 8ebe 9d65 1d3e d5dc a63d
00000040: 96a1 60be bfda 283c 60af 853d 6a8e 34be
00000050: 4206 0dbe 2141 883e 65bd d7bc 57ea 5fbb
00000060: 5974 53be 9cbe 47be 47d1 993e 1fee f83d
00000070: 1e39 53bd d997 4b3e 8ce4 1ebe 4cb2 91be
00000080: 3cd5 a5be 89c0 073e 7b49 02be 0824 4d3e
00000090: 73b7 8e3e 341f dc3d 0687 8f3e 7de6 99bd
000000a0: 6f93 913e 4853 1fbe 4e64 2fbd 4224 5e3e
000000b0: 1015 2dbe bb00 7f3e 09ca a33d bf7d d0bb
000000c0: 65ff 8e3e beab 7a3e 4b60 09be 2a3e 013d
000000d0: 05d1 1b3d b2d2 883e 29de 3b3e 1044 873e
000000e0: 5eb0 4b3e 595e 91be 7600 5e3e 2968 b1bd
000000f0: 2805 863e 7b46 523e 2b72 43be 9585 0cbd
00000100: fea5 473d a702 bf3d 6ecc 9abe d748 6d3c
00000110: 0700 2e3e 8086 3c3e 694f 243e 41f2 523d
00000120: 2536 a0be 9ad8 5b3e a789 83be 1b4c 44be
00000130: f085 773b d286 cb3d 1b1d 423e 8a58 3bbd
00000140: 37f6 2bbe d7d8 e5bc 73fe da3d 4cf7 3bbe
00000150: 5612 91be 4083 1f3e 250f 5dbe dd0e 3cbe
00000160: 2499 8a3e 1a22 5cbe d187 87be 66f2 7d3e
00000170: a369 1fbe cb97 ad3c e872 a63e 8049 05be
00000180: 179f 9b3e 79b3 843e 62fa 803e 8f1c c63d
00000190: 84a7 16be 9456 523e cadd 64be 6aa8 42be
000001a0: 7422 21be 9d81 103e 9ef9 373d 5da0 543e
000001b0: 129e 5b3e 762b 9c3c 22bb 423e 2f81 71be
000001c0: a9ae 9fbe 0316 88be fd5e 383e 18a2 993e
000001d0: dda3 b8bd 45dc 383e 88b5 6ebe e65b cabb
000001e0: 45e2 03bb be78 c1bd 720f 22be 3ccc 1c3e
000001f0: 917b e8bc 4f74 84bd bf1d 683e 37c6 7dbe
00000200: f62c 5a3e c761 943e 6568 4dbe a051 9ebe
00000210: 81fd 393d 5935 7ebe cdbf 0b3e 253a 85be
00000220: 7b65 82be 23b2 b43d 748b abbd 54d3 93be
00000230: 2759 023e be08 ec3d 3eec 333d 924d 5a3e
00000240: 0426 06be e078 983e da9e 7ebe 929f 963e
00000250: e739 783e be99 94be 81a3 edbc 59ba 33be
00000260: 9264 a43e eb52 5fbc 90cf 443e e269 903e
00000270: 2ad7 80be 031a 4b3e 8a54 91be 2371 b4bd
00000280: 30c8 06be 9e3a 9cbe 1161 9dbe bf0c a1be
00000290: d82f 81be 21b7 3abe c740 dcbd 46d7 3a3e
000002a0: b6d3 56bd 6f67 a5be b2a7 72be 30d2 6f3e
000002b0: 4001 a3be 8350 24be 3d32 97be 81c8 333e
000002c0: e64e 643e 220d ea3c e1f3 27be b2e7 a1bd
000002d0: 7350 9c3c 9e0b 0c3e a6c4 b63b 0ed8 1bbe
000002e0: 265f 823c 6daa 243c 5927 573b 1e5c 113e
000002f0: f3bf fbbd 29bf a83c 3809 b43a 3428 0d3e
00000300: 978e 4cbe 4a95 82be f3f7 87be b862 0c3e
00000310: 02ec 843e 80b0 a53e 99bb ee3d f949 88bd
00000320: 0060 763d 3837 a5be c238 1a3d e59d dcbd
00000330: 9a23 cbbc fae9 3f3e a207 e6bd 400e 7dbe
00000340: 9ae8 a13c 221a babd 6bc2 1bbe 033d ccbd
00000350: ba7e 3dbe 9ba1 923e 10a1 b73c 1d49 31be
00000360: 7afb 543e 1be0 4e3d 8ad8 3f3e ffd1 803e
00000370: 6021 a53e 5618 adbd d0f2 1e3c 0e9c 41be
00000380: 1564 983e 92ca d43d f07e 5dbd f982 a73d
00000390: c3c9 a53e 3b04 083e 6253 223e 9138 9a3e
000003a0: 1290 643c 96b3 ca3a 51e0 a53d d16f 9abe
000003b0: 0f80 e93d 4fff 22bb fc37 80bc 20ed 993c
000003c0: dbef 933e dfdb bf3d 735a 97be d2c0 9a3e
000003d0: 1acf 4b3e d092 283e 7ce5 093e 6214 023d
000003e0: b473 38be 222f 563e ba8f 79be 2f19 4abe
000003f0: a632 5b3a 989b 81be 0d8f 973e dafd a53e

conv1.nn.2.bias f4 [1248]
-0.08342594 0.02890638 -0.26309344 0.24653825 -0.27415338 -0.07399127 0.19805695 0.040026803
0.21857344 0.20140295 -0.18276347 -0.103035234 -0.28549284 -0.047015075 -0.25515017 -0.12765656
0.299551 -0.089554116 -0.05578064 -0.09889544 -0.06528358 0.21629095 -0.27527428 0.1988309
-0.026092816 -0.19748498 0.05657484 0.19787106 0.1644653 -0.111620694 -0.16760586 -0.13420781
-0.015089037 -0.277184 -0.0052173394 0.04653207 -0.026460303 0.041456975 -0.18008567 -0.04023128
0.2805199 0.17843795 0.12745504 0.04272139 0.12875226 -0.2299178 -0.31865016 -0.11976603
0.3286164 -0.2107419 -0.23561151 0.16777612 -0.01857081 -0.21373373 0.010338469 0.13994181
-0.124816224 -0.08977271 -0.28472793 0.26565465 -0.0890682 0.30999267 0.22312278 -0.09059515
-0.21973054 -0.25885496 0.30296293 -0.23896275 -0.1652938 -0.20381318 0.18707372 0.13628884
-0.24905547 -0.22978011 0.31479648 0.10988174 -0.030501148 0.253083 -0.32403958 0.054573737
-0.06703071 0.31894952 -0.3160341 0.23073204 -0.030322213 -0.15366723 0.32111177 -0.120044306
0.18716778 -0.16063255 -0.25676042 -0.0537213 -0.294012 -0.31882533 -0.11873846 -0.018957473
0.2395314 -0.061949335 -0.22488545 -0.038875002 -0.17114879 0.18995504 -0.23692484 -0.042421103
-0.07295238 0.011322978 -0.10590835 0.26049042 -0.010428421 0.3115891 -0.13862823 0.2246737
0.14856887 0.0096405605 0.06293573 -0.18517166 0.30150968 -0.2179431 0.042933837 -0.31774253
0.19793697 0.13189606 0.19690387 -0.051445927 0.11754854 -0.29259026 -0.20636703 0.13405828
0.2374953 0.24267142 0.14280991 -0.31381226 -0.1687638 0.32800624 -0.016303949 0.1932195
0.09710505 -0.2088323 0.19497244 -0.14826038 0.108752 0.076301485 0.11545766 -0.30978727
-0.2672957 0.1433746 0.13764091 -0.24432504 -0.16755697 0.24831672 -0.256442 -0.19052015
0.16216668 0.0073047495 0.04776269 4.5472134e-05 -0.07042571 -0.068503454 -0.048576374 -0.13301088
0.046620805 -0.25727856 -0.010021562 0.2274786 -0.29771817 0.010970589 0.1609234 -0.02136063
0.27678153 -0.1580292 0.27561188 -0.0871889 -0.13323154 -0.24191388 0.018173862 -0.2273254
-0.18576388 0.030016733 0.166347 0.082985274 0.17928474 0.2182333 -0.3098322 0.2012875
0.0076614325 -0.037015945 0.25644737 0.07135582 -0.22012821 -0.17043208 0.23591788 0.28074312
-0.30385387 0.07838575 0.14034565 0.13426694 0.102406755 -0.08755536 0.040581666 0.15516622
-0.03171849 -0.05698126 -0.2063878 -0.2803528 0.023838222 0.012281723 0.23902984 -0.19419153
-0.012787698 -0.22563586 0.027314624 -0.141335 0.024138732 -0.054065183 -0.23522256 -0.1719338
0.19231187 0.17256783 -0.13093263 0.01836261 0.20857826 0.24646807 -0.026572783 -0.1460419
0.2124446 -0.2549694 -0.2833558 -0.20228136 -0.14910328 0.008584568 0.14743948 0.053856786
0.13984 0.031279072 -0.14136706 -0.27572188 -0.1619712 -0.29319337 0.07116281 0.2586162
0.013072297 0.1891544 -0.27339166 0.2511474 0.31397173 0.32070303 0.11858893 -0.026622655
0.20547634 0.31457043 0.101829864 0.107831255 0.0639974 0.2221056 -0.047967225 -0.07714216
00000000: 38db aabd 13cd ec3c 2fb4 86be 8674 7c3e
00000010: d55d 8cbe bc88 97bd 71cf 4a3e 25f3 233d
00000020: b7d1 5f3e 933c 4e3e 5926 3bbe 2304 d3bd
00000030: 1e2c 92be e192 40bd 0ba3 82be 67b8 02be
00000040: c05e 993e 2668 b7bd 3e7a 64bd b189 cabd
00000050: 66b3 85bd 607b 5d3e c0f0 8cbe 549a 4b3e
00000060: 9ac0 d5bc 8139 4abe 05bb 673d b69e 4a3e
00000070: 9769 283e 6499 e4bd dfa0 2bbe c66d 09be
00000080: 0238 77bc 10eb 8dbe 37f6 aabb 6998 3e3d
00000090: 47c3 d8bc cace 293d 6168 38be 8ec9 24bd
000000a0: 4ea0 8f3e 70b8 363e 9383 023e a0fc 2e3d
000000b0: a2d7 033e 926f 6bbe 1d26 a3be e447 f5bd
000000c0: 6940 a83e bacc 57be 2544 71be 81cd 2b3e
000000d0: d021 98bc 04dd 5abe af62 293c e84c 0f3e
000000e0: a69f ffbd c1da b7bd dcc7 91be e303 883e
000000f0: 6369 b6bd 5cb7 9e3e 4c7a 643e f389 b9bd
00000100: 0b01 61be a388 84be f51d 9b3e a7b2 74be
00000110: c742 29be 67b4 50be 4190 3f3e 4d8f 0b3e
00000120: 6608 7fbe 7a4b 6bbe 012d a13e ad09 e13d
00000130: 8bdd f9bc 1894 813e 84e8 a5be b688 5f3d
00000140: 6647 89bd 5a4d a33e 39cf a1be 0545 6c3e
00000150: 4a66 f8bc f15a 1dbe c368 a43e cad9 f5bd
00000160: e9a8 3f3e dc7c 24be 1a76 83be de0a 5cbd
00000170: be88 96be 133d a3be 262d f3bd b44c 9bbc
00000180: b847 753e 96be 7dbd 5f48 66be 653b 1fbd
00000190: a141 2fbe 9383 423e 6d9c 72be c0c1 2dbd
000001a0: 0f68 95bd 0384 393c 7ae6 d8bd 005f 853e
000001b0: f8db 2abc 9b88 9f3e 8ff4 0dbe dd10 663e
000001c0: 7022 183e 71f3 1d3c 73e4 803d a49d 3dbe
000001d0: 7a5f 9a3e 7a2c 5fbe 64db 2f3d 26af a2be
000001e0: fdaf 4a3e c30f 073e 2ba1 493e f7b8 52bd
000001f0: 4abd f03d 64ce 95be e151 53be 9346 093e
00000200: f831 733e db7e 783e c33c 123e 00ac a0be
00000210: 6bd0 2cbe 6ff0 a73e dc8f 85bc 55db 453e
00000220: 03df c63d 22d8 55be dba6 473e 92d1 17be
00000230: 5eb9 de3d f443 9c3d 1175 ec3d 709c 9ebe
00000240: fbda 88be cbd0 123e bdf1 0c3e 5830 7abe
00000250: 0e94 2bbe bd46 7e3e 5e4c 83be b717 43be
00000260: 060f 263e ae5c ef3b cfa2 433d 55b9 3e38
00000270: 5b3b 90bd 8a4b 8cbd 05f8 46bd 0134 08be
00000280: 75f5 3e3d 04ba 83be 7a31 24bc 26f0 683e
00000290: 846e 98be fcbd 333c 1bc9 243e 7dfc aebc
000002a0: 4fb6 8d3e 68d2 21be 001d 8d3e 1890 b2bd
000002b0: d96d 08be 46b8 77be 5ae1 943c fdc7 68be
000002c0: e338 3ebe a7e5 f53c de56 2a3e 2ff4 a93d
000002d0: 6b96 373e 8d78 5f3e 53a2 9ebe 4f1e 4e3e
000002e0: c10c fb3b 089e 17bd 124d 833e 0023 923d
000002f0: 4a69 61be bf85 2ebe 7594 713e 90bd 8f3e
00000300: bc92 9bbe b588 a03d c5b6 0f3e 467d 093e
00000310: a2ba d13d 3950 b3bd f638 263d e5e3 1e3e
00000320: 3feb 01bd 2f65 69bd 5357 53be 678a 8fbe
00000330: 6048 c33c 4839 493c 3dc4 743e 25da 46be
00000340: 7e83 51bc 160d 67be ebc2 df3c 1fba 10be
00000350: 97be c53c 7473 5dbd 2fde 70be 6a0f 30be
00000360: 67ed 443e 9fb5 303e 3413 06be 2f6d 963c
00000370: 8a95 553e 2062 7c3e 2aaf d9bc 028c 15be
00000380: 148b 593e 598b 82be 0314 91be d822 4fbe
00000390: 88ae 18be 4aa6 0c3c 60fa 163e ef98 5c3d
000003a0: 3832 0f3e 7c1e 003d 87c2 10be 6b2b 8dbe
000003b0: c7db 25be 711d 96be cfbd 913d 5869 843e
000003c0: 302d 563c b1b1 413e fef9 8bbe 6496 803e
000003d0: e7c0 a03e 3033 a43e c1de f23d c117 dabc
000003e0: 6468 523e 600f a13e 2d8c d03d a2d6 dc3d
000003f0: 1211 833d a76f 633e 4879 44bd b5fc 9dbd

pool1.weight f4 [1, 32]
0.07505469 0.100732066 0.096201144 -0.12636638 0.09290075 -0.049060352 0.018296188 0.07480586
0.09559224 0.05337335 -0.039576326 0.03283832 0.0829755 -0.108946614 -0.086086944 -0.13501321
0.013969951 0.04254968 0.004984948 0.07349103 -0.119843006 -0.015436494 -0.117027596 0.11741419
-0.08811762 0.06904465 0.14424704 -0.1127132 -0.0823403 0.07755505 -0.017563816 0.091902666
00000000: 46b6 993d 9d4c ce3d 1b05 c53d 3066 01be
00000010: c042 be3d 82f3 48bd e3e1 953c d133 993d
00000020: ddc5 c33d 049e 5a3d c91a 22bd 7981 063d
00000030: 0fef a93d 671f dfbd 5a4e b0bd e740 0abe
00000040: 39e2 643c 9348 2e3d c658 a33b 7782 963d
00000050: 4070 f5bd 59e9 7cbc 2aac efbd da76 f03d
00000060: 0377 b4bd 4867 8d3d 7fb5 133e 2ed6 e6bd
00000070: 08a2 a8bd 2fd5 9e3d fee1 8fbc 7737 bc3d

n2.0.weight f4 [8, 39]
0.14329024 -0.082445085 -0.025276076 -0.13166699 -0.005026458 -0.094093084 -0.0051599173 0.08570435
-0.104185104 0.14167704 0.055855855 0.006161089 0.11261598 -0.066943 0.015935807 0.11880617
-0.12477992 0.05915816 0.14359729 -0.08600913 -0.032880377 -0.055462796 0.1453195 0.002177857
-0.056469493 0.10819843 0.10903749 -0.07163672 -0.044600736 -0.13851582 0.030001005 0.1242952
0.03496475 0.07721807 0.1474728 0.08339377 -0.050737944 -0.0790989 -0.1378643 -0.045455266
-0.030495264 0.12312144 -0.12709127 0.015519386 -0.11685398 -0.014417758 -0.031197762 0.051015753
-0.017369391 0.0038941002 0.12818596 0.10276446 0.05978462 -0.14451599 -0.031746313 -0.07329636
0.11506187 -0.09557923 -0.12234837 -0.08350918 -0.13022429 0.03417245 -0.08123819 0.0037956089
0.056842767 -0.11724503 0.14335676 -0.035888605 -0.05779071 -0.032447662 -0.04981998 0.06750848
-0.08058124 0.09368966 0.0041493694 -0.03425563 0.02739499 0.108227305 0.10994579 0.12083672
0.0149918245 -0.025677932 0.14392309 0.06812663 -0.015671665 0.041769397 0.120312154 -0.1268746
-0.07514216 -0.06323993 0.00413808 -0.1311898 0.01753185 0.09638629 -0.12839372 -0.037099402
-0.05199326 -0.08522315 0.10635192 0.12846097 -0.1019238 0.048834648 0.02649429 -0.08949985
-0.12706874 0.116839916 -0.13121723 0.060328256 0.11840126 0.13598137 0.00583727 -0.11535143
-0.04422369 0.1406411 0.09893225 -0.031082962 -0.079702675 0.10159672 0.018064262 -0.009616551
-0.009990671 -0.033185292 -0.08689681 0.14135897 0.11257692 -0.08098055 -0.037846595 0.060413383
0.082243 -0.09274781 0.087227024 0.0032274318 0.09859552 -0.033327017 -0.05515031 0.008180742
-0.10682549 0.020650249 -0.059636924 0.13621277 -0.06803112 0.13728264 -0.11338684 0.0126794735
-0.11126916 -0.09088672 -0.125365 -0.04809418 0.104958124 0.1375352 0.09950123 -0.04578946
0.09633733 -0.021830311 -0.11783286 0.09134348 -0.13785602 0.031401187 -0.11290632 -0.015234555
-0.013201124 0.00299712 -0.1027785 0.07090597 0.08966994 -0.08983683 -0.06565048 0.1329057
0.0888967 -0.045359995 -0.13826811 -0.073108464 0.03333022 -0.108277686 -0.123758905 0.08572532
0.14796409 0.05527862 -0.14620213 0.020969601 -0.038187142 -0.122872286 -0.062264275 -0.032335732
-0.009316346 0.13435543 -0.05541777 -0.007627307 -0.083126634 0.13876909 -0.14666124 0.06246306
0.13882126 -0.09080971 0.12587687 0.040159754 0.13606721 -0.020770324 -0.10662739 -0.04622364
0.079723045 0.050156273 -0.020049911 -0.03903546 0.021578837 -0.039666824 -0.12612216 0.1428425
-0.081517346 -0.11735891 0.050928563 -0.06412197 -0.14353663 -0.03606455 -0.03937537 0.02698215
0.02233866 -0.133143 -0.0856937 -0.02652428 0.056617524 0.017517267 -0.028176518 -0.09893383
-0.062488817 0.12390487 -0.025165306 0.092468396 -0.03978741 -0.0033601157 0.021573309 -0.14403076
0.057499643 0.12495424 -0.11818692 -0.0664694 0.10800552 0.025387205 -0.07616467 -0.055230845
0.010753897 0.07406468 0.058211323 0.035569903 0.066830985 0.13209744 0.052522838 0.13575915
-0.031451922 -0.1319514 -0.03479239 -0.14342247 -0.12894778 0.11720767 -0.09344456 0.11211448
00000000: adba 123e f8d8 a8bd c60f cfbc b6d3 06be
00000010: fcb4 a4bb e0b3 c0bd 8614 a9bb c385 af3d
00000020: 005f d5bd c913 113e 1cc9 643d f6e2 c93b
00000030: 35a3 e63d 6919 89bd cf8b 823c a650 f33d
00000040: 9d8c ffbd d44f 723d 2b0b 133e 8e25 b0bd
00000050: 93ad 06bd f52c 63bd a3ce 143e 61ba 0e3b
00000060: 8e4c 67bd 2397 dd3d 0c4f df3d 46b6 92bd
00000070: 43af 36bd 17d7 0dbe abc4 f53c 7b8e fe3d
00000080: 3337 0f3d 8224 9e3d 1c03 173e 5aca aa3d
00000090: 97d2 4fbd 9bfe a1bd 4d2c 0dbe 4d2f 3abd
000000a0: 34d1 f9bc 1827 fc3d 3724 02be 0645 7e3c
000000b0: 2451 efbd 7638 6cbc 7392 ffbc e5f5 503d
000000c0: 414a 8ebc 2934 7f3b 2e43 033e 2c76 d23d
000000d0: b8e0 743d 00fc 13be 6c08 02bd 671c 96bd
000000e0: 8fa5 eb3d 0bbf c3bd c891 fabd dc06 abbd
000000f0: 8459 05be 69f8 0b3d 3560 a6bd c0bf 783b
00000100: f6d3 683d 2a1e f0bd 1dcc 123e eeff 12bd
00000110: f4b5 6cbd d7e7 04bd 0910 4cbd e341 8a3d
00000120: c707 a5bd 5de0 bf3d 6ff7 873b a24f 0cbd
00000130: 756b e03c 47a6 dd3d 422b e13d 3e79 f73d
00000140: 45a0 753c 875a d2bc 9360 133e f985 8b3d
00000150: dd61 80bc 6316 2b3d 3866 f63d 6aeb 01be
00000160: 22e4 99bd f083 81bd bb98 873b 9e56 06be
00000170: f49e 8f3c 2d66 c53d a579 03be 8bf5 17bd
00000180: e2f6 54bd 7a89 aebd 09cf d93d 468b 033e
00000190: 6dbd d0bd d706 483d 8e0a d93c b34b b7bd
000001a0: 4f1e 02be c449 ef3d cf5d 06be c31a 773d
000001b0: 5c7c f23d b33e 0b3e 9246 bf3b 5f3d ecbd
000001c0: e623 35bd 3804 103e fe9c ca3d b2a1 febc
000001d0: 283b a3bd f111 d03d 81fb 933c bd8e 1dbc
000001e0: e9af 23bc 4ded 07bd f4f6 b1bd 68c0 103e
000001f0: ba8e e63d 21d9 a5bd 0805 1bbd 0674 773d
00000200: 056f a83d 90f2 bdbd 15a4 b23d 5283 533b
00000210: 73ec c93d e981 08bd 4be5 61bd 8508 063c
00000220: 53c7 dabd b62a a93c d945 74bd 5c7b 0b3e
00000230: e653 8bbd d293 0c3e 5c37 e8bd 91bd 4f3c
00000240: 16e1 e3bd d122 babd af5f 00be 67fe 44bd
00000250: 49f4 d63d 07d6 0c3e 4dc7 cb3d bb8d 3bbd
00000260: 824c c53d 7bd5 b2bc 5b52 f1bd 4a12 bb3d
00000270: 212a 0dbe 889e 003d 6e3b e7bd 5b9a 79bc
00000280: 8749 58bc 546b 443b 897d d2bd 2637 913d
00000290: e0a4 b73d 5ffc b7bd c273 86bd 6f18 083e
000002a0: 790f b63d 67cb 39bd 2896 0dbe e4b9 95bd
000002b0: 4585 083d b1c0 ddbd 4f75 fdbd c290 af3d
000002c0: e683 173e d66b 623d 03b6 15be 71c8 ab3c
000002d0: 1f6a 1cbd 77a4 fbbd d308 7fbd 7972 04bd
000002e0: 96a3 18bc 7894 093e befd 62bd 7dee f9bb
000002f0: 4c3e aabd 7c19 0e3e 5d2e 16be 44d9 7f3d
00000300: 2927 0e3e 71fa b9bd dee5 003e 8e7e 243d
00000310: 3455 0b3e 8726 aabc 765f dabd 0055 3dbd
00000320: d645 a33d aa70 4d3d b63f a4bc a6e3 1fbd
00000330: 1ac6 b03c ae79 22bd 2b26 01be 4e45 123e
00000340: 91f2 a6bd de59 f0bd 789a 503d 6152 83bd
00000350: 44fb 12be 6cb8 13bd 1148 21bd ab09 dd3c
00000360: 91ff b63c a356 08be 2e80 afbd 7249 d9bc
00000370: c7e7 673d 5f80 8f3c 71d2 e6bc d29d cabd
00000380: 46f4 7fbd d6c1 fd3d 7927 cebc 1260 bd3d
00000390: 20f8 22bd 6335 5cbb 82ba b03c cd7c 13be
000003a0: bf84 6b3d 02e8 ff3d fc0b f2bd 1c21 88bd
000003b0: 0032 dd3d d4f8 cf3c 39fc 9bbd bd39 62bd
000003c0: 1d31 303c 39af 973d ff6e 6e3d bfb1 113d
000003d0: afde 883d 8d44 073e 3022 573d 7204 0b3e
000003e0: bbd3 00bd 451e 07be 7782 0ebd 57dd 12be
000003f0: e30a 04be 930a f03d dd5f bfbd 479c e53d
