model/0.pth (torch, 189719 bytes, 30 tensors)

n1.0.weight f4 [8, 39]
-0.052145973 0.005102525 -0.0635122 0.04125179 -0.10895997 0.09801616 -0.09294761 -0.10166911
-0.08080512 0.059171718 -0.047250297 0.037160646 -0.10853474 -0.07758729 -0.04695412 -0.025130758
-0.097554155 0.09139486 -0.030157864 0.048602153 0.089429766 0.018919121 0.03709092 0.11655404
-0.057674643 0.0391486 -0.05689545 0.09350283 0.10721204 -0.11790083 0.11477259 0.06442062
0.057123292 0.057032075 0.10659512 -0.016885085 -0.10814702 -0.03669474 -0.090062015 0.0057570687
-0.023875967 -0.06859236 -0.011626944 0.123992704 -0.010086504 0.0042952253 -0.019944077 0.032380957
0.12060009 0.074189425 0.037566286 0.027700122 0.027175382 0.04942935 -0.016524978 -0.11885191
-0.079081915 0.1024562 0.00900436 -0.103591375 0.033647127 0.10826776 -0.1208456 -0.086093165
-0.050929774 0.006031701 -0.029825142 -0.014052773 -0.12466808 0.06050381 0.11055035 0.07167212
-0.09055527 -0.10308363 0.05054638 0.0053505017 0.05359371 -0.124957204 -0.007624531 0.09344823
0.07284458 -0.0003944536 0.025098301 -0.012107586 -0.070312165 -0.04832539 -0.07787574 0.111412324
0.07222114 0.041765857 -0.098064356 0.09770403 0.03402437 0.08256132 -0.05030634 0.028613398
0.119977675 0.08933735 0.10458353 -0.026852649 0.09368374 -0.10015899 0.008403321 -0.072002895
-0.029823322 -0.032749485 -0.0003397893 0.11903384 0.0597219 -0.0005417298 0.086618744 -0.0655323
0.07252839 -0.011858562 -0.022252342 0.020298874 -0.09796769 0.01866837 0.044591952 0.10728882
-0.039814256 0.05171144 0.13575211 -0.054856144 0.119992934 -0.0634909 0.072260246 0.050713427
0.044179205 0.10216848 -0.05168416 0.034251217 -0.0034332413 -0.09618313 -0.031050785 -0.08540055
0.060882695 0.008687389 0.009772228 -0.03879476 -0.0032869913 -0.039775833 0.032334644 0.1122881
0.0229105 -0.05663997 -0.07811202 0.00810702 -0.09486655 -0.09612029 -0.08323353 -0.043433454
0.0013886589 0.08993397 0.045304418 0.10127427 -0.08029495 0.011651264 -0.11366924 0.06922192
0.019546991 0.12537716 -0.090949066 0.09802991 0.11359303 0.10943259 0.017267717 0.12215163
0.08787313 0.08445796 -0.008307117 -0.09813404 -0.0015913333 0.019122465 -0.08710722 -0.07335644
-0.12260351 -0.044827644 0.11281743 0.020918552 -0.007810865 0.003857598 0.0723459 -0.11292533
-0.098670125 -0.04251594 -0.07359664 0.06582202 0.093679585 -0.12407159 -0.10852833 -0.12453093
0.048512597 0.102935396 -0.09914971 -0.05920237 0.040800005 -0.08350316 0.107919745 0.026119346
-0.035599433 0.008592475 0.04133477 -0.04521971 -0.099087715 -0.001841518 -0.004118631 -8.631651e-05
-0.018661436 0.08385067 -0.035685826 -0.0123777585 0.05249247 -0.08049178 0.04387937 -0.028276056
0.05606226 -0.069369815 0.00062229723 0.0145608485 -0.10289094 -0.092986174 0.04483679 -0.037219986
0.07321636 -0.12632683 -0.0632142 -0.10532904 0.050204337 -0.0037073782 -0.023852158 -0.021275396
-0.09995653 0.03609876 0.0014753172 -0.08825088 0.043259483 -0.002570247 -0.123677835 0.059773497
0.06555785 -0.024093697 -0.08829256 0.0064580613 0.097902365 0.12306948 -0.09652322 -0.057759
0.09856625 0.07135596 0.07537433 -0.06364978 0.11232153 -0.105125025 -0.0061597913 -0.00073698437
00000000: 0497 55bd 1533 a73b af12 82bd a3f7 283d
00000010: 6826 dfbd b2bc c83d 515b bebd e537 d0bd
00000020: 287d a5bd 0b5e 723d 8789 41bd c335 183d
00000030: 7647 debd 16e6 9ebd f752 40bd 05df cdbc
00000040: 79ca c7bd 3a2d bb3d a00d f7bc 0d13 473d
00000050: f426 b73d 46fc 9a3c a6ec 173d e2b3 ee3d
00000060: 3f3c 6cbd 485a 203d 340b 69bd 697e bf3d
00000070: fc91 db3d fe75 f1bd e40d eb3d f5ee 833d
00000080: 1dfa 693d 779a 693d 8b4e da3d 9752 8abc
00000090: 2f7c ddbd 394d 16bd 6f72 b8bd cba5 bc3b
000000a0: 8897 c3bc 277a 8cbd f07e 3ebc e3ef fd3d
000000b0: dd41 25bc f6be 8c3b c361 a3bc e5a1 043d
000000c0: 2efd f63d a0f0 973d 1bdf 193d 5eeb e23c
000000d0: e89e de3c 6e76 4a3d 645f 87bc a168 f3bd
000000e0: b3f5 a1bd 8ed4 d13d 0687 133c b727 d4bd
000000f0: 92d1 093d 7dbb dd3d e67d f7bd 9d51 b0bd
00000100: bd9b 50bd 93a5 c53b db53 f4bc 9a3d 66bc
00000110: fa51 ffbd d8d2 773d 3968 e23d d5c8 923d
00000120: 0b75 b9bd 831d d3bd b909 4f3d 4353 af3b
00000130: 1485 5b3d 90e9 ffbd 34d7 f9bb c961 bf3d
00000140: 8a2f 953d aace ceb9 f49a cd3c e55e 46bc
00000150: d3ff 8fbd d8f0 45bd 517d 9fbd 252c e43d
00000160: ade8 933d ad12 2b3d f7d5 c8bd 0d19 c83d
00000170: 235d 0b3d e915 a93d 050e 4ebd a566 ea3c
00000180: dbb6 f53d 80f6 b63d e42f d63d 16fa dbbc
00000190: 43dd bf3d 2820 cdbd 15ae 093c 4176 93bd
000001a0: 0a50 f4bc 5324 06bd bf25 b2b9 04c8 f33d
000001b0: f39e 743d df02 0eba 2b65 b13d cc35 86bd
000001c0: c489 943d 6a4a 42bc 8b4a b6bc d349 a63c
000001d0: 49a3 c8bd 69ee 983c 0da6 363d 3eba db3d
000001e0: 4614 23bd 60cf 533d 9a02 0b3e d6b0 60bd
000001f0: dbbe f53d 8407 82bd 2efd 933d e2b8 4f3d
00000200: 41f5 343d b53d d13d c5b2 53bd 014b 0c3d
00000210: 3b00 61bb a9fb c4bd 375e febc 7ce6 aebd
00000220: 2260 793d 8d55 0e3c b21b 203c 41e7 1ebd
00000230: 906a 57bb fceb 22bd 5571 043d 4ef7 e53d
00000240: cdae bb3c 50ff 67bd 32f9 9fbd 4ed3 043c
00000250: 6549 c2bd b7da c4bd 5776 aabd 47e7 31bd
00000260: a903 b63a 4d2f b83d 2091 393d e268 cf3d
00000270: ae71 a4bd f1e4 3e3c 6bcb e8bd 39c4 8d3d
00000280: 0321 a03c df62 003e 8143 babd e8c3 c83d
00000290: 76a3 e83d 321e e03d 0775 8d3c a22a fa3d
000002a0: d4f6 b33d 4cf8 ac3d 931a 08bc 80fa c8bd
000002b0: 4994 d0ba b7a6 9c3c 4565 b2bd e73b 96bd
000002c0: 8d17 fbbd 319d 37bd d30c e73d 625d ab3c
000002d0: 49f2 ffbb c1cf 7c3b 162a 943d 6545 e7bd
000002e0: 9013 cabd 3225 2ebd d6b9 96bd b2cd 863d
000002f0: 15db bf3d 3f19 febd 1a44 debd 120a ffbd
00000300: 25b5 463d cbcf d23d 010f cbbd 2f7e 72bd
00000310: e81d 273d b403 abbd 0705 dd3d 3df8 d53c
00000320: b6d0 11bd 74c7 0c3c a64e 293d 4d38 39bd
00000330: 80ee cabd 175f f1ba 95f5 86bb d304 b5b8
00000340: dedf 98bc e6b9 ab3d 4d2b 12bd 15cc 4abc
00000350: 5802 573d e0d8 a4bd dbba 333d 30a3 e7bc
00000360: 8aa1 653d c311 8ebd a921 233a a090 6e3c
00000370: 7cb8 d2bd 896f bebd c8a6 373d fc73 18bd
00000380: 75f2 953d d25b 01be 7276 81bd c0b6 d7bd
00000390: 10a3 4d3d 7cf7 72bb 9a65 c3bc bd49 aebc
000003a0: 02b6 ccbd 4bdc 133d 6e5f c13a e1bc b4bd
000003b0: db30 313d 9771 28bb ce4a fdbd 0ed5 743d
000003c0: 3243 863d 2560 c5bc bbd2 b4bd 259e d33b
000003d0: 0981 c83d da0b fc3d f7ad c5bd b494 6cbd
000003e0: 1add c93d 1323 923d db5d 9a3d d15a 82bd
000003f0: d508 e63d ca4b d7bd 13d8 c9bb 2f32 41ba

n1.2.weight f4 [1248, 8]
-0.16515526 0.2670087 -0.117719695 0.060258195 -0.13789131 -0.1361536 0.12646252 -0.078709796
-0.17895873 -0.11533723 0.20598589 0.16999754 0.17200746 -0.24097182 0.13310815 0.07057043
-0.18978092 0.008896398 0.056531366 -0.15263042 -0.11921804 0.2302843 -0.022789296 -0.0029172446
-0.17877007 -0.16876994 0.25992703 0.10525809 -0.04457167 0.17205693 -0.1342639 -0.24628532
-0.28021014 0.11470857 -0.10994698 0.17332 0.24114709 0.09306157 0.2425548 -0.064962655
0.24596907 -0.13457946 -0.03698893 0.18766277 -0.14621276 0.21544155 0.06922386 -0.0055667055
0.24169417 0.21180114 -0.11615738 0.027313743 0.03289803 0.23124063 0.15877575 0.22860797
0.17217937 -0.24572985 0.18761583 -0.07500708 0.22643922 0.17770025 -0.1651869 -0.02966999
0.04223981 0.08061461 -0.26156628 0.012524119 0.14690734 0.15936437 0.13876083 0.044662163
-0.27079934 0.18577997 -0.22224268 -0.1660225 0.003288384 0.08596472 0.16408633 -0.03963342
-0.14534067 -0.02425693 0.09260857 -0.15875193 -0.24514706 0.13484256 -0.18681547 -0.15886512
0.23432285 -0.18603757 -0.22907715 0.21460815 -0.13471736 0.018367974 0.2813389 -0.11264148
0.26310086 0.22427303 0.21808009 0.08369341 -0.12734011 0.17777173 -0.19343935 -0.16445677
-0.1362612 0.12217812 0.038936146 0.17975399 0.18566464 0.01651585 0.16456155 -0.20409852
-0.26992682 -0.23001896 0.15573828 0.2596866 -0.07798086 0.15622413 -0.20174366 -0.005464324
-0.0018676717 -0.08169876 -0.13699317 0.13258855 -0.024457049 -0.055975363 0.19617552 -0.21450531
0.1843781 0.2507439 -0.17361452 -0.26757985 0.039252233 -0.21481822 0.11807528 -0.2251953
-0.22036 0.07633358 -0.07254762 -0.24984537 0.110168375 0.099713854 0.038058903 0.18448593
-0.11337465 0.25770283 -0.21516362 0.25457564 0.20977573 -0.25115666 -0.02510207 -0.15188758
0.27792385 -0.011850868 0.16627058 0.24406712 -0.21783194 0.17164767 -0.24565837 -0.0762109
-0.113968655 -0.26409465 -0.2661709 -0.2721432 -0.21831495 -0.15779169 -0.09304497 0.15788653
-0.045290805 -0.27961367 -0.205186 0.20276771 -0.2755788 -0.13881266 -0.25567606 0.15200268
0.19283377 0.024755858 -0.14197141 -0.068352535 0.01658898 0.11833576 0.0048459987 -0.13174263
0.013874605 0.008631928 0.0027905037 0.12279563 -0.10646759 0.01782234 0.0011878443 0.119329296
-0.1729479 -0.22066161 -0.22978313 0.118697286 0.22473007 0.28004447 0.100895286 -0.057607103
0.052125644 -0.27925846 0.032677896 -0.09325624 -0.021534638 0.16221412 -0.09721731 -0.21380463
0.017179912 -0.07872529 -0.13162377 -0.08639388 -0.16027154 0.2478181 0.019326013 -0.14982435
0.17991966 0.04378568 0.16203788 0.21785039 0.27929935 -0.07316221 0.008531835 -0.16365898
0.2575171 0.08997139 -0.046715986 0.0708353 0.28027883 0.11496347 0.13720357 0.2606652
0.012161442 0.0013055438 0.07006709 -0.26101157 0.09859539 -0.002116712 -0.013545728 0.01629312
0.25011736 0.08103579 -0.25594544 0.2615352 0.17222014 0.14242095 0.11656093 0.02753388
-0.15582348 0.1809372 -0.21095069 -0.1708445 0.00072589586 -0.21907452 0.25617382 0.28053913
00000000: 761e 29be 5db5 883e 0617 f1bd 4cd1 763d
00000010: 6133 0dbe d96b 0bbe 647f 013e 9a32 a1bd
00000020: f540 37be ed35 ecbd f7ed 523e d613 2e3e
00000030: b922 303e 51c1 76be 814d 083e 3b87 903d
00000040: ee55 42be 33c2 113c 6f8d 673d 264b 1cbe
00000050: 9628 f4bd a6cf 6b3e 9eb0 babc 3e2f 3fbb
00000060: 800f 37be 07d2 2cbe 2815 853e 8e91 d73d
00000070: c990 36bd b12f 303e 7a7c 09be 3832 7cbe
00000080: b477 8fbe 54ec ea3d e22b e1bd cc7a 313e
00000090: 43ef 763e 1097 be3d 4960 783e 240b 85bd
000000a0: 51df 7b3e 33cf 09be b481 17bd ab2a 403e
000000b0: ccb8 15be b69c 5c3e 3dc5 8d3d e968 b6bb
000000c0: ad7e 773e 66e2 583e ece3 edbd 12c1 df3c
000000d0: 16c0 063d 58ca 6c3e 1c96 223e 3518 6a3e
000000e0: ca4f 303e 9ba0 7bbe 5d1e 403e 509d 99bd
000000f0: afdf 673e 0ef7 353e c126 29be 7b0e f3bc
00000100: a703 2d3d 4619 a53d 04ec 85be f631 4d3c
00000110: e16e 163e 6a30 233e 5217 0e3e acef 363d
00000120: 36a6 8abe 1b3d 3e3e 9693 63be cd01 2abe
00000130: ee81 573b 450e b03d 3f06 283e a756 22bd
00000140: 2fd4 14be 78b6 c6bc 90a9 bd3d de8f 22be
00000150: d507 7bbe 2b14 0a3e 8e4c 3fbe 8aad 22be
00000160: 54f2 6f3e a280 3ebe 3393 6abe 3dc2 5b3e
00000170: 59f3 09be 6f78 963c a70b 903e 94b0 e6bd
00000180: 28b5 863e d4a7 653e 6350 5f3e 7367 ab3d
00000190: 7265 02be cb09 363e f714 46be 5b67 28be
000001a0: 0e88 0bbe 8638 fa3d 827b 1f3d 6e11 383e
000001b0: df1e 3e3e 3f4c 873c d382 283e 34ff 50be
000001c0: d933 8abe 178a 6bbe db79 1f3e a4f5 843e
000001d0: 6eb4 9fbd 38f9 1f3e e495 4ebe 120e b3bb
000001e0: aacc f4ba ae51 a7bd f047 0cbe 4bc5 073e
000001f0: 265a c8bc 6c46 65bd 3ce2 483e 48a7 5bbe
00000200: 9dcd 3c3e 8161 803e 01c8 31be 3a00 89be
00000210: f3c6 203d 4ff9 5bbe 74d1 f13d 9999 66be
00000220: 0da6 61be c854 9c3d d993 94bd 77d7 7fbe
00000230: f59f e13d c736 cc3d a7e3 1b3d e1e9 3c3e
00000240: f830 e8bd a0f1 833e da53 5cbe bd57 823e
00000250: 73cf 563e 9b97 80be dba2 cdbc 6b88 1bbe
00000260: 094c 8e3e 252a 42bc d642 2a3e bbec 793e
00000270: 560f 5fbe 68c4 2f3e de8d 7bbe 7614 9cbd
00000280: 6668 e9bd 6a37 87be 8d47 88be 5a56 8bbe
00000290: f48d 5fbe 2594 21be 5c8e bebd 02ad 213e
000002a0: da82 39bd 8629 8fbe 471c 52be 57a2 4f3e
000002b0: aa18 8dbe e824 0ebe f9e7 82be 97a6 1b3e
000002c0: 3776 453e cccc ca3c f460 11be 6afc 8bbd
000002d0: 9de5 873c 055a f23d 2fcb 9e3b 8ae7 06be
000002e0: 5052 633c ee6c 0d3c e2e0 363b 467c fb3d
000002f0: ae0b dabd 2800 923c 71b1 9b3a eb62 f43d
00000300: 4119 31be 1ef5 61be 454c 6bbe 9017 f33d
00000310: a41f 663e fd61 8f3e 30a2 ce3d 6df5 6bbd
00000320: b381 553d f7fa 8ebe 42d9 053d 21fd bebd
00000330: 6969 b0bc 751b 263e de19 c7bd 9aef 5abe
00000340: e3bc 8c3c ba3a a1bd 62c8 06be 46ef b0bd
00000350: 391e 24be 07c4 7d3e 9651 9e3c 8e6b 19be
00000360: dc3c 383e 9d58 333d 42ed 253e 2c14 5f3e
00000370: 5300 8f3e 12d6 95bd 1cc9 0b3c 3896 27be
00000380: 48d9 833e ec42 b83d 4359 3fbd 1912 913d
00000390: b580 8f3e f871 eb3d 187f 0c3e e975 853e
000003a0: c940 473c c81e ab3a 567f 8f3d 4fa3 85be
000003b0: 61ec c93d 89b8 0abb e7ee 5dbc 2679 853c
000003c0: 620f 803e 18f6 a53d 480b 83be f1e7 853e
000003d0: 7a5a 303e ccd6 113e 7fb7 ee3d bb8e e13c
000003e0: 3190 1fbe 9a47 393e 7503 58be dcf1 2ebe
000003f0: 0c4a 3e3a 1255 60be 3729 833e d3a2 8f3e

n1.2.bias f4 [1248]
-0.069010094 0.025938664 -0.2287591 0.21469064 -0.23709755 -0.064383596 0.17095044 0.03390449
0.18885297 0.17040713 -0.15733339 -0.08907903 -0.24711977 -0.03912781 -0.22066317 -0.109536864
0.25903636 -0.078033954 -0.048053868 -0.08597376 -0.05830523 0.19057322 -0.23779431 0.17097093
-0.021912655 -0.17083733 0.047583602 0.17295478 0.14350195 -0.096101955 -0.14542747 -0.1197145
-0.010641365 -0.238433 -0.0039292495 0.039638128 -0.023862131 0.035141144 -0.15598959 -0.033789404
0.23882023 0.15213567 0.110433355 0.03688339 0.11096449 -0.19987823 -0.27833983 -0.10508744
0.28316325 -0.18421888 -0.20391978 0.14598761 -0.018153142 -0.18324941 0.007371471 0.12254056
-0.10908897 -0.077063605 -0.24605231 0.22911844 -0.077723525 0.2694417 0.19593805 -0.07746292
-0.19102506 -0.23042533 0.25863716 -0.20165037 -0.1460633 -0.17722933 0.16033253 0.11296968
-0.21774533 -0.20223574 0.278234 0.09201012 -0.030612957 0.22504635 -0.27957678 0.054634694
-0.058616534 0.27540874 -0.2735 0.1985555 -0.023152541 -0.12949671 0.2800829 -0.11100487
0.1650938 -0.14212589 -0.22862941 -0.044481367 -0.25071916 -0.27799392 -0.1078902 -0.0206707
0.20856905 -0.04887136 -0.19430967 -0.032975126 -0.14751126 0.16527744 -0.20619884 -0.035410084
-0.06398524 0.008748125 -0.09032034 0.22512709 -0.008973284 0.2698398 -0.120583676 0.19402678
0.1282605 0.007912797 0.052497063 -0.15972495 0.25970578 -0.18842027 0.036752548 -0.27239072
0.17168352 0.11448379 0.17055944 -0.04290946 0.101871096 -0.25301838 -0.17941089 0.114210576
0.20505628 0.2090943 0.12183092 -0.26944342 -0.14667353 0.2809804 -0.015359142 0.16723682
0.08515575 -0.1845834 0.16702777 -0.12804285 0.093067035 0.067483455 0.100087985 -0.2664763
-0.23139057 0.12507744 0.1191675 -0.2125178 -0.14171912 0.22097547 -0.22117214 -0.16776858
0.14166267 0.0057994346 0.040276635 0.0017837165 -0.05988608 -0.058649566 -0.040820032 -0.11635497
0.027197953 -0.22346894 -0.009976007 0.19781649 -0.25901672 0.0037891774 0.14525928 -0.016336106
0.2426759 -0.14327623 0.24018954 -0.07208811 -0.11687073 -0.2123146 0.016186439 -0.19484062
-0.15696572 0.030079963 0.14770684 0.07573102 0.16439258 0.20113382 -0.2663817 0.17677356
0.0081406 -0.034436353 0.22299394 0.073309384 -0.19421753 -0.14708006 0.20510367 0.24801275
-0.2580535 0.064431526 0.12024608 0.11202926 0.092580654 -0.06681748 0.032884818 0.13368168
-0.026038853 -0.038435955 -0.17699762 -0.24421632 0.02031641 0.014177964 0.20471598 -0.16728932
-0.01254027 -0.19670975 0.020040123 -0.12784044 0.017517067 -0.046117842 -0.20506181 -0.15239
0.1666066 0.14917047 -0.112946115 0.014126327 0.1823884 0.20481376 -0.0283939 -0.13088664
0.18356346 -0.22746722 -0.2530051 -0.16572565 -0.1345733 0.0038455836 0.12391229 0.041165333
0.11812767 0.018049074 -0.11675309 -0.24258386 -0.14643866 -0.2438829 0.06253735 0.23454958
0.010910562 0.16072991 -0.23469603 0.21476987 0.2792025 0.29183438 0.10649574 -0.034404986
0.18365298 0.2678656 0.07874194 0.09882493 0.060406927 0.19054008 -0.046661228 -0.073164985
00000000: 2a55 8dbd 527d d43c d33f 6abe ddd7 5b3e
00000010: b3c9 72be 8cdb 83bd a20d 2f3e 6fdf 0a3d
00000020: ac62 413e 357f 2e3e 011c 21be 116f b6bd
00000030: f70c 7dbe 7c44 20bd 87f5 61be dd54 e0bd
00000040: 6aa0 843e 44d0 9fbd 22d4 44bd 0313 b0bd
00000050: 77d1 6ebd a025 433e 5a80 73be 0113 2f3e
00000060: 2b82 b3bc fbef 2ebe 06e7 423d 0f1b 313e
00000070: 2df2 123e 1ad1 c4bd f0ea 14be e02c f5bd
00000080: 1f59 2ebc c827 74be efc0 80bb 975b 223d
00000090: 847a c3bc 29f0 0f3d bcbb 1fbe c266 0abd
000000a0: 4a8d 743e 74c9 1b3e e22a e23d 0a13 173d
000000b0: 5a41 e33d e1ac 4cbe 8f82 8ebe 1538 d7bd
000000c0: c6fa 903e e0a3 3cbe 59d0 50be c77d 153e
000000d0: e6b5 94bc bca5 3bbe 618c f13b 8cf6 fa3d
000000e0: 0a6a dfbd 86d3 9dbd 23f5 7bbe 069e 6a3e
000000f0: 832d 9fbd 43f4 893e fca3 483e e1a4 9ebd
00000100: 139c 43be 9ef4 6bbe 176c 843e 6f7d 4ebe
00000110: 9e91 15be 9b7b 35be 362e 243e a65c e73d
00000120: a2f8 5ebe e316 4fbe b074 8e3e cd6f bc3d
00000130: 06c8 fabc 8d72 663e b024 8fbe a1c8 5f3d
00000140: e417 70bd 6002 8d3e 3108 8cbe 2252 4b3e
00000150: 66aa bdbc c99a 04be 0767 8f3e 8556 e3bd
00000160: 590e 293e 7389 11be d41d 6abe 1832 36bd
00000170: 435e 80be 3855 8ebe 8af5 dcbd 9a55 a9bc
00000180: 2093 553e 562d 48bd 1df9 46be ed10 07bd
00000190: 310d 17be 7d3e 293e ca25 53be 2a0a 11bd
000001a0: b20a 83bd 4c54 0f3c dff9 b8bd b787 663e
000001b0: ae04 13bc 7128 8a3e 93f4 f6bd f5ae 463e
000001c0: b856 033e ada4 013c 2907 573d f08e 23be
000001d0: 28f8 843e 3ef1 40be d789 163d cc76 8bbe
000001e0: cecd 2f3e 7a76 ea3d 22a7 2e3e d4c1 2fbd
000001f0: cba1 d03d a08b 81be 7db7 37be 3ce7 e93d
00000200: 46fa 513e d11c 563e 7d82 f93d 7df4 89be
00000210: 9631 16be aadc 8f3e e9a4 7bbc 2140 2b3e
00000220: 2366 ae3d 6e03 3dbe 5409 2b3e aa1d 03be
00000230: ee99 be3d c434 8a3d eefa cc3d 956f 88be
00000240: a6f1 6cbe 4d14 003e 170e f43d 449e 59be
00000250: d11e 11be 6547 623e f37a 62be 87cb 2bbe
00000260: 0510 113e 2f09 be3b 1df9 243d 98cb e93a
00000270: 1b4b 75bd 873a 70bd e832 27bd 844b eebd
00000280: 3ece de3c 0bd5 64be 6872 23bc 6890 4a3e
00000290: d79d 84be d953 783b d9be 143e 4cd3 85bc
000002a0: 0880 783e 01b7 12be 3ff4 753e eea2 93bd
000002b0: ec59 efbd 0069 59be 6c99 843c 4d84 47be
000002c0: 9fbb 20be 416a f63c 7640 173e dd18 9b3d
000002d0: 8756 283e 06f6 4d3e 2f63 88be 2104 353e
000002e0: 2760 053c 220d 0dbd 8658 643e 3b23 963d
000002f0: f6e0 46be 289c 16be b206 523e 0ef7 7d3e
00000300: 971f 84be adf4 833d 9443 f63d 996f e53d
00000310: ed9a bd3d 9ad7 88bd 3bb2 063d dae3 083e
00000320: 6f4f d5bc 056f 1dbd dd3e 35be d813 7abe
00000330: 9a6e a63c b14a 683c 11a1 513e e44d 2bbe
00000340: b475 4dbc 486e 49be 2f2b a43c 9be8 02be
00000350: f47f 8f3c 10e6 3cbd b9fb 51be 200c 1cbe
00000360: ec9a 2a3e 25c0 183e 4b50 e7bd 1c72 673c
00000370: 06c4 3a3e b3ba 513e 539a e8bc 2607 06be
00000380: 0ff8 3b3e 2bed 68be e289 81be fcb3 29be
00000390: 95cd 09be 3006 7c3b bac5 fd3d fb9c 283d
000003a0: ebec f13d a7db 933c 3e1c efbd e767 78be
000003b0: 04f4 15be 70bc 79be 9513 803d c42d 703e
000003c0: 37c2 323c 6296 243e 2854 70be a2ec 5b3e
000003d0: a1f3 8e3e 516b 953e 701a da3d 3eec 0cbd
000003e0: 870f 3c3e ae25 893e 7443 a13d ba64 ca3d
000003f0: 416d 773d f01c 433e d81f 3fbd 86d7 95bd

conv1.bias f4 [32]
-0.1819124 0.00861693 -0.14076243 0.087749384 0.052780166 -0.025204558 -0.04959471 -0.07693706
0.10456104 0.042706028 0.01010348 0.014815452 -0.05296164 0.055266414 -0.044147793 0.0392038
0.12530312 0.067911536 0.13242945 -0.11543333 0.07283504 -0.04389372 -0.040514324 -0.18406232
0.13685243 0.039064374 -0.102980874 0.1098505 0.004286134 0.11436688 -0.121208176 -0.06315673
00000000: 3f47 3abe 062e 0d3c 0724 10be f3b5 b33d
00000010: 0430 583d ca79 cebc d323 4bbd 2d91 9dbd
00000020: 1924 d63d 84ec 2e3d 1189 253c 82bc 723c
00000030: 4eee 58bd 095f 623d 51d4 34bd 2a94 203d
00000040: 764f 003e 3415 8b3d 969b 073e 4f68 ecbd
00000050: 8a2a 953d e7c9 33bd 59f2 25bd d57a 3cbe
00000060: 0b23 0c3e f701 203d a3e7 d2bd 4df9 e03d
00000070: b372 8c3b 2f39 ea3d fe3b f8bd 5158 81bd

conv1.nn.0.weight f4 [8, 39]
-0.052145973 0.005102525 -0.0635122 0.04125179 -0.10895997 0.09801616 -0.09294761 -0.10166911
-0.08080512 0.059171718 -0.047250297 0.037160646 -0.10853474 -0.07758729 -0.04695412 -0.025130758
-0.097554155 0.09139486 -0.030157864 0.048602153 0.089429766 0.018919121 0.03709092 0.11655404
-0.057674643 0.0391486 -0.05689545 0.09350283 0.10721204 -0.11790083 0.11477259 0.06442062
0.057123292 0.057032075 0.10659512 -0.016885085 -0.10814702 -0.03669474 -0.090062015 0.0057570687
-0.023875967 -0.06859236 -0.011626944 0.123992704 -0.010086504 0.0042952253 -0.019944077 0.032380957
0.12060009 0.074189425 0.037566286 0.027700122 0.027175382 0.04942935 -0.016524978 -0.11885191
-0.079081915 0.1024562 0.00900436 -0.103591375 0.033647127 0.10826776 -0.1208456 -0.086093165
-0.050929774 0.006031701 -0.029825142 -0.014052773 -0.12466808 0.06050381 0.11055035 0.07167212
-0.09055527 -0.10308363 0.05054638 0.0053505017 0.05359371 -0.124957204 -0.007624531 0.09344823
0.07284458 -0.0003944536 0.025098301 -0.012107586 -0.070312165 -0.04832539 -0.07787574 0.111412324
0.07222114 0.041765857 -0.098064356 0.09770403 0.03402437 0.08256132 -0.05030634 0.028613398
0.119977675 0.08933735 0.10458353 -0.026852649 0.09368374 -0.10015899 0.008403321 -0.072002895
-0.029823322 -0.032749485 -0.0003397893 0.11903384 0.0597219 -0.0005417298 0.086618744 -0.0655323
0.07252839 -0.011858562 -0.022252342 0.020298874 -0.09796769 0.01866837 0.044591952 0.10728882
-0.039814256 0.05171144 0.13575211 -0.054856144 0.119992934 -0.0634909 0.072260246 0.050713427
0.044179205 0.10216848 -0.05168416 0.034251217 -0.0034332413 -0.09618313 -0.031050785 -0.08540055
0.060882695 0.008687389 0.009772228 -0.03879476 -0.0032869913 -0.039775833 0.032334644 0.1122881
0.0229105 -0.05663997 -0.07811202 0.00810702 -0.09486655 -0.09612029 -0.08323353 -0.043433454
0.0013886589 0.08993397 0.045304418 0.10127427 -0.08029495 0.011651264 -0.11366924 0.06922192
0.019546991 0.12537716 -0.090949066 0.09802991 0.11359303 0.10943259 0.017267717 0.12215163
0.08787313 0.08445796 -0.008307117 -0.09813404 -0.0015913333 0.019122465 -0.08710722 -0.07335644
-0.12260351 -0.044827644 0.11281743 0.020918552 -0.007810865 0.003857598 0.0723459 -0.11292533
-0.098670125 -0.04251594 -0.07359664 0.06582202 0.093679585 -0.12407159 -0.10852833 -0.12453093
0.048512597 0.102935396 -0.09914971 -0.05920237 0.040800005 -0.08350316 0.107919745 0.026119346
-0.035599433 0.008592475 0.04133477 -0.04521971 -0.099087715 -0.001841518 -0.004118631 -8.631651e-05
-0.018661436 0.08385067 -0.035685826 -0.0123777585 0.05249247 -0.08049178 0.04387937 -0.028276056
0.05606226 -0.069369815 0.00062229723 0.0145608485 -0.10289094 -0.092986174 0.04483679 -0.037219986
0.07321636 -0.12632683 -0.0632142 -0.10532904 0.050204337 -0.0037073782 -0.023852158 -0.021275396
-0.09995653 0.03609876 0.0014753172 -0.08825088 0.043259483 -0.002570247 -0.123677835 0.059773497
0.06555785 -0.024093697 -0.08829256 0.0064580613 0.097902365 0.12306948 -0.09652322 -0.057759
0.09856625 0.07135596 0.07537433 -0.06364978 0.11232153 -0.105125025 -0.0061597913 -0.00073698437
00000000: 0497 55bd 1533 a73b af12 82bd a3f7 283d
00000010: 6826 dfbd b2bc c83d 515b bebd e537 d0bd
00000020: 287d a5bd 0b5e 723d 8789 41bd c335 183d
00000030: 7647 debd 16e6 9ebd f752 40bd 05df cdbc
00000040: 79ca c7bd 3a2d bb3d a00d f7bc 0d13 473d
00000050: f426 b73d 46fc 9a3c a6ec 173d e2b3 ee3d
00000060: 3f3c 6cbd 485a 203d 340b 69bd 697e bf3d
00000070: fc91 db3d fe75 f1bd e40d eb3d f5ee 833d
00000080: 1dfa 693d 779a 693d 8b4e da3d 9752 8abc
00000090: 2f7c ddbd 394d 16bd 6f72 b8bd cba5 bc3b
000000a0: 8897 c3bc 277a 8cbd f07e 3ebc e3ef fd3d
000000b0: dd41 25bc f6be 8c3b c361 a3bc e5a1 043d
000000c0: 2efd f63d a0f0 973d 1bdf 193d 5eeb e23c
000000d0: e89e de3c 6e76 4a3d 645f 87bc a168 f3bd
000000e0: b3f5 a1bd 8ed4 d13d 0687 133c b727 d4bd
000000f0: 92d1 093d 7dbb dd3d e67d f7bd 9d51 b0bd
00000100: bd9b 50bd 93a5 c53b db53 f4bc 9a3d 66bc
00000110: fa51 ffbd d8d2 773d 3968 e23d d5c8 923d
00000120: 0b75 b9bd 831d d3bd b909 4f3d 4353 af3b
00000130: 1485 5b3d 90e9 ffbd 34d7 f9bb c961 bf3d
00000140: 8a2f 953d aace ceb9 f49a cd3c e55e 46bc
00000150: d3ff 8fbd d8f0 45bd 517d 9fbd 252c e43d
00000160: ade8 933d ad12 2b3d f7d5 c8bd 0d19 c83d
00000170: 235d 0b3d e915 a93d 050e 4ebd a566 ea3c
00000180: dbb6 f53d 80f6 b63d e42f d63d 16fa dbbc
00000190: 43dd bf3d 2820 cdbd 15ae 093c 4176 93bd
000001a0: 0a50 f4bc 5324 06bd bf25 b2b9 04c8 f33d
000001b0: f39e 743d df02 0eba 2b65 b13d cc35 86bd
000001c0: c489 943d 6a4a 42bc 8b4a b6bc d349 a63c
000001d0: 49a3 c8bd 69ee 983c 0da6 363d 3eba db3d
000001e0: 4614 23bd 60cf 533d 9a02 0b3e d6b0 60bd
000001f0: dbbe f53d 8407 82bd 2efd 933d e2b8 4f3d
00000200: 41f5 343d b53d d13d c5b2 53bd 014b 0c3d
00000210: 3b00 61bb a9fb c4bd 375e febc 7ce6 aebd
00000220: 2260 793d 8d55 0e3c b21b 203c 41e7 1ebd
00000230: 906a 57bb fceb 22bd 5571 043d 4ef7 e53d
00000240: cdae bb3c 50ff 67bd 32f9 9fbd 4ed3 043c
00000250: 6549 c2bd b7da c4bd 5776 aabd 47e7 31bd
00000260: a903 b63a 4d2f b83d 2091 393d e268 cf3d
00000270: ae71 a4bd f1e4 3e3c 6bcb e8bd 39c4 8d3d
00000280: 0321 a03c df62 003e 8143 babd e8c3 c83d
00000290: 76a3 e83d 321e e03d 0775 8d3c a22a fa3d
000002a0: d4f6 b33d 4cf8 ac3d 931a 08bc 80fa c8bd
000002b0: 4994 d0ba b7a6 9c3c 4565 b2bd e73b 96bd
000002c0: 8d17 fbbd 319d 37bd d30c e73d 625d ab3c
000002d0: 49f2 ffbb c1cf 7c3b 162a 943d 6545 e7bd
000002e0: 9013 cabd 3225 2ebd d6b9 96bd b2cd 863d
000002f0: 15db bf3d 3f19 febd 1a44 debd 120a ffbd
00000300: 25b5 463d cbcf d23d 010f cbbd 2f7e 72bd
00000310: e81d 273d b403 abbd 0705 dd3d 3df8 d53c
00000320: b6d0 11bd 74c7 0c3c a64e 293d 4d38 39bd
00000330: 80ee cabd 175f f1ba 95f5 86bb d304 b5b8
00000340: dedf 98bc e6b9 ab3d 4d2b 12bd 15cc 4abc
00000350: 5802 573d e0d8 a4bd dbba 333d 30a3 e7bc
00000360: 8aa1 653d c311 8ebd a921 233a a090 6e3c
00000370: 7cb8 d2bd 896f bebd c8a6 373d fc73 18bd
00000380: 75f2 953d d25b 01be 7276 81bd c0b6 d7bd
00000390: 10a3 4d3d 7cf7 72bb 9a65 c3bc bd49 aebc
000003a0: 02b6 ccbd 4bdc 133d 6e5f c13a e1bc b4bd
000003b0: db30 313d 9771 28bb ce4a fdbd 0ed5 743d
000003c0: 3243 863d 2560 c5bc bbd2 b4bd 259e d33b
000003d0: 0981 c83d da0b fc3d f7ad c5bd b494 6cbd
000003e0: 1add c93d 1323 923d db5d 9a3d d15a 82bd
000003f0: d508 e63d ca4b d7bd 13d8 c9bb 2f32 41ba

conv1.nn.2.weight f4 [1248, 8]
-0.16515526 0.2670087 -0.117719695 0.060258195 -0.13789131 -0.1361536 0.12646252 -0.078709796
-0.17895873 -0.11533723 0.20598589 0.16999754 0.17200746 -0.24097182 0.13310815 0.07057043
-0.18978092 0.008896398 0.056531366 -0.15263042 -0.11921804 0.2302843 -0.022789296 -0.0029172446
-0.17877007 -0.16876994 0.25992703 0.10525809 -0.04457167 0.17205693 -0.1342639 -0.24628532
-0.28021014 0.11470857 -0.10994698 0.17332 0.24114709 0.09306157 0.2425548 -0.064962655
0.24596907 -0.13457946 -0.03698893 0.18766277 -0.14621276 0.21544155 0.06922386 -0.0055667055
0.24169417 0.21180114 -0.11615738 0.027313743 0.03289803 0.23124063 0.15877575 0.22860797
0.17217937 -0.24572985 0.18761583 -0.07500708 0.22643922 0.17770025 -0.1651869 -0.02966999
0.04223981 0.08061461 -0.26156628 0.012524119 0.14690734 0.15936437 0.13876083 0.044662163
-0.27079934 0.18577997 -0.22224268 -0.1660225 0.003288384 0.08596472 0.16408633 -0.03963342
-0.14534067 -0.02425693 0.09260857 -0.15875193 -0.24514706 0.13484256 -0.18681547 -0.15886512
0.23432285 -0.18603757 -0.22907715 0.21460815 -0.13471736 0.018367974 0.2813389 -0.11264148
0.26310086 0.22427303 0.21808009 0.08369341 -0.12734011 0.17777173 -0.19343935 -0.16445677
-0.1362612 0.12217812 0.038936146 0.17975399 0.18566464 0.01651585 0.16456155 -0.20409852
-0.26992682 -0.23001896 0.15573828 0.2596866 -0.07798086 0.15622413 -0.20174366 -0.005464324
-0.0018676717 -0.08169876 -0.13699317 0.13258855 -0.024457049 -0.055975363 0.19617552 -0.21450531
0.1843781 0.2507439 -0.17361452 -0.26757985 0.039252233 -0.21481822 0.11807528 -0.2251953
-0.22036 0.07633358 -0.07254762 -0.24984537 0.110168375 0.099713854 0.038058903 0.18448593
-0.11337465 0.25770283 -0.21516362 0.25457564 0.20977573 -0.25115666 -0.02510207 -0.15188758
0.27792385 -0.011850868 0.16627058 0.24406712 -0.21783194 0.17164767 -0.24565837 -0.0762109
-0.113968655 -0.26409465 -0.2661709 -0.2721432 -0.21831495 -0.15779169 -0.09304497 0.15788653
-0.045290805 -0.27961367 -0.205186 0.20276771 -0.2755788 -0.13881266 -0.25567606 0.15200268
0.19283377 0.024755858 -0.14197141 -0.068352535 0.01658898 0.11833576 0.0048459987 -0.13174263
0.013874605 0.008631928 0.0027905037 0.12279563 -0.10646759 0.01782234 0.0011878443 0.119329296
-0.1729479 -0.22066161 -0.22978313 0.118697286 0.22473007 0.28004447 0.100895286 -0.057607103
0.052125644 -0.27925846 0.032677896 -0.09325624 -0.021534638 0.16221412 -0.09721731 -0.21380463
0.017179912 -0.07872529 -0.13162377 -0.08639388 -0.16027154 0.2478181 0.019326013 -0.14982435
0.17991966 0.04378568 0.16203788 0.21785039 0.27929935 -0.07316221 0.008531835 -0.16365898
0.2575171 0.08997139 -0.046715986 0.0708353 0.28027883 0.11496347 0.13720357 0.2606652
0.012161442 0.0013055438 0.07006709 -0.26101157 0.09859539 -0.002116712 -0.013545728 0.01629312
0.25011736 0.08103579 -0.25594544 0.2615352 0.17222014 0.14242095 0.11656093 0.02753388
-0.15582348 0.1809372 -0.21095069 -0.1708445 0.00072589586 -0.21907452 0.25617382 0.28053913
00000000: 761e 29be 5db5 883e 0617 f1bd 4cd1 763d
00000010: 6133 0dbe d96b 0bbe 647f 013e 9a32 a1bd
00000020: f540 37be ed35 ecbd f7ed 523e d613 2e3e
00000030: b922 303e 51c1 76be 814d 083e 3b87 903d
00000040: ee55 42be 33c2 113c 6f8d 673d 264b 1cbe
00000050: 9628 f4bd a6cf 6b3e 9eb0 babc 3e2f 3fbb
00000060: 800f 37be 07d2 2cbe 2815 853e 8e91 d73d
00000070: c990 36bd b12f 303e 7a7c 09be 3832 7cbe
00000080: b477 8fbe 54ec ea3d e22b e1bd cc7a 313e
00000090: 43ef 763e 1097 be3d 4960 783e 240b 85bd
000000a0: 51df 7b3e 33cf 09be b481 17bd ab2a 403e
000000b0: ccb8 15be b69c 5c3e 3dc5 8d3d e968 b6bb
000000c0: ad7e 773e 66e2 583e ece3 edbd 12c1 df3c
000000d0: 16c0 063d 58ca 6c3e 1c96 223e 3518 6a3e
000000e0: ca4f 303e 9ba0 7bbe 5d1e 403e 509d 99bd
000000f0: afdf 673e 0ef7 353e c126 29be 7b0e f3bc
00000100: a703 2d3d 4619 a53d 04ec 85be f631 4d3c
00000110: e16e 163e 6a30 233e 5217 0e3e acef 363d
00000120: 36a6 8abe 1b3d 3e3e 9693 63be cd01 2abe
00000130: ee81 573b 450e b03d 3f06 283e a756 22bd
00000140: 2fd4 14be 78b6 c6bc 90a9 bd3d de8f 22be
00000150: d507 7bbe 2b14 0a3e 8e4c 3fbe 8aad 22be
00000160: 54f2 6f3e a280 3ebe 3393 6abe 3dc2 5b3e
00000170: 59f3 09be 6f78 963c a70b 903e 94b0 e6bd
00000180: 28b5 863e d4a7 653e 6350 5f3e 7367 ab3d
00000190: 7265 02be cb09 363e f714 46be 5b67 28be
000001a0: 0e88 0bbe 8638 fa3d 827b 1f3d 6e11 383e
000001b0: df1e 3e3e 3f4c 873c d382 283e 34ff 50be
000001c0: d933 8abe 178a 6bbe db79 1f3e a4f5 843e
000001d0: 6eb4 9fbd 38f9 1f3e e495 4ebe 120e b3bb
000001e0: aacc f4ba ae51 a7bd f047 0cbe 4bc5 073e
000001f0: 265a c8bc 6c46 65bd 3ce2 483e 48a7 5bbe
00000200: 9dcd 3c3e 8161 803e 01c8 31be 3a00 89be
00000210: f3c6 203d 4ff9 5bbe 74d1 f13d 9999 66be
00000220: 0da6 61be c854 9c3d d993 94bd 77d7 7fbe
00000230: f59f e13d c736 cc3d a7e3 1b3d e1e9 3c3e
00000240: f830 e8bd a0f1 833e da53 5cbe bd57 823e
00000250: 73cf 563e 9b97 80be dba2 cdbc 6b88 1bbe
00000260: 094c 8e3e 252a 42bc d642 2a3e bbec 793e
00000270: 560f 5fbe 68c4 2f3e de8d 7bbe 7614 9cbd
00000280: 6668 e9bd 6a37 87be 8d47 88be 5a56 8bbe
00000290: f48d 5fbe 2594 21be 5c8e bebd 02ad 213e
000002a0: da82 39bd 8629 8fbe 471c 52be 57a2 4f3e
000002b0: aa18 8dbe e824 0ebe f9e7 82be 97a6 1b3e
000002c0: 3776 453e cccc ca3c f460 11be 6afc 8bbd
000002d0: 9de5 873c 055a f23d 2fcb 9e3b 8ae7 06be
000002e0: 5052 633c ee6c 0d3c e2e0 363b 467c fb3d
000002f0: ae0b dabd 2800 923c 71b1 9b3a eb62 f43d
00000300: 4119 31be 1ef5 61be 454c 6bbe 9017 f33d
00000310: a41f 663e fd61 8f3e 30a2 ce3d 6df5 6bbd
00000320: b381 553d f7fa 8ebe 42d9 053d 21fd bebd
00000330: 6969 b0bc 751b 263e de19 c7bd 9aef 5abe
00000340: e3bc 8c3c ba3a a1bd 62c8 06be 46ef b0bd
00000350: 391e 24be 07c4 7d3e 9651 9e3c 8e6b 19be
00000360: dc3c 383e 9d58 333d 42ed 253e 2c14 5f3e
00000370: 5300 8f3e 12d6 95bd 1cc9 0b3c 3896 27be
00000380: 48d9 833e ec42 b83d 4359 3fbd 1912 913d
00000390: b580 8f3e f871 eb3d 187f 0c3e e975 853e
000003a0: c940 473c c81e ab3a 567f 8f3d 4fa3 85be
000003b0: 61ec c93d 89b8 0abb e7ee 5dbc 2679 853c
000003c0: 620f 803e 18f6 a53d 480b 83be f1e7 853e
000003d0: 7a5a 303e ccd6 113e 7fb7 ee3d bb8e e13c
000003e0: 3190 1fbe 9a47 393e 7503 58be dcf1 2ebe
000003f0: 0c4a 3e3a 1255 60be 3729 833e d3a2 8f3e

conv1.nn.2.bias f4 [1248]
-0.069010094 0.025938664 -0.2287591 0.21469064 -0.23709755 -0.064383596 0.17095044 0.03390449
0.18885297 0.17040713 -0.15733339 -0.08907903 -0.24711977 -0.03912781 -0.22066317 -0.109536864
0.25903636 -0.078033954 -0.048053868 -0.08597376 -0.05830523 0.19057322 -0.23779431 0.17097093
-0.021912655 -0.17083733 0.047583602 0.17295478 0.14350195 -0.096101955 -0.14542747 -0.1197145
-0.010641365 -0.238433 -0.0039292495 0.039638128 -0.023862131 0.035141144 -0.15598959 -0.033789404
0.23882023 0.15213567 0.110433355 0.03688339 0.11096449 -0.19987823 -0.27833983 -0.10508744
0.28316325 -0.18421888 -0.20391978 0.14598761 -0.018153142 -0.18324941 0.007371471 0.12254056
-0.10908897 -0.077063605 -0.24605231 0.22911844 -0.077723525 0.2694417 0.19593805 -0.07746292
-0.19102506 -0.23042533 0.25863716 -0.20165037 -0.1460633 -0.17722933 0.16033253 0.11296968
-0.21774533 -0.20223574 0.278234 0.09201012 -0.030612957 0.22504635 -0.27957678 0.054634694
-0.058616534 0.27540874 -0.2735 0.1985555 -0.023152541 -0.12949671 0.2800829 -0.11100487
0.1650938 -0.14212589 -0.22862941 -0.044481367 -0.25071916 -0.27799392 -0.1078902 -0.0206707
0.20856905 -0.04887136 -0.19430967 -0.032975126 -0.14751126 0.16527744 -0.20619884 -0.035410084
-0.06398524 0.008748125 -0.09032034 0.22512709 -0.008973284 0.2698398 -0.120583676 0.19402678
0.1282605 0.007912797 0.052497063 -0.15972495 0.25970578 -0.18842027 0.036752548 -0.27239072
0.17168352 0.11448379 0.17055944 -0.04290946 0.101871096 -0.25301838 -0.17941089 0.114210576
0.20505628 0.2090943 0.12183092 -0.26944342 -0.14667353 0.2809804 -0.015359142 0.16723682
0.08515575 -0.1845834 0.16702777 -0.12804285 0.093067035 0.067483455 0.100087985 -0.2664763
-0.23139057 0.12507744 0.1191675 -0.2125178 -0.14171912 0.22097547 -0.22117214 -0.16776858
0.14166267 0.0057994346 0.040276635 0.0017837165 -0.05988608 -0.058649566 -0.040820032 -0.11635497
0.027197953 -0.22346894 -0.009976007 0.19781649 -0.25901672 0.0037891774 0.14525928 -0.016336106
0.2426759 -0.14327623 0.24018954 -0.07208811 -0.11687073 -0.2123146 0.016186439 -0.19484062
-0.15696572 0.030079963 0.14770684 0.07573102 0.16439258 0.20113382 -0.2663817 0.17677356
0.0081406 -0.034436353 0.22299394 0.073309384 -0.19421753 -0.14708006 0.20510367 0.24801275
-0.2580535 0.064431526 0.12024608 0.11202926 0.092580654 -0.06681748 0.032884818 0.13368168
-0.026038853 -0.038435955 -0.17699762 -0.24421632 0.02031641 0.014177964 0.20471598 -0.16728932
-0.01254027 -0.19670975 0.020040123 -0.12784044 0.017517067 -0.046117842 -0.20506181 -0.15239
0.1666066 0.14917047 -0.112946115 0.014126327 0.1823884 0.20481376 -0.0283939 -0.13088664
0.18356346 -0.22746722 -0.2530051 -0.16572565 -0.1345733 0.0038455836 0.12391229 0.041165333
0.11812767 0.018049074 -0.11675309 -0.24258386 -0.14643866 -0.2438829 0.06253735 0.23454958
0.010910562 0.16072991 -0.23469603 0.21476987 0.2792025 0.29183438 0.10649574 -0.034404986
0.18365298 0.2678656 0.07874194 0.09882493 0.060406927 0.19054008 -0.046661228 -0.073164985
00000000: 2a55 8dbd 527d d43c d33f 6abe ddd7 5b3e
00000010: b3c9 72be 8cdb 83bd a20d 2f3e 6fdf 0a3d
00000020: ac62 413e 357f 2e3e 011c 21be 116f b6bd
00000030: f70c 7dbe 7c44 20bd 87f5 61be dd54 e0bd
00000040: 6aa0 843e 44d0 9fbd 22d4 44bd 0313 b0bd
00000050: 77d1 6ebd a025 433e 5a80 73be 0113 2f3e
00000060: 2b82 b3bc fbef 2ebe 06e7 423d 0f1b 313e
00000070: 2df2 123e 1ad1 c4bd f0ea 14be e02c f5bd
00000080: 1f59 2ebc c827 74be efc0 80bb 975b 223d
00000090: 847a c3bc 29f0 0f3d bcbb 1fbe c266 0abd
000000a0: 4a8d 743e 74c9 1b3e e22a e23d 0a13 173d
000000b0: 5a41 e33d e1ac 4cbe 8f82 8ebe 1538 d7bd
000000c0: c6fa 903e e0a3 3cbe 59d0 50be c77d 153e
000000d0: e6b5 94bc bca5 3bbe 618c f13b 8cf6 fa3d
000000e0: 0a6a dfbd 86d3 9dbd 23f5 7bbe 069e 6a3e
000000f0: 832d 9fbd 43f4 893e fca3 483e e1a4 9ebd
00000100: 139c 43be 9ef4 6bbe 176c 843e 6f7d 4ebe
00000110: 9e91 15be 9b7b 35be 362e 243e a65c e73d
00000120: a2f8 5ebe e316 4fbe b074 8e3e cd6f bc3d
00000130: 06c8 fabc 8d72 663e b024 8fbe a1c8 5f3d
00000140: e417 70bd 6002 8d3e 3108 8cbe 2252 4b3e
00000150: 66aa bdbc c99a 04be 0767 8f3e 8556 e3bd
00000160: 590e 293e 7389 11be d41d 6abe 1832 36bd
00000170: 435e 80be 3855 8ebe 8af5 dcbd 9a55 a9bc
00000180: 2093 553e 562d 48bd 1df9 46be ed10 07bd
00000190: 310d 17be 7d3e 293e ca25 53be 2a0a 11bd
000001a0: b20a 83bd 4c54 0f3c dff9 b8bd b787 663e
000001b0: ae04 13bc 7128 8a3e 93f4 f6bd f5ae 463e
000001c0: b856 033e ada4 013c 2907 573d f08e 23be
000001d0: 28f8 843e 3ef1 40be d789 163d cc76 8bbe
000001e0: cecd 2f3e 7a76 ea3d 22a7 2e3e d4c1 2fbd
000001f0: cba1 d03d a08b 81be 7db7 37be 3ce7 e93d
00000200: 46fa 513e d11c 563e 7d82 f93d 7df4 89be
00000210: 9631 16be aadc 8f3e e9a4 7bbc 2140 2b3e
00000220: 2366 ae3d 6e03 3dbe 5409 2b3e aa1d 03be
00000230: ee99 be3d c434 8a3d eefa cc3d 956f 88be
00000240: a6f1 6cbe 4d14 003e 170e f43d 449e 59be
00000250: d11e 11be 6547 623e f37a 62be 87cb 2bbe
00000260: 0510 113e 2f09 be3b 1df9 243d 98cb e93a
00000270: 1b4b 75bd 873a 70bd e832 27bd 844b eebd
00000280: 3ece de3c 0bd5 64be 6872 23bc 6890 4a3e
00000290: d79d 84be d953 783b d9be 143e 4cd3 85bc
000002a0: 0880 783e 01b7 12be 3ff4 753e eea2 93bd
000002b0: ec59 efbd 0069 59be 6c99 843c 4d84 47be
000002c0: 9fbb 20be 416a f63c 7640 173e dd18 9b3d
000002d0: 8756 283e 06f6 4d3e 2f63 88be 2104 353e
000002e0: 2760 053c 220d 0dbd 8658 643e 3b23 963d
000002f0: f6e0 46be 289c 16be b206 523e 0ef7 7d3e
00000300: 971f 84be adf4 833d 9443 f63d 996f e53d
00000310: ed9a bd3d 9ad7 88bd 3bb2 063d dae3 083e
00000320: 6f4f d5bc 056f 1dbd dd3e 35be d813 7abe
00000330: 9a6e a63c b14a 683c 11a1 513e e44d 2bbe
00000340: b475 4dbc 486e 49be 2f2b a43c 9be8 02be
00000350: f47f 8f3c 10e6 3cbd b9fb 51be 200c 1cbe
00000360: ec9a 2a3e 25c0 183e 4b50 e7bd 1c72 673c
00000370: 06c4 3a3e b3ba 513e 539a e8bc 2607 06be
00000380: 0ff8 3b3e 2bed 68be e289 81be fcb3 29be
00000390: 95cd 09be 3006 7c3b bac5 fd3d fb9c 283d
000003a0: ebec f13d a7db 933c 3e1c efbd e767 78be
000003b0: 04f4 15be 70bc 79be 9513 803d c42d 703e
000003c0: 37c2 323c 6296 243e 2854 70be a2ec 5b3e
000003d0: a1f3 8e3e 516b 953e 701a da3d 3eec 0cbd
000003e0: 870f 3c3e ae25 893e 7443 a13d ba64 ca3d
000003f0: 416d 773d f01c 433e d81f 3fbd 86d7 95bd

pool1.weight f4 [1, 32]
0.096838415 0.09279984 0.08027506 -0.09946855 0.06830351 -0.005040345 0.020405158 0.0702781
0.045599405 0.042883556 -0.025895864 0.021523459 0.076929286 -0.090911046 -0.055484306 -0.13076814
-0.009294194 -0.011855734 -0.002095334 0.057139054 -0.12135732 -0.025066193 -0.09848678 0.13167934
-0.1285006 0.024331449 0.12053175 -0.09112881 -0.036320332 0.010309495 0.01922343 0.074396476
00000000: 3853 c63d d80d be3d 4067 a43d 2bb6 cbbd
00000010: b6e2 8b3d 7a29 a5bb b828 a73c f7ed 8f3d
00000020: 71c6 3a3d aba6 2f3d 9023 d4bc f751 b03c
00000030: 1a8d 9d3d 922f babd 8343 63bd 15e8 05be
00000040: ad46 18bc 8d3e 42bc df51 09bb a40a 6a3d
00000050: 308a f8bd 9e57 cdbc 70b3 c9bd f3d6 063e
00000060: a995 03be bf52 c73c 5ad9 f63d bea1 babd
00000070: a1c4 14bd 28e9 283c 747a 9d3c 2e5d 983d

n2.0.weight f4 [8, 39]
0.12399572 -0.07134361 -0.021872578 -0.11393763 -0.004349631 -0.08142308 -0.0044651185 0.07416402
-0.09015627 0.12286958 0.04833471 0.004557618 0.098223865 -0.05792893 0.01334864 0.10300252
-0.10797792 0.05115566 0.124126926 -0.074427724 -0.02845295 -0.04799454 0.12575175 0.002628756
-0.048865695 0.09363624 0.09490311 -0.06199064 -0.038595058 -0.11986424 0.026342731 0.10811852
0.03001923 0.06751319 0.12722234 0.07287198 -0.0439059 -0.06844796 -0.11930042 -0.039334588
-0.026388967 0.10654272 -0.109978065 0.014536343 -0.10111926 -0.012476362 -0.026996886 0.044866588
-0.015030542 0.003369748 0.110379025 0.08946828 0.051719222 -0.12505645 -0.027471574 -0.06342679
0.10004486 -0.08270924 -0.10587377 -0.07226443 -0.11268919 0.029571075 -0.07029921 0.0032845188
0.04920485 -0.10145764 0.12405335 -0.031056097 -0.050009016 -0.02807848 -0.043111548 0.058218338
-0.06973071 0.081363596 0.0041252235 -0.029643001 0.023837022 0.09351947 0.095141284 0.104724936
0.012973128 -0.022220323 0.12448687 0.05996697 -0.013561428 0.03614502 0.10461144 -0.10979055
-0.06502404 -0.0547245 0.0039727283 -0.113524765 0.01588086 0.082577065 -0.11110504 -0.03210386
-0.044992216 -0.07374758 0.091871515 0.11133674 -0.08819949 0.04308303 0.022926742 -0.077448316
-0.109958574 0.101107076 -0.11354844 0.052778743 0.10273988 0.117253825 0.0055521387 -0.099819005
-0.038268834 0.121625006 0.08515211 -0.026897524 -0.068970464 0.0879164 0.014850803 -0.008321657
-0.008645399 -0.028716791 -0.075195864 0.1222274 0.09741805 -0.07007627 -0.032750424 0.052278522
0.07023712 -0.080259 0.075410314 0.002200637 0.0849306 -0.02883943 -0.047724158 0.005573675
-0.092441075 0.01767481 -0.05160662 0.11787119 -0.05887049 0.118797116 -0.098118916 0.010012659
-0.096286446 -0.07864857 -0.108484216 -0.04161818 0.09022618 0.11902982 0.086574644 -0.03962375
0.08329545 -0.018890794 -0.10196629 0.079288416 -0.11929326 0.0267415 -0.09770316 -0.013183168
-0.011423552 0.003251329 -0.08893908 0.061358266 0.077850804 -0.07774003 -0.056810416 0.114867486
0.07750024 -0.03925214 -0.11964988 -0.06326416 0.028842092 -0.09369777 -0.10709434 0.0744734
0.12771358 0.04716557 -0.12651558 0.01885807 -0.033045102 -0.106327124 -0.053880215 -0.02798163
-0.008061871 0.116012044 -0.0479556 -0.0066002687 -0.0719334 0.11936279 -0.12691286 0.053642478
0.12002896 -0.078581944 0.109471224 0.03475213 0.1179273 -0.017973538 -0.09226965 -0.039999515
0.069712386 0.043453697 -0.01735013 -0.033779215 0.018429048 -0.034325562 -0.109139435 0.12439557
-0.07054075 -0.10155613 0.044229034 -0.05548776 -0.124208964 -0.031208336 -0.034073338 0.022969639
0.019404486 -0.11521486 -0.07415479 -0.022952698 0.04899657 0.014597205 -0.024382457 -0.08561214
-0.05407451 0.107042134 -0.021776708 0.08049989 -0.03442992 -0.0029076661 0.019230958 -0.124636516
0.050268024 0.10869985 -0.10227263 -0.057519082 0.09346226 0.021968747 -0.065908864 -0.047793847
0.009418071 0.06409163 0.050266717 0.031579867 0.057832006 0.11496172 0.04511769 0.117656186
-0.027216805 -0.11418377 -0.03010749 -0.12411014 -0.11158458 0.10094815 -0.08086202 0.09743398
00000000: 78f1 fd3d 991c 92bd 1f2e b3bc 2258 e9bd
00000010: 5987 8ebb 25c1 a6bd 2150 92bb 4ee3 973d
00000020: daa3 b8bd 0ca3 fb3d 9efa 453d 1258 953b
00000030: 9829 c93d e346 6dbd 41b4 5a3c fcf2 d23d
00000040: 8723 ddbd 9988 513d 4236 fe3d 906d 98bd
00000050: 2916 e9bc ec95 44bd 11c5 003e 3547 2c3b
00000060: 6527 48bd 5bc4 bf3d 905c c23d e6e9 7dbd
00000070: da15 1ebd 627b f5bd b6cc d73c 3e6d dd3d
00000080: e3ea f53c 5b44 8a3d 9346 023e e83d 953d
00000090: acd6 33bd 722e 8cbd c753 f4bd 4e1d 21bd
000000a0: ad2d d8bc 1233 da3d 2e3c e1bd d729 6e3c
000000b0: 9d17 cfbd a869 4cbc 9328 ddbc 07c6 373d
000000c0: aa42 76bc fdd6 5c3b 660e e23d 253b b73d
000000d0: 89d7 533d cc0e 00be 110c e1bc e8e5 81bd
000000e0: 52e4 cc3d 7663 a9bd 59d4 d8bd 60ff 93bd
000000f0: 97c9 e6bd 0a3f f23c 08f9 8fbd 1541 573b
00000100: 068b 493d 06c9 cfbd af0f fe3d 5b69 febc
00000110: 41d6 4cbd d704 e6bc bc95 30bd 5a76 6e3d
00000120: f9ce 8ebd f5a1 a63d e22c 873b e1d5 f2bc
00000130: dc45 c33c 2387 bf3d 6fd9 c23d 077a d63d
00000140: 3e8d 543c 6507 b6bc f9f2 fe3d ed9f 753d
00000150: c030 5ebc cd0c 143d 863e d63d ded9 e0bd
00000160: 532b 85bd cc26 60bd a92d 823b ac7f e8bd
00000170: 9418 823c 2a1e a93d 0a8b e3bd 567f 03bd
00000180: c249 38bd f908 97bd 2227 bc3d 8404 e43d
00000190: efa1 b4bd d577 303d ddd0 bb3c 399d 9ebd
000001a0: f631 e1bd 3a11 cf3d 168c e8bd 862e 583d
000001b0: 4969 d23d c622 f03d b7ee b53b e86d ccbd
000001c0: c8bf 1cbd 8816 f93d 3b64 ae3d 3258 dcbc
000001d0: 6340 8dbd 830d b43d c850 733c 8f57 08bc
000001e0: 6ea5 0dbc 7a3f ebbc 4a00 9abd 5c52 fa3d
000001f0: 1d83 c73d 2684 8fbd 4f25 06bd 0122 563d
00000200: 7bd8 8f3d d55e a4bd b970 9a3d 9038 103b
00000210: 18f0 ad3d ab40 ecbc 687a 43bd 60a3 b63b
00000220: bf51 bdbd c3ca 903c 7761 53bd 7366 f13d
00000230: 2f22 71bd e74b f33d 92f2 c8bd 230c 243c
00000240: d431 c5bd 8012 a1bd f92c debd d377 2abd
00000250: 81c8 b83d e8c5 f33d 0c4e b13d 834c 22bd
00000260: ce96 aa3d dec0 9abc b4d3 d0bd f761 a23d
00000270: 0650 f4bd fd10 db3c 9818 c8bd 37fe 57bc
00000280: da29 3bbc 4014 553b b125 b6bd ce52 7b3d
00000290: 3e70 9f3d 2a36 9fbd 0ab2 68bd a53f eb3d
000002a0: 72b8 9e3d dac6 20bd ff0a f5bd a490 81bd
000002b0: 4046 ec3c 9ee4 bfbd 4754 dbbd 8385 983d
000002c0: 59c7 023e af30 413d 4d8d 01be 3d7c 9a3c
000002d0: 4d5a 07bd 09c2 d9bd 80b1 5cbd bb39 e5bc
000002e0: f015 04bc b997 ed3d 176d 44bd 1147 d8bb
000002f0: d251 93bd 7a74 f43d 72f5 01be 37b8 5b3d
00000300: bed1 f53d 92ef a0bd 7332 e03d 4058 0e3d
00000310: de83 f13d 3e3d 93bc dff7 bcbd 88d6 23bd
00000320: 5ec5 8e3d 81fc 313d dc21 8ebc 135c 0abd
00000330: 84f8 963c f698 0cbd 7f84 dfbd 1bc3 fe3d
00000340: ab77 90bd a9fc cfbd 8129 353d 2247 63bd
00000350: 4561 febd a0a8 ffbc 7c90 0bbd d32a bc3c
00000360: 28f6 9e3c c5f5 ebbd 77de 97bd 4c07 bcbc
00000370: a1b0 483d 1e29 6f3c b8bd c7bc 6b55 afbd
00000380: 3c7d 5dbd e838 db3d 1165 b2bc 20dd a43d
00000390: 6306 0dbd 8b8e 3ebb 3e8a 9d3c 6e41 ffbd
000003a0: d8e5 4d3d 079e de3d 5074 d1bd 2199 6bbd
000003b0: 2469 bf3d cdf7 b33c 3afb 86bd 7bc3 43bd
000003c0: 414e 1a3c 7942 833d 79e4 4d3d e459 013d
000003d0: 41e1 6c3d 0d71 eb3d 54cd 383d baf5 f03d
000003e0: c7f5 debc 2ed9 e9bd fca3 f6bc 752d febd
000003f0: 7586 e4bd e7bd ce3d fd9a a5bd 778b c73d
