BrainGNN_Pytorch/model/0.pth (torch, 189719 bytes, 30 tensors)

n1.0.weight f4 [8, 39]
000000 80 0b 5d 3d 4f 00 c0 3d ac a2 ca bd d9 ba f7 ba
       0.053966045 0.09375059 -0.098943084 -0.001890029
000010 1a 6e 0f be fd 8f b7 3d d8 41 02 3d c6 c6 1f 3e
       -0.14006844 0.089630105 0.031801075 0.1560317
000020 d7 85 e5 bd db 21 10 3e ce f0 2d 3e 54 64 f5 3d
       -0.112071685 0.14075415 0.16986391 0.11982027
000030 6d 36 64 3c 5f a2 05 3e 1e 2d d5 3d 43 fa fc 3d
       0.013928992 0.13050221 0.10408996 0.12352421
000040 a6 b6 27 bc b7 a7 f7 bd b0 82 00 bb 00 7d 3f 3b
       -0.010236418 -0.12092536 -0.0019609146 0.0029218793
000050 c7 d3 db bd 0b 20 b9 bd 1d b4 1a be fb 41 62 bd
       -0.10733753 -0.09039315 -0.1510777 -0.055238705
000060 3b 60 ee 3d be 28 1a 3d c9 b1 1d bc 75 53 2b 3b
       0.11639448 0.03763651 -0.009624907 0.0026142274
000070 fa 54 a5 3d cc 7d 0e be 04 02 f9 bd 10 97 56 bd
       0.080728486 -0.13915175 -0.121585876 -0.05239016
000080 43 bb b9 bd 37 89 cb 3d c3 89 d5 3d 51 8e 1c be
       -0.090689205 0.09938281 0.104266666 -0.15288664
000090 79 f1 08 be b3 22 1d be b7 51 7b 3d ae 4c b6 3d
       -0.13373365 -0.15345268 0.061357226 0.08901344
0000a0 db 37 fa bd cf 67 95 bd a4 92 5a 3c 5a bb d2 bd
       -0.12217685 -0.072951905 0.013340626 -0.10289641
0000b0 b5 86 1b 3e 6c 75 12 3d 27 ae 33 bd ed 68 cd bb
       0.15188105 0.035756513 -0.043867256 -0.0062686116
0000c0 7a f0 a6 3d 8a 3c 64 bd db 0f fa bd ae e2 d0 bb
       0.08151336 -0.055721797 -0.122100554 -0.0063746786
0000d0 96 e8 4a bc 41 93 23 3c fd 60 bc bc 26 6e a0 3d
       -0.012384554 0.009983839 -0.022995466 0.07833509
0000e0 c4 1d 34 bd 60 e5 79 bc 76 3e 84 3d e0 21 cb bd
       -0.0439737 -0.015252441 0.06457226 -0.099185705
0000f0 a1 c4 2a 3d 9a b7 0e bd 72 39 8a 3d 7c 10 af bd
       0.041691426 -0.034843065 0.06749238 -0.08548066
000100 46 08 16 bc 35 b2 c3 bb 77 d4 01 be eb a9 ea bd
       -0.009157246 -0.0059721717 -0.12678705 -0.114581905
000110 aa 62 71 3d 21 dc 3b bd 8d 9c d2 3d dc 66 1f be
       0.058931984 -0.04586423 0.10283766 -0.15566581
000120 af 87 9f bd 04 e8 04 be 9e d8 96 3d 8e b2 95 bb
       -0.077895515 -0.12979132 0.07365535 -0.0045684045
000130 f3 c6 f0 bc 0a c4 d6 bc 16 41 fc bd 53 72 26 3d
       -0.029391741 -0.026216526 -0.12317102 0.04063637
000140 ff 4f 57 3c b2 b6 de bd 08 0d 75 3d 75 90 4f bb
       0.013141631 -0.1087469 0.05982688 -0.0031671796
000150 26 0f 1c be c7 78 99 3d de 9a 9a 3d 22 37 f3 bc
       -0.15240154 0.074937396 0.0754907 -0.029689375
000160 8f d1 de bd 15 31 b2 3c 1e a3 01 3e 6f 55 0c 3e
       -0.10879814 0.02175192 0.1265988 0.13704465
000170 fd 96 f3 bd 4d c3 91 bd 18 41 fe 3d 34 eb 95 3d
       -0.11894033 -0.07117329 0.124147594 0.07320252
000180 ac 1c bc 3d 0c a1 a0 bd 86 3f 0a 3e 1a a6 04 be
       0.09185156 -0.07843217 0.13500795 -0.12953988
000190 ba b8 f8 bb 5f bf b2 3c 09 16 80 3c 0d 85 f3 bd
       -0.0075903805 0.021819768 0.015635507 -0.11890612
0001a0 2a 7f 18 3e fe 94 21 3e 90 df de bd d4 0b 4a bc
       0.14892259 0.15779492 -0.10882485 -0.012331922
0001b0 ac e6 ab bd 42 0a 21 3e d5 31 bc 3d a4 2a bf 3d
       -0.083936065 0.1572657 0.09189192 0.09334305
0001c0 70 21 9b 3d 24 84 80 bc 8a 30 88 3d 74 48 6c 3c
       0.07574737 -0.01568801 0.06649883 0.014421571
0001d0 fa 66 6b bd 00 35 72 3d 23 38 86 3d 43 3e 27 bd
       -0.057471253 0.059132576 0.06553676 -0.04083086
0001e0 16 e3 30 bd 80 b2 0e be 65 ed 30 bd 1a bd 82 bd
       -0.043185316 -0.1393528 -0.043195147 -0.063837245
0001f0 03 e6 af bd 59 be 11 be 1c c3 b1 3d d6 34 10 be
       -0.08588793 -0.14232768 0.08679792 -0.14082655
000200 32 f8 08 3e 36 46 a9 bd e6 73 46 bc 4e bd 09 3e
       0.13375929 -0.08265345 -0.012112593 0.1345112
000210 57 fb 34 3d e2 45 38 bd 7a e7 01 be 2e f2 83 bd
       0.04418501 -0.04498852 -0.12685958 -0.064426765
000220 b5 b2 22 3e 92 b9 73 bd 1e a5 08 3e b2 4f de bc
       0.15888484 -0.059503146 0.13344237 -0.027137611
000230 7e a1 a4 bc 0c 45 99 3d c1 ac bd bc fb f0 ad ba
       -0.020096537 0.07483873 -0.023153665 -0.001327067
000240 ef da c9 3d fc 16 8f 3d 04 88 cd bb a3 10 9d 3d
       0.098562114 0.06986806 -0.006272318 0.07669189
000250 46 42 22 3e 56 79 66 3d ea 46 3d bd 68 ce 5d 3d
       0.15845594 0.05626806 -0.046210207 0.054151922
000260 9b e0 61 bc 8a 4f fc bd 29 39 79 bd e0 1a 79 3d
       -0.01378646 -0.12319858 -0.060845528 0.060816646
000270 c6 00 18 3d 9b 27 7a 3d d3 e3 bc bd e4 b9 1f 3e
       0.037110113 0.061072927 -0.092231415 0.15598255
000280 ba ad 86 bd fe 66 a1 3c fe b0 9d bd 8a a8 9b bd
       -0.065761045 0.01970243 -0.07699774 -0.07600506
000290 8d 70 7d 3d 56 2b 34 bd 40 ae cc bd 08 e9 83 bd
       0.061874915 -0.04398664 -0.09994173 -0.064409316
0002a0 e4 f1 fb 3d 6b 1e d9 3d f1 dd cf 3d fd b6 09 be
       0.12301996 0.10601505 0.10149754 -0.1344871
0002b0 f4 5f d0 3d 5f 9e 15 3d ab ff d8 bd 18 4a 3e bc
       0.101745516 0.036527988 -0.1059564 -0.011614345
0002c0 30 00 45 3c 25 58 ae bd 1d 31 88 bd a4 bd 11 3e
       0.0120239705 -0.08512906 -0.066499926 0.14232498
0002d0 01 95 50 bc 61 25 da ba a0 3f cc bd 83 f9 c0 bd
       -0.012730838 -0.001664322 -0.09973073 -0.094225906
0002e0 a0 f6 15 3e fe 57 98 3d 24 51 cc bc 3c c2 ca 3d
       0.14644861 0.07438658 -0.024941035 0.099003285
0002f0 59 87 99 bd 39 c2 0c be 82 32 20 be 22 89 6c 3d
       -0.07496519 -0.13745965 -0.15644267 0.057747968
000300 ab a7 7b bd 91 bc b9 3d 01 95 07 3e f7 f1 8e 3d
       -0.061439198 0.09069169 0.13240434 0.06979745
000310 cd e1 0f 3e b9 aa 14 bd 3e 94 19 3e 95 e1 99 bd
       0.1405098 -0.036295626 0.14997956 -0.075137295
000320 04 66 a9 bc 78 79 d0 3d 6d 33 a7 bd 35 7b 01 3e
       -0.020678528 0.10179418 -0.081641056 0.12644656
000330 12 79 2e 3d 83 4d 4a bb 3d a3 11 3e d9 70 ee 3d
       0.04259593 -0.0030868954 0.14222427 0.11642618
000340 4f bc 84 bd 9d 5a 15 3c 7b 1d f4 bb 8c 5e c5 3d
       -0.064812295 0.009115842 -0.0074498034 0.09637174
000350 a3 2b a7 3d 9c d0 e1 3d 18 53 d3 3d 64 67 0c be
       0.0816262 0.11026117 0.10318583 -0.13711315
000360 37 7a 9d 3d 6a 65 2b bd 3c 71 d4 3d 09 c6 c4 3d
       0.07689326 -0.041844763 0.1037316 0.09608085
000370 49 a3 bc bd 0c e0 87 bc 9f 5f a2 3c 7c ac 2f 3d
       -0.09210832 -0.016586326 0.019820986 0.042889103
000380 37 72 15 be 47 b8 04 bc 35 04 ba 3d fa 88 d1 3d
       -0.14594351 -0.008100576 0.09082834 0.10231204
000390 92 3b b2 3d 36 c6 91 3c d1 c8 1a be 41 ad f3 3d
       0.087027684 0.01779471 -0.15115668 0.1189828
0003a0 dd 1d fe bd 4c a9 bd bd 45 d8 2b bc 8c 99 87 3d
       -0.1240804 -0.092608064 -0.010488574 0.066210836
0003b0 4b f5 b1 3d f9 48 b5 bc 53 17 a6 bd 93 43 5e bc
       0.08689364 -0.022129523 -0.081099175 -0.013565916
0003c0 28 d1 94 3d 8c 8d b5 bd fd 25 0c be 86 2e 26 3d
       0.07266456 -0.088648885 -0.13686366 0.040571712
0003d0 34 91 d5 bd 00 a1 b5 bd 38 df 14 3e 54 a7 d4 bd
       -0.10428086 -0.08868599 0.14538276 -0.10383478
0003e0 f9 f0 02 be a1 c2 bb 3d 9a ff 99 bd e1 32 b3 3c
       -0.12787236 0.09167982 -0.07519455 0.021874847
0003f0 61 43 13 3e 1c c7 80 bd ed 27 1b 3e a5 f9 04 3e
       0.14381172 -0.06287977 0.15151949 0.12985857

n1.2.weight f4 [1248, 8]
000000 3c ef 51 3e e8 2b 9a 3e 42 17 89 be b7 b2 58 3e
       0.20501417 0.30111623 -0.26775557 0.21161924
000010 bf b6 99 be 3a 1c ba bd 6b d3 0d be 6b 0a a6 be
       -0.30022237 -0.09087415 -0.13850181 -0.32429823
000020 9b d5 a7 be 09 06 ac be 4a c8 89 be 2b 3f 47 be
       -0.32780156 -0.33598354 -0.2691062 -0.1945769
000030 8b 82 ed bd cc 7e 44 3e cd 1c 65 bd 9f 2a b1 be
       -0.11597165 0.19188994 -0.05593567 -0.3460283
000040 80 99 81 be f7 9f 7e 3e 58 48 ae be 3e 41 30 be
       -0.25312424 0.24865709 -0.3403957 -0.17212388
000050 c1 8d a2 be c2 41 3c 3e 7b 71 70 3e c6 3e f1 3c
       -0.31748775 0.1838446 0.2348079 0.029448878
000060 da d1 32 be 21 cb ab bd eb a4 a8 3c 99 0a 16 3e
       -0.17462865 -0.08388353 0.020586452 0.1465248
000070 d8 e7 01 3c 7b 9c 22 be dd 2a 97 3c fe bb 4c 3c
       0.007928811 -0.15880005 0.018453056 0.012495993
000080 0c 14 61 3b 5d 30 1b 3e 41 25 06 be 0c 5b b9 3c
       0.0034344224 0.15155168 -0.13100149 0.022626422
000090 15 4b 1a 3b 59 be 17 3e 6d fe 59 be f0 e6 8a be
       0.0023543288 0.14818706 -0.21288462 -0.27129316
0000a0 e1 23 91 be f6 e2 15 3e 7e c8 8d 3e 07 8e b0 3e
       -0.28347686 0.1463736 0.27692026 0.34483358
0000b0 6a 35 fd 3d 1f f0 92 bd ee f9 82 3d b4 38 b0 be
       0.123637035 -0.07174706 0.063953266 -0.3441826
0000c0 b0 00 22 3d 40 c7 ec bd 5d 7b dc bc ec d6 4b 3e
       0.039551437 -0.115614414 -0.026914293 0.19906205
0000d0 b6 69 f8 bd a5 44 88 be 10 5c 9e 3c 28 ee c8 bd
       -0.12129538 -0.26614872 0.019331008 -0.0981105
0000e0 6c 0c 24 be ec 5a d6 bd 68 56 48 be 8c 97 9d 3e
       -0.16020364 -0.10466561 -0.19564211 0.30779684
0000f0 f1 f3 e0 3c df e7 37 be bf 19 66 3e 82 0a 69 3d
       0.02746007 -0.17959546 0.22470759 0.056894787
000100 ed 9a 4b 3e 11 bd 89 3e 6e e7 af 3e 61 72 b8 bd
       0.19883318 0.2690206 0.34356254 -0.09006191
000110 a8 89 22 3c ba 66 4e be 80 46 a2 3e bd 80 e4 3d
       0.009920515 -0.20156375 0.31694412 0.111573674
000120 41 74 6b bd 7e d8 b1 3d d5 e5 b0 3e a0 e7 10 3e
       -0.057483915 0.08683871 0.34550348 0.14150858
000130 fe 32 2c 3e d2 10 a4 3e 6d ba 64 3c aa 4c bd 3a
       0.16816327 0.32044083 0.013960463 0.0014442403
000140 9e 28 b0 3d 43 aa a4 be 0a b9 f8 3d c7 aa 3f bb
       0.08601497 -0.3216115 0.121446684 -0.0029246078
000150 a5 25 90 bc e6 64 91 3c 3a 77 9d 3e 6f 7e cb 3d
       -0.017596075 0.017748307 0.30755025 0.09936225
000160 b7 d8 a0 be 7b 8d a4 3e ad d5 59 3e 47 e9 33 3e
       -0.3141534 0.3213919 0.21272917 0.17569457
000170 4f 56 15 3e 5c bb 07 3d bf 15 44 be 86 bd 62 3e
       0.14583705 0.033137664 -0.1914892 0.2214261
000180 b2 44 85 be 9e d0 56 be 0c ba 5c 3a dc 27 8a be
       -0.26028973 -0.20978019 0.0008420057 -0.26983535
000190 d4 fe a1 3e b6 e8 b1 3e 65 74 32 3e 64 10 5a 3e
       0.3163973 0.34747857 0.17427213 0.21295315
0001a0 d8 7a ac be 1a f3 99 3e 39 1d 7b 3d 89 71 60 be
       -0.33687472 0.30068284 0.061307166 -0.2191831
0001b0 c7 9a 78 be 8d 39 ad 3d 80 18 57 3e b5 4b bd bd
       -0.24277793 0.084582426 0.2100544 -0.092429556
0001c0 ae 19 ad bd cb 7f 86 bd ca f3 a5 be d4 8e 80 3e
       -0.08452164 -0.06567343 -0.3241256 0.2510897
0001d0 6f 9e e3 bc f6 17 a1 be c9 52 84 be 20 07 e1 3d
       -0.027785508 -0.31463593 -0.2584441 0.10987687
0001e0 ca 3d ab be 24 46 7b 3e 42 6d 93 be c1 a0 41 bc
       -0.3344558 0.24538475 -0.28794295 -0.011818112
0001f0 d2 a0 d0 3d f3 96 28 be 8e e9 67 be b6 32 14 bd
       0.10186924 -0.16463833 -0.22647688 -0.036181174
000200 ee 09 82 3d fd 83 7b bd 27 2a 20 3e f1 e7 3a 3e
       0.0634955 -0.06140517 0.1564108 0.18252541
000210 7e 68 10 3e bd 3f a5 3e 4a a8 57 be 3e 6e 8e be
       0.1410236 0.3227519 -0.21060291 -0.27818483
000220 27 4e ae 3d 13 38 82 3d 72 74 ab 3e d8 96 ac 3e
       0.08511 0.063583516 0.33487278 0.33708835
000230 22 10 17 3e 88 0e 50 3e dc 14 21 3e 36 f9 da bc
       0.14752248 0.20318043 0.15730613 -0.026730161
000240 3c 62 a6 be b9 c2 0c be 0b 87 97 be 0f 06 7e 3e
       -0.32496822 -0.13746156 -0.29595217 0.24806999
000250 f1 e6 3f be 6f 8f 8c be 2a f7 36 bd 94 41 73 3e
       -0.18740441 -0.2745318 -0.044669308 0.23755485
000260 d3 07 1c 3e ef 31 02 3e 96 89 b3 bc e2 e4 a2 be
       0.1523736 0.1271436 -0.021916192 -0.3181525
000270 89 c2 53 be fa 4a 98 be 58 76 d6 bd 73 58 74 3e
       -0.20679678 -0.29744703 -0.10471791 0.23861866
000280 44 60 6b be bd 93 b5 bd 67 ed ae 3e 97 08 76 3e
       -0.22985941 -0.088660695 0.341655 0.24026714
000290 3a 08 04 3e 32 50 66 3e a4 92 8b bd 4e 51 3d be
       0.12893763 0.2249153 -0.06815079 -0.18488047
0002a0 4c 76 33 3e 48 e5 bd 3d be 35 de bd a9 20 89 3e
       0.17525595 0.092722476 -0.10850094 0.2678273
0002b0 13 b1 7e be 8a 34 01 bc 6f ab 90 3e ec 3e e2 3d
       -0.24872236 -0.007886061 0.28255793 0.11047158
0002c0 6c ba 8b be 12 8e 68 3d dd 90 49 bd 41 66 13 3e
       -0.27290666 0.056776114 -0.049210418 0.14394476
0002d0 6d 0c 4b 3e 8e 52 78 be 6c 21 e7 bd 59 b7 94 3e
       0.19828959 -0.24250242 -0.112856716 0.29046133
0002e0 d7 71 81 be b3 f0 9e bd 86 04 ec bd b8 f4 ab bd
       -0.25282165 -0.077607535 -0.115243 -0.08396286
0002f0 fd 59 3a bd 14 74 50 3e f1 f5 5f 3e 49 be fc bd
       -0.045495976 0.2035678 0.21871163 -0.123409815
000300 dc 48 29 3d 93 bd a4 be a1 02 06 be 90 de fd bc
       0.04132925 -0.32175884 -0.1308694 -0.030989915
000310 9e 9a 14 bc ac a3 8d 3d 30 8a b7 3c cf a8 cb bd
       -0.009070067 0.069159836 0.02240476 -0.09944307
000320 95 ee 80 3e fe 81 e9 bd 3a 36 8e 3e b7 af 53 3e
       0.25182024 -0.11401747 0.27775747 0.20672499
000330 e8 16 f2 bb 72 07 04 be e9 bd 5c 3e f7 a3 8b 3b
       -0.0073879845 -0.12893465 0.2155682 0.0042614895
000340 ae 91 41 be d0 3b 41 3e fe 2f cf 3c 84 10 ab 3e
       -0.18903229 0.18870473 0.02529144 0.33411038
000350 9d 30 b0 be f1 d4 a6 3d ad 7c a3 be a6 95 1e be
       -0.3441209 0.08146084 -0.31931058 -0.15486774
000360 20 e3 0e bd 82 e9 8f 3e 4f de 14 be 0f 2f 4f be
       -0.034884572 0.2810784 -0.14537929 -0.20232795
000370 81 d8 ce bc 49 aa 3b bd 4b 17 8e be fa c9 11 3c
       -0.025249721 -0.045816693 -0.27752146 0.008898253
000380 df 65 3c 3e a8 d6 19 be 8a c3 8d be 37 53 7c be
       0.18398236 -0.15023291 -0.27688247 -0.24641119
000390 77 3e 28 3e 18 bd b6 bc f9 5f 80 3e a4 da f9 bc
       0.16430078 -0.022306964 0.2507322 -0.030499764
0003a0 69 05 e2 3b ef 3d 94 3e 8e 6e e9 3d 64 da 7b be
       0.0068976176 0.28953502 0.1139804 -0.24595028
0003b0 81 03 85 3d 9a 07 e2 bb 80 34 68 be 72 51 9a 3e
       0.06494809 -0.006897879 -0.22676277 0.30140263
0003c0 06 4c 23 3e 60 8c 16 be 7c 90 9e be 86 88 16 3e
       0.1594697 -0.14701986 -0.30969608 0.14700517
0003d0 e1 36 9a be ec 9f 8b 3d d4 09 60 be 7f 96 6b 3d
       -0.30119994 0.06817612 -0.21878749 0.05751657
0003e0 27 55 8f 3d 87 93 2d 3e 33 46 d4 bd 9a 51 96 bb
       0.069986634 0.16950808 -0.10364952 -0.0045873644
0003f0 fc 11 3e be 29 c5 e8 3c f3 66 b4 3c 5c b6 9a 3e
       -0.18561548 0.028414326 0.022021746 0.30217254

n1.2.bias f4 [1248]
000000 3e e9 9c 3d 22 ae 79 bc 18 47 ee bd b3 61 2e bd
       0.07661675 -0.01523927 -0.11634654 -0.042573642
000010 f9 43 29 bd 6c d9 16 be 6e 34 b5 3c 86 8c 5f be
       -0.04132459 -0.14731377 0.022119727 -0.21830949
000020 c7 92 ef bb e6 18 71 3e 55 5f a8 be 54 4a 54 3c
       -0.0073111984 0.23544654 -0.32885233 0.012957174
000030 3f f2 3e 3e d9 d9 74 bc 01 93 af 3e 0a 31 36 be
       0.18647097 -0.014944517 0.34291843 -0.17792144
000040 cf 9e 9f 3e 19 d9 e0 bd 0c 78 07 be 8f 66 8f be
       0.3117585 -0.10978908 -0.13229388 -0.28007933
000050 50 ed 65 3d 96 f0 7b be f2 9e 2a be 0d 2c 99 3d
       0.056134522 -0.24603495 -0.16662195 0.07479105
000060 39 a0 72 3e 57 63 d1 3d fb 2f 2c 3e 58 a0 4d 3e
       0.23693933 0.10224026 0.16815178 0.20080698
000070 80 82 b2 be ca 1a 7b 3e b1 6c d9 bb 61 35 fc bc
       -0.3486519 0.24521938 -0.0066352715 -0.030787172
000080 ad ec 88 3e c7 c9 ad 3d c9 60 6a be 79 1a 31 be
       0.2674307 0.084857516 -0.22888483 -0.17295255
000090 c9 a6 86 3e 24 0d 95 3e 0c 3e a8 be d5 18 e6 3d
       0.26299122 0.29111588 -0.32859838 0.11235205
0000a0 dd 2f 27 3e 30 70 1d 3e f3 c6 f1 3d 33 63 dc bd
       0.16326852 0.15374827 0.11805525 -0.10761108
0000b0 a4 e2 26 3d 90 45 34 3e 87 32 f5 bc 0e 8f 62 bd
       0.040743485 0.17604661 -0.02993132 -0.05531221
0000c0 22 a2 59 be ce dd 97 be 11 f4 08 3d 8b 51 d3 3b
       -0.21253255 -0.2966141 0.033435885 0.0064489297
0000d0 b0 09 88 3e bc 86 4c be 06 6c 59 bc a4 18 6f be
       0.2656989 -0.19973272 -0.013270384 -0.23349243
0000e0 23 52 39 3d 6b b0 1f be f5 2d ca 3c ec e7 81 bd
       0.045244347 -0.15594642 0.024680117 -0.06343064
0000f0 27 7b 82 be 81 e2 22 be 72 2f 57 3e 37 cc 4a 3e
       -0.25484583 -0.15906717 0.21014193 0.19804464
000100 54 57 ef bd dc 3b 4b bc 28 1b 52 3e d7 3d 8f 3e
       -0.116865784 -0.012404408 0.20518172 0.27976868
000110 8e f3 e4 bc a0 dd 34 be 12 9e 57 3e ac 04 67 be
       -0.027948167 -0.17662668 0.21056393 -0.22560376
000120 94 91 97 be 11 76 62 be 03 26 2d be 1e e7 c7 bb
       -0.29603255 -0.22115351 -0.16909032 -0.0061005494
000130 48 ac 40 3e 98 6c 84 3d 07 81 40 3e 20 81 03 3d
       0.1881572 0.06466025 0.1879922 0.032105565
000140 8d 72 09 be b8 15 a4 be 9f 30 1f be c7 0c b3 be
       -0.13422604 -0.3204782 -0.15545891 -0.34970686
000150 87 f9 d9 3d 07 64 8e 3e 70 4f 45 3d 53 60 63 3e
       0.10643297 0.2781069 0.04817146 0.22204714
000160 f4 03 73 be ac a3 89 3e c4 ed 98 3e a4 08 9e 3e
       -0.23731977 0.26882684 0.298689 0.30865967
000170 a5 d4 08 3e 83 e9 a6 3c 90 02 4f 3e d7 d8 ac 3e
       0.13362367 0.020375019 0.20215821 0.33759186
000180 2c 07 f0 3d ae 2e c9 3d 2c bb 7c 3d 26 c8 87 3e
       0.11720118 0.098233566 0.06170194 0.2651989
000190 54 22 4e bd 72 6c d6 bd ae fe 56 be c6 63 96 3d
       -0.050325707 -0.10469903 -0.2099559 0.07343249
0001a0 72 be ab bd 7f 18 9b be 03 25 e3 bd 4b 0c 46 3e
       -0.08385934 -0.30292127 -0.11091044 0.19340627
0001b0 f6 a5 3b 3d d2 52 a3 be 21 5d 9c 3e f6 00 b2 3d
       0.04581257 -0.31899124 0.30539802 0.086915895
0001c0 94 47 0f 3e 8d 91 8d 3e c6 2e 94 be 2b 78 84 3e
       0.13992149 0.2765011 -0.28941935 0.2587293
0001d0 a9 e5 33 bd 1d 88 35 be 75 c9 7d be 1f 47 6f 3e
       -0.043920193 -0.17727704 -0.24783881 0.23366974
0001e0 de 87 99 3e 2c a1 26 3e 9d 9d b4 bd c1 6d a2 3d
       0.2998647 0.1627242 -0.08819125 0.0793109
0001f0 b0 55 9e 3a 5b 2a b4 bd 71 7b a9 3a 45 0a 86 3e
       0.001207998 -0.08797141 0.0012930465 0.2617971
000200 9e 91 9c 3c c1 9a 61 be 6a 51 e2 bb 31 37 70 bd
       0.019112404 -0.2203169 -0.006906678 -0.058646385
000210 0d bf 18 be f3 ca a7 3e b4 af a6 3d 28 fa 5d be
       -0.1491663 0.32772025 0.081389815 -0.21677458
000220 ee 6c b2 bd ad 4d 0d bd d8 d8 8c 3d b1 84 d5 bd
       -0.08712183 -0.034497906 0.06877297 -0.104256995
000230 07 23 6a 3d 19 a8 a6 3e 3f 22 11 bd 35 a0 9f be
       0.05716231 0.32550123 -0.03543305 -0.31176916
000240 14 bd 4f 3e e1 be e6 bc 0b d0 90 3d 06 5b 2f be
       0.20286971 -0.02816719 0.07070931 -0.17124566
000250 86 6e 49 be 81 de 8e 3d fe f4 2a 3e e9 0f 24 3d
       -0.19671068 0.06976033 0.1669502 0.040054236
000260 f3 22 7e 3e ea 73 88 bc 32 9d 87 bd c1 c7 8d 3e
       0.2481802 -0.016656835 -0.066217795 0.27691463
000270 e0 7d 79 bd 99 7f d7 3d 66 42 29 bd 78 54 ad be
       -0.06091106 0.10522384 -0.041323088 -0.33853507
000280 1a 93 1a 3e 60 73 d2 bd 4b 6e 37 be 1b f7 7d be
       0.15095177 -0.10275912 -0.17913167 -0.24801295
000290 02 28 8f be b9 04 64 3e 61 13 43 3e fc f4 8d be
       -0.2796021 0.22267427 0.19050361 -0.2772597
0002a0 59 a6 61 be c4 e8 99 be 1e fb 05 3e c6 a4 29 3e
       -0.22036113 -0.300604 0.13084075 0.16566762
0002b0 16 5b 91 3e 44 ae 32 3e c1 60 91 be c7 8d 90 be
       0.28389806 0.1744929 -0.2839413 -0.28233168
0002c0 fa ca 83 3e f9 65 c4 bd 86 f8 9e 3e 27 b5 bf 3d
       0.25740796 -0.09589762 0.31048983 0.09360724
0002d0 1f 82 7a 3e 9d 89 89 be d3 be 40 3e 12 d5 88 3e
       0.244637 -0.26862803 0.18822794 0.2672506
0002e0 5e 96 b5 3e 99 2e a1 be e5 00 60 3d 03 82 b1 be
       0.35466284 -0.31480864 0.054688353 -0.34669504
0002f0 f4 9c 11 3e 15 4e 04 3e 54 7b a4 bd 15 8f 88 3e
       0.14220029 0.12920411 -0.080313355 0.26671663
000300 74 d1 9b 3c ef 65 b6 bd e6 ee a1 be d0 54 8d 3d
       0.019020773 -0.08906161 -0.31627578 0.06900942
000310 a7 2e 74 bc c5 f7 7b be 81 6a 06 be 17 81 94 3e
       -0.014903701 -0.24606235 -0.13126566 0.29004738
000320 d0 86 a1 3e a6 ac 9a 3e e3 36 42 3e 51 61 a2 3e
       0.31548166 0.30209845 0.1896625 0.31714872
000330 3e d1 4e be 0a c1 fd bd 23 41 da bd 18 ef 78 3d
       -0.20197007 -0.12390335 -0.10656955 0.060774893
000340 6a 16 b7 3d cc e4 2e bc 88 9b b8 3d 90 5a 7a be
       0.08939822 -0.010674667 0.0901404 -0.2444861
000350 71 c7 92 be 93 96 da 3c a9 50 54 be 00 37 7b be
       -0.28667787 0.026683128 -0.20733894 -0.245327
000360 3f 12 4d 3e f9 35 a6 3e 26 5c b3 bd 13 64 46 3e
       0.20026492 0.32463053 -0.0875781 0.19374113
000370 60 77 78 3d b6 f2 82 bd 16 b4 08 3e 0b 61 dc 3d
       0.06066072 -0.0639395 0.13349947 0.10760697
000380 45 5a 30 3e ac 37 5f 3d f6 24 5a 3e 9b 11 9a 3e
       0.17221935 0.054496452 0.21303162 0.30091557
000390 97 f2 7d 3d 11 65 13 3e b6 4c 5c 3e b4 34 44 be
       0.06199893 0.14394023 0.21513638 -0.1916073
0003a0 d8 45 9a be 35 9c 45 3e 95 45 05 be 1e f6 9f bd
       -0.30131412 0.1929787 -0.13014825 -0.07810615
0003b0 a0 38 8b be 86 2f 5a bd 78 23 38 be 61 8e af 3e
       -0.2719164 -0.053267978 -0.1798228 0.34288314
0003c0 f1 30 45 bd f6 ce 2e 3d 47 20 90 3e f3 f5 89 3e
       -0.048142377 0.042677842 0.28149626 0.26945457
0003d0 be 53 7f 3e ef 22 3c 3e d0 0c 08 be 0c 5c 8e be
       0.24934289 0.18372701 -0.13286138 -0.278046
0003e0 5b 18 d7 3d 50 4b 1c be 9c 5b 8a bc 84 18 97 3d
       0.10502692 -0.15263104 -0.016889386 0.07377723
0003f0 8a 4a b5 3e c0 6b 1a be 17 c9 3f 3e 20 60 3b 3e
       0.3540843 -0.15080166 0.18729053 0.18298388

conv1.bias f4 [32]
000000 aa 7f 9d 3c 3b 1f 1f be 2b 01 bb 3b 83 51 02 3e
       0.019225914 -0.15539257 0.0057069263 0.12726407
000010 84 0e 07 be ba 87 5e bd ba 05 a0 bd de 49 22 bd
       -0.13189131 -0.054328658 -0.07813592 -0.039621226
000020 9e a3 08 3e 9c 21 09 3e 90 92 f5 bd ad 9d 03 3d
       0.13343665 0.13391727 -0.11990845 0.032132793
000030 ac 3c 26 3d 92 07 af bd 10 c7 da bd dd b9 00 3e
       0.040585205 -0.08546366 -0.106824994 0.12570901
000040 69 8f 0d be 68 1f 58 3d 49 d8 0d 3e 96 68 f6 3d
       -0.13824238 0.052764326 0.13852037 0.12031667
000050 fc eb ea 3c 47 24 f8 bd eb f7 be bc 4f 2e 34 3e
       0.02867698 -0.12116294 -0.023311576 0.1759579
000060 6e 64 22 3e 70 b6 f6 bc 73 cd d1 bd 33 bc b8 3d
       0.15858623 -0.03011629 -0.102442645 0.09020271
000070 b7 4b f6 3c 39 5b 0e 3d 30 2d 45 bc 4c 61 ff bc
       0.0300654 0.034754965 -0.012034699 -0.031174324

conv1.nn.0.weight f4 [8, 39]
000000 80 0b 5d 3d 4f 00 c0 3d ac a2 ca bd d9 ba f7 ba
       0.053966045 0.09375059 -0.098943084 -0.001890029
000010 1a 6e 0f be fd 8f b7 3d d8 41 02 3d c6 c6 1f 3e
       -0.14006844 0.089630105 0.031801075 0.1560317
000020 d7 85 e5 bd db 21 10 3e ce f0 2d 3e 54 64 f5 3d
       -0.112071685 0.14075415 0.16986391 0.11982027
000030 6d 36 64 3c 5f a2 05 3e 1e 2d d5 3d 43 fa fc 3d
       0.013928992 0.13050221 0.10408996 0.12352421
000040 a6 b6 27 bc b7 a7 f7 bd b0 82 00 bb 00 7d 3f 3b
       -0.010236418 -0.12092536 -0.0019609146 0.0029218793
000050 c7 d3 db bd 0b 20 b9 bd 1d b4 1a be fb 41 62 bd
       -0.10733753 -0.09039315 -0.1510777 -0.055238705
000060 3b 60 ee 3d be 28 1a 3d c9 b1 1d bc 75 53 2b 3b
       0.11639448 0.03763651 -0.009624907 0.0026142274
000070 fa 54 a5 3d cc 7d 0e be 04 02 f9 bd 10 97 56 bd
       0.080728486 -0.13915175 -0.121585876 -0.05239016
000080 43 bb b9 bd 37 89 cb 3d c3 89 d5 3d 51 8e 1c be
       -0.090689205 0.09938281 0.104266666 -0.15288664
000090 79 f1 08 be b3 22 1d be b7 51 7b 3d ae 4c b6 3d
       -0.13373365 -0.15345268 0.061357226 0.08901344
0000a0 db 37 fa bd cf 67 95 bd a4 92 5a 3c 5a bb d2 bd
       -0.12217685 -0.072951905 0.013340626 -0.10289641
0000b0 b5 86 1b 3e 6c 75 12 3d 27 ae 33 bd ed 68 cd bb
       0.15188105 0.035756513 -0.043867256 -0.0062686116
0000c0 7a f0 a6 3d 8a 3c 64 bd db 0f fa bd ae e2 d0 bb
       0.08151336 -0.055721797 -0.122100554 -0.0063746786
0000d0 96 e8 4a bc 41 93 23 3c fd 60 bc bc 26 6e a0 3d
       -0.012384554 0.009983839 -0.022995466 0.07833509
0000e0 c4 1d 34 bd 60 e5 79 bc 76 3e 84 3d e0 21 cb bd
       -0.0439737 -0.015252441 0.06457226 -0.099185705
0000f0 a1 c4 2a 3d 9a b7 0e bd 72 39 8a 3d 7c 10 af bd
       0.041691426 -0.034843065 0.06749238 -0.08548066
000100 46 08 16 bc 35 b2 c3 bb 77 d4 01 be eb a9 ea bd
       -0.009157246 -0.0059721717 -0.12678705 -0.114581905
000110 aa 62 71 3d 21 dc 3b bd 8d 9c d2 3d dc 66 1f be
       0.058931984 -0.04586423 0.10283766 -0.15566581
000120 af 87 9f bd 04 e8 04 be 9e d8 96 3d 8e b2 95 bb
       -0.077895515 -0.12979132 0.07365535 -0.0045684045
000130 f3 c6 f0 bc 0a c4 d6 bc 16 41 fc bd 53 72 26 3d
       -0.029391741 -0.026216526 -0.12317102 0.04063637
000140 ff 4f 57 3c b2 b6 de bd 08 0d 75 3d 75 90 4f bb
       0.013141631 -0.1087469 0.05982688 -0.0031671796
000150 26 0f 1c be c7 78 99 3d de 9a 9a 3d 22 37 f3 bc
       -0.15240154 0.074937396 0.0754907 -0.029689375
000160 8f d1 de bd 15 31 b2 3c 1e a3 01 3e 6f 55 0c 3e
       -0.10879814 0.02175192 0.1265988 0.13704465
000170 fd 96 f3 bd 4d c3 91 bd 18 41 fe 3d 34 eb 95 3d
       -0.11894033 -0.07117329 0.124147594 0.07320252
000180 ac 1c bc 3d 0c a1 a0 bd 86 3f 0a 3e 1a a6 04 be
       0.09185156 -0.07843217 0.13500795 -0.12953988
000190 ba b8 f8 bb 5f bf b2 3c 09 16 80 3c 0d 85 f3 bd
       -0.0075903805 0.021819768 0.015635507 -0.11890612
0001a0 2a 7f 18 3e fe 94 21 3e 90 df de bd d4 0b 4a bc
       0.14892259 0.15779492 -0.10882485 -0.012331922
0001b0 ac e6 ab bd 42 0a 21 3e d5 31 bc 3d a4 2a bf 3d
       -0.083936065 0.1572657 0.09189192 0.09334305
0001c0 70 21 9b 3d 24 84 80 bc 8a 30 88 3d 74 48 6c 3c
       0.07574737 -0.01568801 0.06649883 0.014421571
0001d0 fa 66 6b bd 00 35 72 3d 23 38 86 3d 43 3e 27 bd
       -0.057471253 0.059132576 0.06553676 -0.04083086
0001e0 16 e3 30 bd 80 b2 0e be 65 ed 30 bd 1a bd 82 bd
       -0.043185316 -0.1393528 -0.043195147 -0.063837245
0001f0 03 e6 af bd 59 be 11 be 1c c3 b1 3d d6 34 10 be
       -0.08588793 -0.14232768 0.08679792 -0.14082655
000200 32 f8 08 3e 36 46 a9 bd e6 73 46 bc 4e bd 09 3e
       0.13375929 -0.08265345 -0.012112593 0.1345112
000210 57 fb 34 3d e2 45 38 bd 7a e7 01 be 2e f2 83 bd
       0.04418501 -0.04498852 -0.12685958 -0.064426765
000220 b5 b2 22 3e 92 b9 73 bd 1e a5 08 3e b2 4f de bc
       0.15888484 -0.059503146 0.13344237 -0.027137611
000230 7e a1 a4 bc 0c 45 99 3d c1 ac bd bc fb f0 ad ba
       -0.020096537 0.07483873 -0.023153665 -0.001327067
000240 ef da c9 3d fc 16 8f 3d 04 88 cd bb a3 10 9d 3d
       0.098562114 0.06986806 -0.006272318 0.07669189
000250 46 42 22 3e 56 79 66 3d ea 46 3d bd 68 ce 5d 3d
       0.15845594 0.05626806 -0.046210207 0.054151922
000260 9b e0 61 bc 8a 4f fc bd 29 39 79 bd e0 1a 79 3d
       -0.01378646 -0.12319858 -0.060845528 0.060816646
000270 c6 00 18 3d 9b 27 7a 3d d3 e3 bc bd e4 b9 1f 3e
       0.037110113 0.061072927 -0.092231415 0.15598255
000280 ba ad 86 bd fe 66 a1 3c fe b0 9d bd 8a a8 9b bd
       -0.065761045 0.01970243 -0.07699774 -0.07600506
000290 8d 70 7d 3d 56 2b 34 bd 40 ae cc bd 08 e9 83 bd
       0.061874915 -0.04398664 -0.09994173 -0.064409316
0002a0 e4 f1 fb 3d 6b 1e d9 3d f1 dd cf 3d fd b6 09 be
       0.12301996 0.10601505 0.10149754 -0.1344871
0002b0 f4 5f d0 3d 5f 9e 15 3d ab ff d8 bd 18 4a 3e bc
       0.101745516 0.036527988 -0.1059564 -0.011614345
0002c0 30 00 45 3c 25 58 ae bd 1d 31 88 bd a4 bd 11 3e
       0.0120239705 -0.08512906 -0.066499926 0.14232498
0002d0 01 95 50 bc 61 25 da ba a0 3f cc bd 83 f9 c0 bd
       -0.012730838 -0.001664322 -0.09973073 -0.094225906
0002e0 a0 f6 15 3e fe 57 98 3d 24 51 cc bc 3c c2 ca 3d
       0.14644861 0.07438658 -0.024941035 0.099003285
0002f0 59 87 99 bd 39 c2 0c be 82 32 20 be 22 89 6c 3d
       -0.07496519 -0.13745965 -0.15644267 0.057747968
000300 ab a7 7b bd 91 bc b9 3d 01 95 07 3e f7 f1 8e 3d
       -0.061439198 0.09069169 0.13240434 0.06979745
000310 cd e1 0f 3e b9 aa 14 bd 3e 94 19 3e 95 e1 99 bd
       0.1405098 -0.036295626 0.14997956 -0.075137295
000320 04 66 a9 bc 78 79 d0 3d 6d 33 a7 bd 35 7b 01 3e
       -0.020678528 0.10179418 -0.081641056 0.12644656
000330 12 79 2e 3d 83 4d 4a bb 3d a3 11 3e d9 70 ee 3d
       0.04259593 -0.0030868954 0.14222427 0.11642618
000340 4f bc 84 bd 9d 5a 15 3c 7b 1d f4 bb 8c 5e c5 3d
       -0.064812295 0.009115842 -0.0074498034 0.09637174
000350 a3 2b a7 3d 9c d0 e1 3d 18 53 d3 3d 64 67 0c be
       0.0816262 0.11026117 0.10318583 -0.13711315
000360 37 7a 9d 3d 6a 65 2b bd 3c 71 d4 3d 09 c6 c4 3d
       0.07689326 -0.041844763 0.1037316 0.09608085
000370 49 a3 bc bd 0c e0 87 bc 9f 5f a2 3c 7c ac 2f 3d
       -0.09210832 -0.016586326 0.019820986 0.042889103
000380 37 72 15 be 47 b8 04 bc 35 04 ba 3d fa 88 d1 3d
       -0.14594351 -0.008100576 0.09082834 0.10231204
000390 92 3b b2 3d 36 c6 91 3c d1 c8 1a be 41 ad f3 3d
       0.087027684 0.01779471 -0.15115668 0.1189828
0003a0 dd 1d fe bd 4c a9 bd bd 45 d8 2b bc 8c 99 87 3d
       -0.1240804 -0.092608064 -0.010488574 0.066210836
0003b0 4b f5 b1 3d f9 48 b5 bc 53 17 a6 bd 93 43 5e bc
       0.08689364 -0.022129523 -0.081099175 -0.013565916
0003c0 28 d1 94 3d 8c 8d b5 bd fd 25 0c be 86 2e 26 3d
       0.07266456 -0.088648885 -0.13686366 0.040571712
0003d0 34 91 d5 bd 00 a1 b5 bd 38 df 14 3e 54 a7 d4 bd
       -0.10428086 -0.08868599 0.14538276 -0.10383478
0003e0 f9 f0 02 be a1 c2 bb 3d 9a ff 99 bd e1 32 b3 3c
       -0.12787236 0.09167982 -0.07519455 0.021874847
0003f0 61 43 13 3e 1c c7 80 bd ed 27 1b 3e a5 f9 04 3e
       0.14381172 -0.06287977 0.15151949 0.12985857

conv1.nn.2.weight f4 [1248, 8]
000000 3c ef 51 3e e8 2b 9a 3e 42 17 89 be b7 b2 58 3e
       0.20501417 0.30111623 -0.26775557 0.21161924
000010 bf b6 99 be 3a 1c ba bd 6b d3 0d be 6b 0a a6 be
       -0.30022237 -0.09087415 -0.13850181 -0.32429823
000020 9b d5 a7 be 09 06 ac be 4a c8 89 be 2b 3f 47 be
       -0.32780156 -0.33598354 -0.2691062 -0.1945769
000030 8b 82 ed bd cc 7e 44 3e cd 1c 65 bd 9f 2a b1 be
       -0.11597165 0.19188994 -0.05593567 -0.3460283
000040 80 99 81 be f7 9f 7e 3e 58 48 ae be 3e 41 30 be
       -0.25312424 0.24865709 -0.3403957 -0.17212388
000050 c1 8d a2 be c2 41 3c 3e 7b 71 70 3e c6 3e f1 3c
       -0.31748775 0.1838446 0.2348079 0.029448878
000060 da d1 32 be 21 cb ab bd eb a4 a8 3c 99 0a 16 3e
       -0.17462865 -0.08388353 0.020586452 0.1465248
000070 d8 e7 01 3c 7b 9c 22 be dd 2a 97 3c fe bb 4c 3c
       0.007928811 -0.15880005 0.018453056 0.012495993
000080 0c 14 61 3b 5d 30 1b 3e 41 25 06 be 0c 5b b9 3c
       0.0034344224 0.15155168 -0.13100149 0.022626422
000090 15 4b 1a 3b 59 be 17 3e 6d fe 59 be f0 e6 8a be
       0.0023543288 0.14818706 -0.21288462 -0.27129316
0000a0 e1 23 91 be f6 e2 15 3e 7e c8 8d 3e 07 8e b0 3e
       -0.28347686 0.1463736 0.27692026 0.34483358
0000b0 6a 35 fd 3d 1f f0 92 bd ee f9 82 3d b4 38 b0 be
       0.123637035 -0.07174706 0.063953266 -0.3441826
0000c0 b0 00 22 3d 40 c7 ec bd 5d 7b dc bc ec d6 4b 3e
       0.039551437 -0.115614414 -0.026914293 0.19906205
0000d0 b6 69 f8 bd a5 44 88 be 10 5c 9e 3c 28 ee c8 bd
       -0.12129538 -0.26614872 0.019331008 -0.0981105
0000e0 6c 0c 24 be ec 5a d6 bd 68 56 48 be 8c 97 9d 3e
       -0.16020364 -0.10466561 -0.19564211 0.30779684
0000f0 f1 f3 e0 3c df e7 37 be bf 19 66 3e 82 0a 69 3d
       0.02746007 -0.17959546 0.22470759 0.056894787
000100 ed 9a 4b 3e 11 bd 89 3e 6e e7 af 3e 61 72 b8 bd
       0.19883318 0.2690206 0.34356254 -0.09006191
000110 a8 89 22 3c ba 66 4e be 80 46 a2 3e bd 80 e4 3d
       0.009920515 -0.20156375 0.31694412 0.111573674
000120 41 74 6b bd 7e d8 b1 3d d5 e5 b0 3e a0 e7 10 3e
       -0.057483915 0.08683871 0.34550348 0.14150858
000130 fe 32 2c 3e d2 10 a4 3e 6d ba 64 3c aa 4c bd 3a
       0.16816327 0.32044083 0.013960463 0.0014442403
000140 9e 28 b0 3d 43 aa a4 be 0a b9 f8 3d c7 aa 3f bb
       0.08601497 -0.3216115 0.121446684 -0.0029246078
000150 a5 25 90 bc e6 64 91 3c 3a 77 9d 3e 6f 7e cb 3d
       -0.017596075 0.017748307 0.30755025 0.09936225
000160 b7 d8 a0 be 7b 8d a4 3e ad d5 59 3e 47 e9 33 3e
       -0.3141534 0.3213919 0.21272917 0.17569457
000170 4f 56 15 3e 5c bb 07 3d bf 15 44 be 86 bd 62 3e
       0.14583705 0.033137664 -0.1914892 0.2214261
000180 b2 44 85 be 9e d0 56 be 0c ba 5c 3a dc 27 8a be
       -0.26028973 -0.20978019 0.0008420057 -0.26983535
000190 d4 fe a1 3e b6 e8 b1 3e 65 74 32 3e 64 10 5a 3e
       0.3163973 0.34747857 0.17427213 0.21295315
0001a0 d8 7a ac be 1a f3 99 3e 39 1d 7b 3d 89 71 60 be
       -0.33687472 0.30068284 0.061307166 -0.2191831
0001b0 c7 9a 78 be 8d 39 ad 3d 80 18 57 3e b5 4b bd bd
       -0.24277793 0.084582426 0.2100544 -0.092429556
0001c0 ae 19 ad bd cb 7f 86 bd ca f3 a5 be d4 8e 80 3e
       -0.08452164 -0.06567343 -0.3241256 0.2510897
0001d0 6f 9e e3 bc f6 17 a1 be c9 52 84 be 20 07 e1 3d
       -0.027785508 -0.31463593 -0.2584441 0.10987687
0001e0 ca 3d ab be 24 46 7b 3e 42 6d 93 be c1 a0 41 bc
       -0.3344558 0.24538475 -0.28794295 -0.011818112
0001f0 d2 a0 d0 3d f3 96 28 be 8e e9 67 be b6 32 14 bd
       0.10186924 -0.16463833 -0.22647688 -0.036181174
000200 ee 09 82 3d fd 83 7b bd 27 2a 20 3e f1 e7 3a 3e
       0.0634955 -0.06140517 0.1564108 0.18252541
000210 7e 68 10 3e bd 3f a5 3e 4a a8 57 be 3e 6e 8e be
       0.1410236 0.3227519 -0.21060291 -0.27818483
000220 27 4e ae 3d 13 38 82 3d 72 74 ab 3e d8 96 ac 3e
       0.08511 0.063583516 0.33487278 0.33708835
000230 22 10 17 3e 88 0e 50 3e dc 14 21 3e 36 f9 da bc
       0.14752248 0.20318043 0.15730613 -0.026730161
000240 3c 62 a6 be b9 c2 0c be 0b 87 97 be 0f 06 7e 3e
       -0.32496822 -0.13746156 -0.29595217 0.24806999
000250 f1 e6 3f be 6f 8f 8c be 2a f7 36 bd 94 41 73 3e
       -0.18740441 -0.2745318 -0.044669308 0.23755485
000260 d3 07 1c 3e ef 31 02 3e 96 89 b3 bc e2 e4 a2 be
       0.1523736 0.1271436 -0.021916192 -0.3181525
000270 89 c2 53 be fa 4a 98 be 58 76 d6 bd 73 58 74 3e
       -0.20679678 -0.29744703 -0.10471791 0.23861866
000280 44 60 6b be bd 93 b5 bd 67 ed ae 3e 97 08 76 3e
       -0.22985941 -0.088660695 0.341655 0.24026714
000290 3a 08 04 3e 32 50 66 3e a4 92 8b bd 4e 51 3d be
       0.12893763 0.2249153 -0.06815079 -0.18488047
0002a0 4c 76 33 3e 48 e5 bd 3d be 35 de bd a9 20 89 3e
       0.17525595 0.092722476 -0.10850094 0.2678273
0002b0 13 b1 7e be 8a 34 01 bc 6f ab 90 3e ec 3e e2 3d
       -0.24872236 -0.007886061 0.28255793 0.11047158
0002c0 6c ba 8b be 12 8e 68 3d dd 90 49 bd 41 66 13 3e
       -0.27290666 0.056776114 -0.049210418 0.14394476
0002d0 6d 0c 4b 3e 8e 52 78 be 6c 21 e7 bd 59 b7 94 3e
       0.19828959 -0.24250242 -0.112856716 0.29046133
0002e0 d7 71 81 be b3 f0 9e bd 86 04 ec bd b8 f4 ab bd
       -0.25282165 -0.077607535 -0.115243 -0.08396286
0002f0 fd 59 3a bd 14 74 50 3e f1 f5 5f 3e 49 be fc bd
       -0.045495976 0.2035678 0.21871163 -0.123409815
000300 dc 48 29 3d 93 bd a4 be a1 02 06 be 90 de fd bc
       0.04132925 -0.32175884 -0.1308694 -0.030989915
000310 9e 9a 14 bc ac a3 8d 3d 30 8a b7 3c cf a8 cb bd
       -0.009070067 0.069159836 0.02240476 -0.09944307
000320 95 ee 80 3e fe 81 e9 bd 3a 36 8e 3e b7 af 53 3e
       0.25182024 -0.11401747 0.27775747 0.20672499
000330 e8 16 f2 bb 72 07 04 be e9 bd 5c 3e f7 a3 8b 3b
       -0.0073879845 -0.12893465 0.2155682 0.0042614895
000340 ae 91 41 be d0 3b 41 3e fe 2f cf 3c 84 10 ab 3e
       -0.18903229 0.18870473 0.02529144 0.33411038
000350 9d 30 b0 be f1 d4 a6 3d ad 7c a3 be a6 95 1e be
       -0.3441209 0.08146084 -0.31931058 -0.15486774
000360 20 e3 0e bd 82 e9 8f 3e 4f de 14 be 0f 2f 4f be
       -0.034884572 0.2810784 -0.14537929 -0.20232795
000370 81 d8 ce bc 49 aa 3b bd 4b 17 8e be fa c9 11 3c
       -0.025249721 -0.045816693 -0.27752146 0.008898253
000380 df 65 3c 3e a8 d6 19 be 8a c3 8d be 37 53 7c be
       0.18398236 -0.15023291 -0.27688247 -0.24641119
000390 77 3e 28 3e 18 bd b6 bc f9 5f 80 3e a4 da f9 bc
       0.16430078 -0.022306964 0.2507322 -0.030499764
0003a0 69 05 e2 3b ef 3d 94 3e 8e 6e e9 3d 64 da 7b be
       0.0068976176 0.28953502 0.1139804 -0.24595028
0003b0 81 03 85 3d 9a 07 e2 bb 80 34 68 be 72 51 9a 3e
       0.06494809 -0.006897879 -0.22676277 0.30140263
0003c0 06 4c 23 3e 60 8c 16 be 7c 90 9e be 86 88 16 3e
       0.1594697 -0.14701986 -0.30969608 0.14700517
0003d0 e1 36 9a be ec 9f 8b 3d d4 09 60 be 7f 96 6b 3d
       -0.30119994 0.06817612 -0.21878749 0.05751657
0003e0 27 55 8f 3d 87 93 2d 3e 33 46 d4 bd 9a 51 96 bb
       0.069986634 0.16950808 -0.10364952 -0.0045873644
0003f0 fc 11 3e be 29 c5 e8 3c f3 66 b4 3c 5c b6 9a 3e
       -0.18561548 0.028414326 0.022021746 0.30217254

conv1.nn.2.bias f4 [1248]
000000 3e e9 9c 3d 22 ae 79 bc 18 47 ee bd b3 61 2e bd
       0.07661675 -0.01523927 -0.11634654 -0.042573642
000010 f9 43 29 bd 6c d9 16 be 6e 34 b5 3c 86 8c 5f be
       -0.04132459 -0.14731377 0.022119727 -0.21830949
000020 c7 92 ef bb e6 18 71 3e 55 5f a8 be 54 4a 54 3c
       -0.0073111984 0.23544654 -0.32885233 0.012957174
000030 3f f2 3e 3e d9 d9 74 bc 01 93 af 3e 0a 31 36 be
       0.18647097 -0.014944517 0.34291843 -0.17792144
000040 cf 9e 9f 3e 19 d9 e0 bd 0c 78 07 be 8f 66 8f be
       0.3117585 -0.10978908 -0.13229388 -0.28007933
000050 50 ed 65 3d 96 f0 7b be f2 9e 2a be 0d 2c 99 3d
       0.056134522 -0.24603495 -0.16662195 0.07479105
000060 39 a0 72 3e 57 63 d1 3d fb 2f 2c 3e 58 a0 4d 3e
       0.23693933 0.10224026 0.16815178 0.20080698
000070 80 82 b2 be ca 1a 7b 3e b1 6c d9 bb 61 35 fc bc
       -0.3486519 0.24521938 -0.0066352715 -0.030787172
000080 ad ec 88 3e c7 c9 ad 3d c9 60 6a be 79 1a 31 be
       0.2674307 0.084857516 -0.22888483 -0.17295255
000090 c9 a6 86 3e 24 0d 95 3e 0c 3e a8 be d5 18 e6 3d
       0.26299122 0.29111588 -0.32859838 0.11235205
0000a0 dd 2f 27 3e 30 70 1d 3e f3 c6 f1 3d 33 63 dc bd
       0.16326852 0.15374827 0.11805525 -0.10761108
0000b0 a4 e2 26 3d 90 45 34 3e 87 32 f5 bc 0e 8f 62 bd
       0.040743485 0.17604661 -0.02993132 -0.05531221
0000c0 22 a2 59 be ce dd 97 be 11 f4 08 3d 8b 51 d3 3b
       -0.21253255 -0.2966141 0.033435885 0.0064489297
0000d0 b0 09 88 3e bc 86 4c be 06 6c 59 bc a4 18 6f be
       0.2656989 -0.19973272 -0.013270384 -0.23349243
0000e0 23 52 39 3d 6b b0 1f be f5 2d ca 3c ec e7 81 bd
       0.045244347 -0.15594642 0.024680117 -0.06343064
0000f0 27 7b 82 be 81 e2 22 be 72 2f 57 3e 37 cc 4a 3e
       -0.25484583 -0.15906717 0.21014193 0.19804464
000100 54 57 ef bd dc 3b 4b bc 28 1b 52 3e d7 3d 8f 3e
       -0.116865784 -0.012404408 0.20518172 0.27976868
000110 8e f3 e4 bc a0 dd 34 be 12 9e 57 3e ac 04 67 be
       -0.027948167 -0.17662668 0.21056393 -0.22560376
000120 94 91 97 be 11 76 62 be 03 26 2d be 1e e7 c7 bb
       -0.29603255 -0.22115351 -0.16909032 -0.0061005494
000130 48 ac 40 3e 98 6c 84 3d 07 81 40 3e 20 81 03 3d
       0.1881572 0.06466025 0.1879922 0.032105565
000140 8d 72 09 be b8 15 a4 be 9f 30 1f be c7 0c b3 be
       -0.13422604 -0.3204782 -0.15545891 -0.34970686
000150 87 f9 d9 3d 07 64 8e 3e 70 4f 45 3d 53 60 63 3e
       0.10643297 0.2781069 0.04817146 0.22204714
000160 f4 03 73 be ac a3 89 3e c4 ed 98 3e a4 08 9e 3e
       -0.23731977 0.26882684 0.298689 0.30865967
000170 a5 d4 08 3e 83 e9 a6 3c 90 02 4f 3e d7 d8 ac 3e
       0.13362367 0.020375019 0.20215821 0.33759186
000180 2c 07 f0 3d ae 2e c9 3d 2c bb 7c 3d 26 c8 87 3e
       0.11720118 0.098233566 0.06170194 0.2651989
000190 54 22 4e bd 72 6c d6 bd ae fe 56 be c6 63 96 3d
       -0.050325707 -0.10469903 -0.2099559 0.07343249
0001a0 72 be ab bd 7f 18 9b be 03 25 e3 bd 4b 0c 46 3e
       -0.08385934 -0.30292127 -0.11091044 0.19340627
0001b0 f6 a5 3b 3d d2 52 a3 be 21 5d 9c 3e f6 00 b2 3d
       0.04581257 -0.31899124 0.30539802 0.086915895
0001c0 94 47 0f 3e 8d 91 8d 3e c6 2e 94 be 2b 78 84 3e
       0.13992149 0.2765011 -0.28941935 0.2587293
0001d0 a9 e5 33 bd 1d 88 35 be 75 c9 7d be 1f 47 6f 3e
       -0.043920193 -0.17727704 -0.24783881 0.23366974
0001e0 de 87 99 3e 2c a1 26 3e 9d 9d b4 bd c1 6d a2 3d
       0.2998647 0.1627242 -0.08819125 0.0793109
0001f0 b0 55 9e 3a 5b 2a b4 bd 71 7b a9 3a 45 0a 86 3e
       0.001207998 -0.08797141 0.0012930465 0.2617971
000200 9e 91 9c 3c c1 9a 61 be 6a 51 e2 bb 31 37 70 bd
       0.019112404 -0.2203169 -0.006906678 -0.058646385
000210 0d bf 18 be f3 ca a7 3e b4 af a6 3d 28 fa 5d be
       -0.1491663 0.32772025 0.081389815 -0.21677458
000220 ee 6c b2 bd ad 4d 0d bd d8 d8 8c 3d b1 84 d5 bd
       -0.08712183 -0.034497906 0.06877297 -0.104256995
000230 07 23 6a 3d 19 a8 a6 3e 3f 22 11 bd 35 a0 9f be
       0.05716231 0.32550123 -0.03543305 -0.31176916
000240 14 bd 4f 3e e1 be e6 bc 0b d0 90 3d 06 5b 2f be
       0.20286971 -0.02816719 0.07070931 -0.17124566
000250 86 6e 49 be 81 de 8e 3d fe f4 2a 3e e9 0f 24 3d
       -0.19671068 0.06976033 0.1669502 0.040054236
000260 f3 22 7e 3e ea 73 88 bc 32 9d 87 bd c1 c7 8d 3e
       0.2481802 -0.016656835 -0.066217795 0.27691463
000270 e0 7d 79 bd 99 7f d7 3d 66 42 29 bd 78 54 ad be
       -0.06091106 0.10522384 -0.041323088 -0.33853507
000280 1a 93 1a 3e 60 73 d2 bd 4b 6e 37 be 1b f7 7d be
       0.15095177 -0.10275912 -0.17913167 -0.24801295
000290 02 28 8f be b9 04 64 3e 61 13 43 3e fc f4 8d be
       -0.2796021 0.22267427 0.19050361 -0.2772597
0002a0 59 a6 61 be c4 e8 99 be 1e fb 05 3e c6 a4 29 3e
       -0.22036113 -0.300604 0.13084075 0.16566762
0002b0 16 5b 91 3e 44 ae 32 3e c1 60 91 be c7 8d 90 be
       0.28389806 0.1744929 -0.2839413 -0.28233168
0002c0 fa ca 83 3e f9 65 c4 bd 86 f8 9e 3e 27 b5 bf 3d
       0.25740796 -0.09589762 0.31048983 0.09360724
0002d0 1f 82 7a 3e 9d 89 89 be d3 be 40 3e 12 d5 88 3e
       0.244637 -0.26862803 0.18822794 0.2672506
0002e0 5e 96 b5 3e 99 2e a1 be e5 00 60 3d 03 82 b1 be
       0.35466284 -0.31480864 0.054688353 -0.34669504
0002f0 f4 9c 11 3e 15 4e 04 3e 54 7b a4 bd 15 8f 88 3e
       0.14220029 0.12920411 -0.080313355 0.26671663
000300 74 d1 9b 3c ef 65 b6 bd e6 ee a1 be d0 54 8d 3d
       0.019020773 -0.08906161 -0.31627578 0.06900942
000310 a7 2e 74 bc c5 f7 7b be 81 6a 06 be 17 81 94 3e
       -0.014903701 -0.24606235 -0.13126566 0.29004738
000320 d0 86 a1 3e a6 ac 9a 3e e3 36 42 3e 51 61 a2 3e
       0.31548166 0.30209845 0.1896625 0.31714872
000330 3e d1 4e be 0a c1 fd bd 23 41 da bd 18 ef 78 3d
       -0.20197007 -0.12390335 -0.10656955 0.060774893
000340 6a 16 b7 3d cc e4 2e bc 88 9b b8 3d 90 5a 7a be
       0.08939822 -0.010674667 0.0901404 -0.2444861
000350 71 c7 92 be 93 96 da 3c a9 50 54 be 00 37 7b be
       -0.28667787 0.026683128 -0.20733894 -0.245327
000360 3f 12 4d 3e f9 35 a6 3e 26 5c b3 bd 13 64 46 3e
       0.20026492 0.32463053 -0.0875781 0.19374113
000370 60 77 78 3d b6 f2 82 bd 16 b4 08 3e 0b 61 dc 3d
       0.06066072 -0.0639395 0.13349947 0.10760697
000380 45 5a 30 3e ac 37 5f 3d f6 24 5a 3e 9b 11 9a 3e
       0.17221935 0.054496452 0.21303162 0.30091557
000390 97 f2 7d 3d 11 65 13 3e b6 4c 5c 3e b4 34 44 be
       0.06199893 0.14394023 0.21513638 -0.1916073
0003a0 d8 45 9a be 35 9c 45 3e 95 45 05 be 1e f6 9f bd
       -0.30131412 0.1929787 -0.13014825 -0.07810615
0003b0 a0 38 8b be 86 2f 5a bd 78 23 38 be 61 8e af 3e
       -0.2719164 -0.053267978 -0.1798228 0.34288314
0003c0 f1 30 45 bd f6 ce 2e 3d 47 20 90 3e f3 f5 89 3e
       -0.048142377 0.042677842 0.28149626 0.26945457
0003d0 be 53 7f 3e ef 22 3c 3e d0 0c 08 be 0c 5c 8e be
       0.24934289 0.18372701 -0.13286138 -0.278046
0003e0 5b 18 d7 3d 50 4b 1c be 9c 5b 8a bc 84 18 97 3d
       0.10502692 -0.15263104 -0.016889386 0.07377723
0003f0 8a 4a b5 3e c0 6b 1a be 17 c9 3f 3e 20 60 3b 3e
       0.3540843 -0.15080166 0.18729053 0.18298388

pool1.weight f4 [1, 32]
000000 02 22 b3 be e5 5c bc 3d 07 06 1b 3d 9f f6 a6 be
       -0.34986883 0.09197406 0.037847545 -0.32610032
000010 ac 38 30 3d 68 d2 c3 bd b3 d2 dc 3d df 9c 68 be
       0.043022797 -0.09561616 0.10782375 -0.22716092
000020 5e 55 14 be 0a b5 5c 3d 83 4a ee bd a8 cf dc 3d
       -0.1448569 0.05388359 -0.11635306 0.10781795
000030 cd e2 d0 bd fb 08 d9 bd 5c a6 26 be b0 43 03 be
       -0.10199509 -0.10597416 -0.16274399 -0.1281879
000040 67 bc b3 3d 6c 7c 31 3d 8a df d3 3c ac 58 45 3e
       0.08776169 0.04333155 0.025863428 0.19272107
000050 91 6a a8 be 08 36 23 3e df e0 16 be a7 a1 e4 bd
       -0.32893804 0.1593858 -0.14734219 -0.11163645
000060 18 7c 40 bf 21 0c 97 3e c5 64 36 3b fb 23 bb bd
       -0.7518935 0.2950144 0.002783106 -0.09137722
000070 10 e4 34 be 8b fe 85 be 62 b7 91 3d 35 48 d3 bd
       -0.17665124 -0.26170763 0.071150556 -0.10316507
